tensorflow/data/model.tflite (tflite, 8660 bytes, 8 tensors)

arith.constant f4 [4, 16]
00000000: 8740 c63e 564c 033f 832d bc3d 3275 7abe
00000010: c6a0 473e 715d 8d3d 5810 313d a3eb 2ebe
00000020: b00f 943e bb3c fc3e 6562 15bf 97cc 023f
00000030: 9dcd bdbe b6a8 02bf 244f 8abe 5d39 143f
00000040: 3342 1fbd 9cf6 56be b4cd 3ebe 0794 ac3e
00000050: d409 2dbf 8e47 2d3d e66e e23d 0939 e2be
00000060: 8e74 12bf 08c7 a73e d820 a73e 0622 a23e
00000070: 5241 f1bc 9589 493e bffe c4be 0c63 16bf
00000080: c413 073f 0b5e b7be 499e c1be eaa1 11bf
00000090: 3f04 2d3e cbc0 ab3e eaf2 13be cffb 36bd
000000a0: 203b b0be af20 bbbd de8c ac3e 1347 21bf
000000b0: f3da 0bbf 5a49 e3be 55c6 38bf b90e 07be
000000c0: 7af1 2ebe b622 97be ed35 4cbe 533f 27bf
000000d0: 6e51 053e 8d1d 1c3e c7e9 bfbe 8f17 15bf
000000e0: 95f7 83be d219 cc3e fc9e 513e 50b9 0dbf
000000f0: d1f2 6f3d 5377 76bc 38fd 8dbe e2df a53e
0.38721105 0.51288354 0.09188368 -0.24458769 0.19494924 0.06902588 0.043228477 -0.17082076
0.2891822 0.49265084 -0.58353263 0.5109343 -0.37070933 -0.5103868 -0.27013505 0.5790003
-0.038881492 -0.20992512 -0.18633157 0.33706686 -0.6759312 0.042304568 0.110563084 -0.4418414
-0.572091 0.32769036 0.32642245 0.31666583 -0.029450092 0.1968139 -0.38475606 -0.58744884
0.52764535 -0.35813937 -0.37816074 -0.56887686 0.16896151 0.33545527 -0.14448133 -0.044673737
-0.3442011 -0.09137093 0.33701223 -0.62999076 -0.54630965 -0.443919 -0.7217763 -0.1318921
-0.17084303 -0.2951867 -0.19942446 -0.65331 0.13019344 0.15245648 -0.37483045 -0.5823907
-0.25774828 0.3986345 0.20470804 -0.5536089 0.058581177 -0.015043098 -0.27732253 0.32397372

arith.constant1 f4 [16, 64]
00000000: d430 923d a53f 933b 9517 4f3e ecb8 bd3e
00000010: e3d0 4ebe a029 153e 78a3 673d c0bc 013d
00000020: f0c8 0b3e 6fba c13e 2b7f c23e d3c5 8f3e
00000030: 5208 3c3b bbd0 a1bd 017e 873e f54e 103c
00000040: 8101 8d3e 5870 bd3c 53d1 a6bd 96f9 68be
00000050: fcba ee3c a05f 903e c018 03bc aabd 9bbe
00000060: c633 833b 601b 14be d941 23bc 5faa 84be
00000070: 111c aebc 9034 56be d60d 243e a3cd 473d
00000080: db4e 783c 0d7c 27be ee4e 993e e6bb 9b3e
00000090: 06a8 76bd 7c9b 47bd 2470 763e e196 2fbb
000000a0: 39e2 78be 61a1 833c c0f4 87be a58e e73d
000000b0: 90ef a3bd c87a a73e e0b3 50bd 1d20 573e
000000c0: e5c2 68bc d2a4 28be 2aab fe3d d03c b53e
000000d0: 2608 3fbe 8aa7 013e e720 c03e 6842 1fbe
000000e0: 7111 e5bd f6ee 683e dada b73e c28e cabd
000000f0: 67d3 f5bd 0c96 333e 2ac8 aebd db2b 283d
00000100: 3734 903e f4f8 85bd b617 483e 9298 24bd
00000110: 4cfa 2abe f146 b7bd 13da 11bd dd4c 95be
00000120: 1df9 03be 8787 443e 1760 3e3e 0f75 3abe
00000130: 109f 58be ddb3 a0bd 1669 ab3e 58a3 623e
00000140: 53c9 633d 9cc7 42bd ec59 81be 896c 573e
00000150: d7be 353e ebaa e13d 8104 32bb 7384 66be
00000160: e6db 413e 867d 0abe f368 30be 97f3 a2bd
00000170: e5f1 593e 8385 46bd 9553 273e f7e9 83be
00000180: 21a2 143e 4cf9 45bd 4ac1 b13e 452d 35be
00000190: 380a f93d d633 333c ef41 3abc d763 45be
000001a0: 583f 4b3e 9879 a8be fc17 bfbd a7c5 2f3e
000001b0: 7b16 8b3e dc07 543d 3b6b b1bd c114 203e
000001c0: a27c 6fbe 628a 18bd b382 a6bc 0d7f d2bc
000001d0: 546d f73d a296 0c3d c864 88be 3903 42be
000001e0: b09f 77bd 060f 1f3e b960 913e 2b32 473e
000001f0: 1530 6abe d04b 09be 6e7e 1bbd d86f 3ebe
00000200: 4c4c 593e b0fb 75be 1444 f13d a840 9ebe
00000210: 8ab2 a53c f4e6 863e 12e4 06bd 8221 8abe
00000220: 472c 633e 0a26 8d3d 06a4 113e c615 c93d
00000230: c942 2c3c fd19 51bd 22c7 e03d f23f a33b
00000240: e390 ee3c 4dd7 81be a2de f5bd baa0 9d3e
00000250: e389 33be ed56 afbd 609a 523e 4501 80bd
00000260: 821e 653e 6de0 013b 551e f33d e322 5bbe
00000270: 95e4 943c 3ee8 41be a2aa 9c3e a9a6 30be
00000280: 8fc8 dabb 0d30 fcbd 5fda acbd 038c 873e
00000290: f8a1 a0bd 5545 94be cac4 7e3e 936d 493e
000002a0: 70c8 423e 922f 6abe 47f8 053e c434 8e3e
000002b0: 2035 763e eaec af3d 369e 6bbc 3650 a13e
000002c0: 378d 78be 52e5 71be c7b5 babd 096a 4f3d
000002d0: d0ba 85be 50ce 66be 03cf 233c b191 083e
000002e0: 3f37 49be ca16 c53d 2a07 263d 08a2 2a3e
000002f0: 92ae 1b3e bfbc b13d 35bd 4fbd 5fe9 293e
00000300: 9719 6c3e f672 a9bd 8948 933e e3a7 283e
00000310: 5bd6 9ebe 2631 093e cb68 b13b f410 94be
00000320: 4d5e 83be 7ba7 46be 7d42 e53c 37b5 393d
00000330: 1042 013e b599 8dbd 733a 053b 0c53 5e3e
00000340: 1869 cebc 32f7 443d 9048 7bbd 2489 793e
00000350: 32ea 053c c68f 61bd 1a8e c43d 4ad4 3ebd
00000360: e18c 043e 00e2 ac3e c536 e53d b52c 78be
00000370: 1762 9f3e 8d48 4d3d 00a9 2bbe fc35 b9bd
00000380: a15e 2dbc 6937 b83e c45e 2abe 136d ca3c
00000390: c886 3ebb 1f88 7c3d 2285 803d e829 c33d
000003a0: c0f1 c53d 5b2d 903d 7cd9 2dbe b6bd 03be
000003b0: a45d cd3d e34b 8ebc 227b 17bd 9827 623e
000003c0: 5c64 393e f239 063e fd08 64bd e446 94bd
000003d0: bc8b fd3c a0a7 833d 5bd0 d6bc e745 a7bc
000003e0: 46be 88bd 9c45 13be 924f 813c 08b5 84be
000003f0: c0b4 893e 7ce2 3c3d 2989 b53e 41c0 a13e
0.071382195 0.004493671 0.2022384 0.37055147 -0.20196871 0.1456666 0.05655238 0.031674147
0.1365087 0.3783755 0.37987646 0.28080615 0.0028691483 -0.0790114 0.2646332 0.008807887
0.2754021 0.023124859 -0.08145394 -0.2275146 0.029141895 0.28197956 -0.008001506 -0.3041814
0.0040039746 -0.14463568 -0.00996443 -0.25911233 -0.021253617 -0.20918489 0.16020903 0.048780095
0.015155519 -0.16355915 0.2994303 0.30416793 -0.060218833 -0.048732266 0.24066216 -0.0026792812
-0.24305047 0.016068162 -0.26553917 0.11306504 -0.08004677 0.32710862 -0.050952792 0.21008344
-0.014206623 -0.16469124 0.12434991 0.3539796 -0.18655452 0.12661567 0.37525102 -0.15552676
-0.11184967 0.22747406 0.35909158 -0.0989051 -0.120032124 0.17537707 -0.08534272 0.04105745
0.28164837 -0.06541625 0.19540295 -0.040184565 -0.16697043 -0.08949078 -0.035608362 -0.29160205
-0.12887998 0.19192325 0.18591343 -0.18208717 -0.21154428 -0.07846806 0.33478612 0.22132623
0.05561192 -0.047553644 -0.25263917 0.21037497 0.17748581 0.11018928 -0.002716333 -0.22511463
0.18931541 -0.13524446 -0.17227535 -0.07956617 0.21283682 -0.04846717 0.16340478 -0.2576444
0.14514972 -0.04833345 0.3471778 -0.1769305 0.12160152 0.010937652 -0.011368259 -0.19276367
0.19848382 -0.3290527 -0.093307465 0.17165242 0.2716559 0.051765308 -0.08663031 0.15632917
-0.23387387 -0.037241347 -0.020325994 -0.025695348 0.120813996 0.034323342 -0.2663939 -0.18946542
-0.060455024 0.15533075 0.28394106 0.19452731 -0.22869904 -0.13407826 -0.03796237 -0.18597353
0.21220511 -0.24021792 0.11780563 -0.30908704 0.020226736 0.26348078 -0.03293235 -0.2697869
0.22184859 0.06892021 0.14222726 0.09818606 0.01051397 -0.051050175 0.109754816 0.004981988
0.029121822 -0.25359574 -0.120053545 0.30786687 -0.17533068 -0.08561502 0.20566702 -0.06250242
0.22374919 0.0019817606 0.1187102 -0.21400027 0.018175403 -0.1893625 0.30598933 -0.17251076
-0.0066767405 -0.123138525 -0.084400885 0.26474008 -0.07843393 -0.28959146 0.24879757 0.19670705
0.19021773 -0.22869709 0.13082992 0.27774632 0.24043703 0.0859011 -0.014380982 0.3150651
-0.24272619 -0.23622635 -0.091167025 0.050638232 -0.2611909 -0.2253964 0.009998086 0.13336827
-0.19649981 0.09623487 0.040534176 0.16663373 0.15203312 0.086785786 -0.05071755 0.1659293
0.23056637 -0.0827388 0.28766277 0.16470294 -0.31022915 0.13397655 0.0054141036 -0.28919184
-0.25657883 -0.19399826 0.027985806 0.045338836 0.12622857 -0.06914083 0.0020329028 0.21711367
-0.025196597 0.048087306 -0.061348498 0.24368721 0.008173512 -0.055068754 0.09597416 -0.046589173
0.12944366 0.33766174 0.11192087 -0.24235804 0.31129524 0.050118018 -0.16763687 -0.090435
-0.010581643 0.35979775 -0.16637713 0.024710214 -0.0029072035 0.061653253 0.06275393 0.09529477
0.09665251 0.07039901 -0.16977495 -0.12865338 0.10027626 -0.01737017 -0.036982663 0.22085416
0.1810469 0.13108042 -0.055672634 -0.07240084 0.03095042 0.06428456 -0.026222399 -0.020419074
-0.06676917 -0.14382023 0.015785012 -0.25919366 0.26895714 0.04611443 0.35456207 0.3159199

arith.constant2 f4 [64, 5]
00000000: 88b0 82be 7b19 113e 8036 963e 0fc6 1e3e
00000010: 3be5 c33c 7412 f6bd 4cf0 673e e61a 7dbe
00000020: ee75 3bbe df3e 29be 5d10 253e 83b2 2fbe
00000030: e208 0d3e b498 5cbd 8456 9a3e 037e 0bbe
00000040: f2d3 2ebe 8fee 0a3b 2622 9bbe 8284 41be
00000050: f175 8fbc 8dc5 1d3e 4669 74be a746 3f3d
00000060: 9a30 6cbe eed0 c63d 13cc 833e aeb5 4c3e
00000070: 6244 f9bd fd03 7e3e 09a3 253e 818a cdbd
00000080: 20d5 f13b ecd4 373e 1b8e f8bc 41ff 783e
00000090: b7aa 57be 989c a4be 11df 27be f306 7bbe
000000a0: 5f5c 6cbe 458a 11be 186c 043e a09c 33be
000000b0: d2fd 52be d748 453e b8d9 593d 83b3 8ebe
000000c0: 9a40 bdbe 8030 95bd c6a8 8d3e 3cd0 53bd
000000d0: c127 3d3d ddaa 4bbe 62a3 b8be 8f59 073e
000000e0: b0e9 8d3d 797b 393d ed90 4dbd b22b c53c
000000f0: 2dee 153e 2e4d 253d b680 0dbe 8483 f03d
00000100: b6a1 573d 14d9 24be 9532 59be 41e3 e8bd
00000110: 495c 03be f6a4 b7bc 28c4 36bd 7d7b 103e
00000120: 392a 37be c4d5 8bbe c53a 783e 7cf9 84bd
00000130: 0dee 8fbe dd01 a13e eaac 353e e81d a13e
00000140: 7373 753e c856 b73e 655e a2be 94a0 6abe
00000150: d996 3cbe aae3 44be 23b0 923e 5de7 3dbe
00000160: 3d14 5a3c e8e1 b5be 8e6c 2abe e721 fb3c
00000170: c8a3 59be d1f9 babc 3632 eebd 39d0 8fbe
00000180: bac7 033e ba53 aabd 0c27 573e 9c15 ad3e
00000190: afbd 533e 83b4 043e bdaa ec3c 236a 443e
000001a0: 5249 2abe 02be e8bd 104a f63d 245d 5bbe
000001b0: c7aa a4be 7d9a 07be 234a c2bd 5226 643d
000001c0: 1c7d 543c f1ce e93d 0caf 99be 7cde 373e
000001d0: 3a99 03bd 6354 91bd 8d66 993e 0707 8fbe
000001e0: 7025 9a3e b864 9a3e bd59 dc3d 1d2f 7c3d
000001f0: 65fa 213e ce5f adbd 470c af3c 7fc0 c8bd
00000200: 14e9 f6bd a77b 813e c9da 053e 0106 dfbd
00000210: 9853 fdbb 807a 9a3e 65e3 ff3d 8c6f e7bd
00000220: f971 093d 032c 9ebe 75a4 803d dac4 21bd
00000230: 362f 933e f7b7 2b3d 2b54 bb3e 808f 4e3e
00000240: 99fa 983e d46d 893d 67a7 99bd 54b3 453e
00000250: 8225 323e 5e1f 823c 47b8 5dbe 5e2f 2b3e
00000260: 4ecf 69bd c2f8 8fbe 55be f83d 5334 023e
00000270: 0e8f 03bd 7c30 b93d e5c9 acbe b782 bbbe
00000280: ad25 8a3e addd 45be a901 9f3e 8536 c03d
00000290: 0c18 a93e 8d2f 48be a32f a13d b657 1f3e
000002a0: 689d 4d3e 82c0 9e3e 6dc4 d4bd d118 123e
000002b0: 9ee3 a6be 4cb9 4ebd e96c 623e 672c 74be
000002c0: d5d8 223e 45fe 303e 22c4 50be ee08 413e
000002d0: da5f 903d 0978 bb3e 727d 8abe 4bea 2d3e
000002e0: 502a 3f3d b984 863e 5ad6 c73a e416 b23b
000002f0: 543f 3ebd 09e1 37be ef91 72be 179c 8b3e
00000300: 2f89 493d 5c63 aa3e 4b62 443d 5c83 2d3d
00000310: 5331 0cbe f9ce 68be 757f 5ebe 6b93 3c3e
00000320: 97b0 93be 97b7 26be d9d5 79bd 3107 933e
00000330: 2a44 17be b226 48bd ce78 a2be aab3 8ebe
00000340: 260b fbbd fb9c 64be 7735 c6bd 2941 303e
00000350: 2a1f bebe d69b 843e 617d a6bd b6bf f3bd
00000360: 3151 44be 44cb bd3b 1ac9 673e d084 5fbe
00000370: 4d2b 57be 935f 9abb 2d2f e23d bafe 8abd
00000380: 9da7 673e 4d05 1ebe d1d5 933b 05ae 28be
00000390: 566e 8cbe a185 283e 3de0 f53d ac12 d73d
000003a0: 347b 8bbe 8f40 0ebe b3e7 463e cc3b 9f3e
000003b0: 0ca9 90bd 501f 863d fd20 9fbe b278 633e
000003c0: b6c1 483e 989e 4a3e e27b 0a3c 1c72 c53d
000003d0: 6e7a 59be d3b5 293e ef6d 013e 6793 a03e
000003e0: 6892 e63d a2b4 8c3c 5481 803e aef3 0fbe
000003f0: e647 e6bc f05b 14be 35d3 8e3e 0e93 a73e
-0.25525308 0.14169876 0.29338455 0.15505241 0.023913017 -0.120152384 0.2265026 -0.24717292
-0.18306705 -0.1652789 0.16119523 -0.1715794 0.1377292 -0.053856567 0.3014413 -0.13622288
-0.17073038 0.002119932 -0.3029949 -0.18898204 -0.017512294 0.15407391 -0.23868284 0.04669824
-0.23065415 0.09707819 0.25741634 0.1999118 -0.12171246 0.24806209 0.16175474 -0.10036183
0.007380143 0.17952317 -0.030341199 0.24316122 -0.21061216 -0.32150722 -0.16393687 -0.2451437
-0.23082112 -0.14212902 0.1293186 -0.17540216 -0.20604637 0.19266067 0.05318615 -0.27871332
-0.3696335 -0.07284641 0.27667826 -0.05171226 0.04618049 -0.19889398 -0.3606215 0.13217758
0.06929338 0.04528377 -0.05018704 0.024068687 0.14641638 0.040356807 -0.1381863 0.117438346
0.052644454 -0.16098434 -0.21210702 -0.1137147 -0.12828173 -0.022417527 -0.044620663 0.14109607
-0.178872 -0.27311528 0.24241169 -0.06492898 -0.28111306 0.31446734 0.17741743 0.3146813
0.23969822 0.35808396 -0.31712642 -0.22912818 -0.18416919 -0.19227472 0.28650007 -0.1854529
0.013310489 -0.35523915 -0.16642973 0.030655814 -0.21253884 -0.0228242 -0.11630671 -0.2808855
0.12869158 -0.08316751 0.21010989 0.3380555 0.20677827 0.12959485 0.028890008 0.19181113
-0.16629532 -0.11364366 0.12025845 -0.21422249 -0.32161543 -0.13242526 -0.09486797 0.055700608
0.0129692815 0.11416424 -0.30016363 0.17955965 -0.03212855 -0.070961736 0.29961053 -0.2793505
0.30106688 0.30154967 0.10759304 0.06156837 0.15818174 -0.08465539 0.021368159 -0.09802341
-0.12056175 0.25289652 0.13071741 -0.10889817 -0.0077309124 0.30171585 0.12494544 -0.11300573
0.03355596 -0.30892953 0.06281368 -0.039494373 0.28746957 0.04192349 0.36587653 0.20171928
0.2987869 0.06710401 -0.075026326 0.1930669 0.1739712 0.015884098 -0.21652327 0.16717288
-0.057082467 -0.28119475 0.12145678 0.12715273 -0.03211885 0.09042451 -0.33747783 -0.36623165
0.2698187 -0.19322844 0.31055954 0.09385399 0.3302616 -0.19549389 0.07870414 0.15560803
0.20079577 0.31006247 -0.10389028 0.14267279 -0.32595533 -0.05046968 0.22111858 -0.23845063
0.15903027 0.17284496 -0.20387319 0.18851063 0.07049532 0.36615017 -0.27048832 0.16983907
0.04667121 0.26273134 0.0015246377 0.0054348577 -0.046447113 -0.17956938 -0.23688482 0.27267525
0.049203094 0.3327893 0.047945302 0.042361602 -0.1369069 -0.22735204 -0.21728308 0.1841561
-0.28845665 -0.16280971 -0.060994957 0.28716424 -0.14772096 -0.048865028 -0.31732792 -0.27871448
-0.12257986 -0.22325508 -0.09678166 0.17212357 -0.3713315 0.25900143 -0.08129383 -0.119018
-0.19171597 0.0057920534 0.22635308 -0.21828008 -0.21012612 -0.0047111004 0.11044154 -0.067868665
0.22622533 -0.1543171 0.004511573 -0.16472633 -0.2742793 0.16457225 0.12005661 0.10501608
-0.27242434 -0.13891815 0.19424324 0.3110031 -0.07063493 0.06548941 -0.31079856 0.2221401
0.19605145 0.19787061 0.0084523875 0.09640905 -0.2123811 0.16573267 0.12639593 0.3136246
0.112583935 0.017175976 0.2509867 -0.140578 -0.028110456 -0.14488196 0.27895513 0.3272938

arith.constant3 f4 [1, 5]
00000000: f09f 263b d967 553b a509 8f3a e6f6 563a
00000010: 7a26 ab3a
0.002542492 0.0032563119 0.0010912908 0.0008200243 0.0013057732

Const_1 f4 [1, 5]
00000000: ad04 7945 e321 7b45 b6e7 f444 4833 2545
00000010: 4025 be44
3984.2922 4018.118 1959.241 2643.205 1521.1641

sequential_1/dense_1_2/Add/ReadVariableOp f4 [16]
00000000: 0da0 e13d c76f a33d 11b8 9f3d 0e95 873d
00000010: 1563 ba3d c160 e4bc fafb c63d b36e 8a3d
00000020: d45f 423d 21b3 49bc 257f 433d 81a9 b63d
00000030: cfbd 613c 89ec 5dbd f8ea 873d 83c5 0d3d
0.110168554 0.07980304 0.0779878 0.06620227 0.0910093 -0.027878167 0.097160295 0.067593955
0.04745467 -0.012310774 0.047728676 0.08919049 0.013778164 -0.054180656 0.066366136 0.03461219

sequential_1/dense_1/Add/ReadVariableOp f4 [64]
00000000: 9e21 9b3d 3e01 263d 8866 c63d dcf3 c03d
00000010: bafd 5bbd c38d c43d 7658 423a ea99 cf3c
00000020: 2fff 0e3d 5858 bf3d 4dff c53d 2757 45bd
00000030: f6c8 62bd 5595 6cbd 59a9 8a3d 1243 8e3d
00000040: e1a9 873d f998 5f3d 8e9b aa3c c868 863d
00000050: 1183 813d 1f36 7fbc 76d9 a93d efa5 06bd
00000060: 4d3d c93d dd8c 4dbd 5a61 5abd fb73 f2bc
00000070: 3a2f e53d 958b a2bd 84a0 b03d e884 7abc
00000080: 805c c93d 0e50 bdbb 6555 b93d e5fa 553d
00000090: c0c1 1f3e 3172 debb e814 bb3d eccc c13d
000000a0: d294 a43d e4f0 e33d db60 053d 972a 9e3c
000000b0: b44f e23d b924 d43d 6c24 573c 4f0a e43d
000000c0: ab0c b23b 530d 443d facd 4e3d cde7 813d
000000d0: c1ae c73d 205a e23d 768b 8c3b 6bf4 8d3c
000000e0: 3b32 9ebc 57b0 c73c 3572 e13d c816 973c
000000f0: 03cc 0a3d 26cf a43d 1313 733d 2815 12bd
0.07574771 0.04052853 0.09687525 0.094215125 -0.05370877 0.095973514 0.00074136944 0.025341947
0.03491133 0.09343022 0.096678354 -0.048178818 -0.055367433 -0.0577596 0.06770582 0.069463864
0.06624199 0.054589245 0.020826127 0.06562954 0.06323827 -0.015576868 0.082934305 -0.03287309
0.09826145 -0.050183166 -0.053315498 -0.02959632 0.111906484 -0.079367794 0.08624366 -0.015290476
0.09832096 -0.0057773655 0.09049491 0.052241225 0.15601254 -0.006788515 0.09134847 0.09462914
0.08036198 0.111299306 0.03256307 0.019307418 0.110503584 0.10358567 0.013131242 0.11134779
0.005433639 0.04786427 0.050489403 0.063430406 0.097501285 0.11052346 0.004289086 0.017328462
-0.019311061 0.024376078 0.110081114 0.01844348 0.033885967 0.08047323 0.059344362 -0.035664707

sequential_1/dense_2_1/Add/ReadVariableOp f4 [4]
00000000: 2426 d43b a7c5 01bd 6cd4 213d 7fca 68bc
0.0064742733 -0.031682637 0.039509222 -0.014208435
