tensorflow/model.tflite (tflite, 18496 bytes, 10 tensors)

arith.constant f4 [10, 32]
000000 1f bf d8 3e 48 4e aa 3d 43 ec 08 be f9 18 a8 3e
       0.42333314 0.08315712 -0.13371377 0.32831553
000010 64 95 5d 3e c2 b5 8b be b9 0c 93 3e 33 68 9e 3e
       0.21639019 -0.27287108 0.28720644 0.30938873
000020 12 32 8e be 2f 0c 68 be f9 20 98 be 82 73 50 be
       -0.27772576 -0.22660898 -0.29712656 -0.20356563
000030 77 86 ae 3e ab 04 63 bd 5c ba 42 bd 1c e0 9f bd
       0.34086964 -0.055424374 -0.047541007 -0.07806417
000040 6f c0 ba 3e 78 d9 df bd 7c d7 46 3d 8f 58 0e be
       0.3647494 -0.10930151 0.048545346 -0.1390097
000050 0a 67 fc bd ac fc 6f bd 7b 4f 9c 3b 41 cd cb 3e
       -0.12324341 -0.058590576 0.004770217 0.39805034
000060 66 49 f7 3e 92 41 f4 3c c8 83 28 be 1a db 99 3d
       0.48298186 0.029816423 -0.1645652 0.075124934
000070 79 6c 40 be 52 97 57 3e e0 ab b0 be 6b 74 a0 be
       -0.18791379 0.21053818 -0.3450613 -0.3133882
000080 a1 ac 82 3d b5 2d aa 3e 11 8c 92 bc 73 e2 1a be
       0.063805826 0.33237997 -0.017889054 -0.15125446
000090 0b 55 c8 3e bf f3 a2 39 2f 5d 9c 3d b6 ca fa be
       0.39127383 0.00031080653 0.07634961 -0.4898278
0000a0 7d 22 56 3d f1 75 ab bc c1 e9 88 3e a7 18 70 3e
       0.052278984 -0.020930262 0.2674084 0.23446904
0000b0 51 b4 ed bb 2d 37 8d be 46 10 94 be a9 14 a2 3d
       -0.0072541614 -0.27581158 -0.28918666 0.07914097
0000c0 bd 21 bc 3e fc 43 21 be 19 e0 3e be 0f 25 88 be
       0.3674449 -0.1574859 -0.18640174 -0.26590773
0000d0 1c 4f 1c 3e 01 ab 0b bf 55 15 8d 3e 3d 22 5d 3e
       0.15264553 -0.54557806 0.27555338 0.21595092
0000e0 40 67 9b be 95 51 1d bf 78 3a f5 3d 8d 9b f0 be
       -0.3035221 -0.6145261 0.11974043 -0.46993676
0000f0 e7 4c 82 bd a5 60 0b 3e a1 6f 3c be 88 c1 3f be
       -0.06362324 0.13611086 -0.18401958 -0.1872617
000100 52 87 a4 3c ea 09 24 be e7 3f 96 be be 47 90 3d
       0.020084057 -0.16019407 -0.2934563 0.07044934
000110 76 f3 13 3e e0 bc 99 3e 38 38 d8 be 8e 8e 9d 3e
       0.14448342 0.30026913 -0.42230392 0.30772823
000120 e1 d5 59 3e 43 c2 0c be e9 2c 94 bd 4c 27 b0 3e
       0.21272995 -0.1374598 -0.072351284 0.3440498
000130 66 cc d7 3d 70 f0 b3 bd 68 4a 81 be 84 ef 6b 3e
       0.10537033 -0.08786094 -0.2525208 0.23040587
000140 67 df 9f be 8a 80 5d be 92 32 2c 3e 14 51 27 be
       -0.3122513 -0.21631065 0.16816166 -0.16339523
000150 e6 15 b3 3e 2c 00 2f 3e 75 01 c3 be 03 87 83 3e
       0.34977645 0.1708991 -0.3808705 0.25688943
000160 fb ba 99 3e 81 6d 84 3e d1 70 ec 3d 68 de e3 be
       0.30025467 0.25864795 0.115449555 -0.4450562
000170 db 99 89 bc 69 be 31 be 57 a9 34 be 8e 22 06 bd
       -0.016796997 -0.17357792 -0.17642723 -0.032747798
000180 02 1c 49 3d 88 88 29 be 84 4f 7c 3d 62 6c a3 be
       0.049098976 -0.16555989 0.06159927 -0.31918627
000190 d3 5a 48 bc c1 19 0d 3e 36 55 26 bf e0 48 c9 be
       -0.012228685 0.13779356 -0.6497377 -0.39313412
0001a0 d5 20 47 bd 39 3f 9b 3e a9 1b d2 be 4a 8e f5 be
       -0.048615295 0.30321673 -0.41036728 -0.4796012
0001b0 fc ab a5 3d 15 c8 b4 3e c3 46 9f 3e ec aa a9 3b
       0.08089444 0.353089 0.31108674 0.005177846
0001c0 d6 46 3b bd d3 7e e9 be f5 57 4b bd c9 9d e5 bc
       -0.04572185 -0.45604572 -0.04964443 -0.02802934
0001d0 3b e6 84 3d bc 73 81 be 88 30 09 be 42 40 8a 3d
       0.064892255 -0.2528361 -0.1339742 0.067505375
0001e0 d0 8a a0 bc 82 a2 0a 3f 5f 4c d1 be 5d a2 11 3d
       -0.019597441 0.5415422 -0.4087858 0.035555232
0001f0 11 9e 99 be 7a e6 c4 be ae 89 61 bd a0 e7 08 be
       -0.30003408 -0.3845709 -0.055062942 -0.13369608
000200 e5 c6 70 be fb af 5b 3c a4 b2 8a 3e 23 ca a9 be
       -0.23513372 0.013408656 0.27089417 -0.3316203
000210 3f 26 0e be 1b 09 b1 3e 93 4e af 3e 73 e0 43 3e
       -0.13881777 0.3457726 0.34239635 0.1912859
000220 fe 22 df 3d b6 6d 5d be 52 5a 9c be 8f 2b 28 bd
       0.10895346 -0.21623883 -0.3053766 -0.041057166
000230 29 1c 2e 3e 04 77 4d bd 02 67 0f bf d5 68 89 bd
       0.1700293 -0.05016233 -0.5601655 -0.06709448
000240 c4 9f 55 be 89 3c 04 be b2 43 02 be fe 40 85 3d
       -0.20861727 -0.12913717 -0.12721136 0.06506537
000250 65 9e 7d be 1b 00 02 bf 9f ac f1 3e a3 aa d6 3e
       -0.24767454 -0.5078141 0.47202012 0.4192706
000260 48 53 9d 3c 72 8e 45 be cb 10 b3 be f8 de 09 3f
       0.01920475 -0.1929262 -0.3497375 0.5385585
000270 02 36 31 3e 3d 1a f5 be be 88 b6 be 1a fb 4f 3e
       0.17305759 -0.4787158 -0.356512 0.20310631
000280 a5 52 ec 3c ad 94 d2 be 79 99 97 3e 4b e4 3b 3d
       0.028848002 -0.41129056 0.29609278 0.045872014
000290 91 81 e0 be 13 b1 2e 3e dc 6e 52 3e d3 64 a6 3d
       -0.4384885 0.17059736 0.20550102 0.081246994
0002a0 35 27 07 3e 55 da 78 3e 7e 24 0a bf 64 57 69 3d
       0.1319855 0.24302037 -0.5396193 0.056968108
0002b0 1e 61 cc 3e a8 e3 dd 3d 91 e9 46 bb ad 7e 48 be
       0.39917845 0.108344376 -0.0030351619 -0.19579573
0002c0 d9 06 12 bc e7 3c 87 be 1c f4 fd 3d f8 13 0b bf
       -0.008912765 -0.26413652 0.12400076 -0.54327345
0002d0 2e 29 a4 3e 7e 4b 48 be 21 63 09 bc eb 66 b0 3e
       0.32062668 -0.19560048 -0.008385451 0.3445352
0002e0 ae 54 01 be 3d 3d e6 bd 07 65 62 be de 4e a0 be
       -0.12629959 -0.11242149 -0.22108851 -0.3131017
0002f0 16 24 9f 3e 87 76 c1 be 91 b0 70 bd 44 4b 29 bd
       0.3108222 -0.37785742 -0.058762137 -0.041331545
000300 a2 d6 d6 bd 10 62 aa 3d 71 20 c9 be 1c f3 cb 3c
       -0.10490157 0.08319485 -0.39282563 0.024896197
000310 92 b4 b7 3c f1 dc 57 be b9 cc 53 3e 5b 24 32 3e
       0.02242497 -0.21080376 0.20683564 0.17396681
000320 d3 78 47 3e de e5 6a be ff c0 bd 3e 5e d2 e2 3e
       0.19479685 -0.2293925 0.37061307 0.44301122
000330 df 5a bd 3c e1 ed 5e 3e 8d 62 35 bd 2e 1f 8d bd
       0.02311462 0.21770431 -0.04428344 -0.06890713
000340 e4 b0 53 bc f0 6b 20 be 6b fb 5d 3e 1c 89 14 be
       -0.012920592 -0.15666175 0.2167794 -0.14505428
000350 18 99 48 be 22 e7 1a be e2 81 03 bf ab e1 ef be
       -0.1958965 -0.15127233 -0.5137006 -0.46851858
000360 d0 91 2e 3e d9 0b ef 3b 53 32 0b be ce b1 a7 3e
       0.1704781 0.0072951135 -0.13593416 0.32752842
000370 3c e8 bd be 6e b7 62 3e fb 97 92 be 15 7a aa be
       -0.37091243 0.22140285 -0.28631577 -0.33296266
000380 1f d7 3f 3e 31 78 19 bf a9 18 0f 3d 9e 86 8b 3d
       0.18734406 -0.5994902 0.034935627 0.068127856
000390 e7 61 c6 3d a2 8e a2 3e 7b af 8b be d9 ff c2 bd
       0.09686642 0.31749445 -0.27282318 -0.09521455
0003a0 0b d0 f6 be 7a 5d 87 3e 9e 6e 05 bf fb be b4 be
       -0.482056 0.26438504 -0.52121913 -0.35301957
0003b0 c4 a2 61 3d 80 e8 e0 bd 5d 44 23 3e 26 41 bf 3e
       0.055086866 -0.10981846 0.15944047 0.37354392
0003c0 49 8e e9 be 36 0f 82 3e 8d bc 09 3d be 3c f5 be
       -0.45616367 0.2540223 0.03362708 -0.47897905
0003d0 32 c7 09 bf 4f 5b e0 bd 0c fe cb bb 79 7b 6e be
       -0.5381957 -0.10954916 -0.006225353 -0.23289289
0003e0 8b fd 1f bf 66 06 1c 3e d7 a7 82 3e aa c5 69 bd
       -0.6249625 0.15236816 0.25518677 -0.057073273
0003f0 a0 29 af be c6 94 7f be be b6 6b 3d aa 1a be bd
       -0.34211445 -0.24959096 0.057547323 -0.092824295

arith.constant1 f4 [32, 32]
000000 24 79 14 bd 4f 31 30 be c7 4e 4f 3e 87 44 cc bd
       -0.03624834 -0.1720631 0.20244895 -0.09974008
000010 d1 e2 3a bd f9 18 3f be 71 32 7b 3e f1 8e a8 bd
       -0.045626465 -0.1866187 0.2453096 -0.08230389
000020 28 7f 58 3e b9 f8 9b 3d 64 4b fa bb b4 12 4d 3e
       0.21142256 0.076157995 -0.007638382 0.20026666
000030 33 2a 72 3e a9 2a 4d 3e 8c 20 7a be b9 aa 42 3e
       0.2364891 0.20035805 -0.24426478 0.19010438
000040 db 04 b9 be b6 67 ba 3e 82 bd ee 3c 51 d0 c7 3e
       -0.36136517 0.3640725 0.029143099 0.3902612
000050 88 e7 fb bd f1 97 53 bd 16 0c b9 bd 61 1c 9a bd
       -0.123000205 -0.051658574 -0.09035508 -0.07524944
000060 ba 6a 3f bc fa e2 4f be 13 6c 77 be 56 f0 91 be
       -0.01168316 -0.20301428 -0.24162321 -0.28503674
000070 eb 59 2a be 16 3a 37 be 74 17 36 3e f1 c3 52 bd
       -0.16635863 -0.17893252 0.17782384 -0.051456396
000080 78 52 7e 3e f5 b6 48 3e e8 06 db bd c6 3a 02 bd
       0.24836147 0.19601043 -0.10694677 -0.031794332
000090 f6 2c 67 3d 90 98 c3 3e 93 13 19 bd ce 32 09 3d
       0.056439362 0.38202333 -0.037372183 0.033495717
0000a0 24 02 d1 3c db aa 2f bd 01 65 c6 bd 37 17 e0 3e
       0.025513716 -0.04288755 -0.09687234 0.43767712
0000b0 da 56 aa 3d b9 02 ad 3e 1f 08 e1 bc 83 0c d2 3e
       0.08317347 0.3379114 -0.027469693 0.4102517
0000c0 b1 35 89 be df 12 8c bc 49 87 17 be 5e 7c a0 bd
       -0.26798776 -0.017098842 -0.14797701 -0.07836221
0000d0 2e 99 57 be 14 60 d7 3e 83 03 1b 3e bd 91 10 3e
       -0.21054527 0.4206549 0.15138058 0.14118095
0000e0 bd ca 7e 3e f0 34 46 be 73 cc cb 3e 65 12 6c 3d
       0.24882026 -0.19356132 0.3980442 0.05763473
0000f0 f0 7b f4 3d ae 51 ed bd 8c 47 56 3e 3d 24 04 be
       0.11937702 -0.11587845 0.2092573 -0.12904449
000100 5f 84 7c bd 31 95 cb 3e 01 c6 2d 3d 65 6b 75 3e
       -0.061649676 0.39762262 0.04242516 0.23966749
000110 12 71 18 3e c5 40 aa 3c 6d a1 88 3d ea 73 a5 bd
       0.14886883 0.020782838 0.066714145 -0.080787495
000120 19 6b 30 be d5 76 fc 3d fb 7a 85 3e 4d dd 9d 3e
       -0.17228355 0.12327353 0.2607039 0.30832902
000130 c0 5a 22 3b 31 c0 13 be 77 08 87 3e 60 0b aa be
       0.002477333 -0.14428784 0.26373646 -0.33211803
000140 b7 1a 89 3e 48 c6 9c bd 24 b1 21 be ea ef c7 be
       0.26778194 -0.07655007 -0.1579023 -0.39050227
000150 43 3d 18 be 27 91 33 be c6 24 91 3e a3 cb 10 3d
       -0.1486712 -0.1753584 0.28348368 0.035350453
000160 20 d9 0c 3e c8 e1 0a be b9 66 a4 3e a7 81 b4 3e
       0.13754702 -0.13562691 0.3210962 0.35255167
000170 64 54 c0 3e bc 40 28 be 46 b2 92 3d 88 a1 46 3e
       0.37564385 -0.16430944 0.07162909 0.19397557
000180 a2 f8 c5 3d 0d 3e 82 3d 58 54 9b 3c 81 b1 b3 3d
       0.096665636 0.063594915 0.018961117 0.087740906
000190 f2 ac 68 be 8d e1 33 3d d3 4f a9 3e 50 4a 8c 3d
       -0.22722223 0.043916274 0.33068714 0.068501115
0001a0 76 6b 77 3e 57 b5 2b be d1 13 56 3e 22 22 d8 bd
       0.24162087 -0.16768394 0.20905997 -0.10553385
0001b0 fb 7c 81 3e 84 1c 1a 3d 39 a0 62 be 58 b4 a6 3e
       0.25290665 0.03762485 -0.22131433 0.32559466
0001c0 a9 b9 8c bb 93 53 9c 3e d9 84 9e 3e 59 30 a7 3e
       -0.0042945934 0.30532512 0.3096073 0.32654074
0001d0 a4 b8 8a 3e a5 d3 63 be 22 37 b4 3e 51 04 05 3d
       0.27093995 -0.22248705 0.35198313 0.03247482
0001e0 00 21 6c 3d 95 34 46 3d d7 42 2b 3e 9d 03 84 be
       0.05764866 0.04838999 0.16724716 -0.25784007
0001f0 7d 51 86 be 72 98 26 be a1 3b 70 3e 54 55 28 be
       -0.26234046 -0.16269091 0.23460247 -0.164388
000200 ae ae ff 3d 33 bb b3 3e 4a 4e c7 3d 06 01 f3 3d
       0.124844894 0.3510376 0.09731729 0.118654296
000210 36 23 91 be c8 a0 b2 3e 5d 3e 05 3e f5 ae 71 be
       -0.28347176 0.3488829 0.13012071 -0.23601897
000220 78 ff c8 3e 69 32 9e 3d 00 41 92 be fe 93 92 3d
       0.39257407 0.07724459 -0.28565216 0.071571335
000230 ae 9b 21 3e 5f 9b f5 bd f0 54 2e 3e d3 d4 74 bd
       0.15782043 -0.11992525 0.17024589 -0.059773277
000240 33 c4 2a 3e 08 3f 87 be 2f 25 4f be 24 b4 2d 3e
       0.16676407 -0.26415277 -0.20229028 0.1696325
000250 93 94 b2 3d 50 12 d8 bd 38 4a a2 be da 40 bd 3d
       0.087197445 -0.10550368 -0.3169725 0.09240885
000260 4e 1e 9c bd bb e2 38 3c 87 1f 86 3d aa b8 9e be
       -0.07622968 0.0112845255 0.06548982 -0.31000262
000270 ae 45 50 3e ad cb c7 bd 11 fd 82 be 34 f3 e9 3d
       0.2033908 -0.09755645 -0.255837 0.114233404
000280 a8 cd 34 3e 5c a6 51 3e 58 0e 86 be 25 76 3e be
       0.17656577 0.20473617 -0.26182818 -0.18599756
000290 c1 84 9a 3e e4 ad fe 3c 2a 56 38 3e 86 b4 91 3e
       0.30179408 0.031088777 0.18001619 0.2845804
0002a0 5e dc 47 be b1 ab e2 3d 59 95 f0 3d d6 7f 3b 3d
       -0.19517657 0.11067904 0.11747236 0.04577621
0002b0 c0 f3 dd bc 9d 26 02 3d c8 26 39 3e c9 80 54 be
       -0.027093768 0.031775106 0.180812 -0.20752253
0002c0 32 37 90 3e 56 aa 39 be 8e 11 d7 3e ae 8e d7 be
       0.2816711 -0.18131384 0.4200558 -0.42101043
0002d0 8a da 7e 3d 26 fc b1 3e e3 02 7d 3d e9 02 16 be
       0.062220134 0.34762686 0.06177033 -0.14649548
0002e0 2c aa 04 bd b8 29 a3 3e 56 30 5c bd a3 17 8d 3e
       -0.03238885 0.31867766 -0.053757034 0.27557096
0002f0 2a 22 50 be f0 f0 92 3c 65 7f 79 3e 1f 48 c0 3e
       -0.20325533 0.017937154 0.24365003 0.37555024
000300 3f 23 c9 3d 37 ca 83 be ab c4 b3 bc 32 7e f6 3e
       0.09821176 -0.25740215 -0.021944365 0.48143154
000310 fd e5 a0 bd 33 02 ea 3d 22 af 5d bd 52 3f 32 3e
       -0.07856367 0.11426201 -0.054122098 0.17406967
000320 f3 7a 3b 3e 10 b2 c9 bc 4c e7 6b 3e 0a 76 7b be
       0.1830862 -0.02462104 0.23037452 -0.24556747
000330 b1 8e 3a bd c8 22 2c 3d 5a e4 88 3e 8d 21 0f 3e
       -0.045546237 0.042025357 0.26736718 0.13977642
000340 e9 7f b3 3e 39 b2 e6 bd bb 86 2f bd b0 65 36 3e
       0.35058525 -0.11264462 -0.0428531 0.17812228
000350 04 23 86 3e f3 13 fd 3e 93 3e 9a be df 00 36 3c
       0.2619859 0.49429283 -0.30125865 0.011108606
000360 3a 90 4b be cb 32 a5 bd 4c be 4e 3d 40 bf c7 3e
       -0.19879237 -0.080663286 0.05047445 0.390131
000370 8f db 8a be 48 a2 9a be dd 36 50 bd db d4 09 bd
       -0.27120635 -0.30201936 -0.05083357 -0.03365026
000380 8b 13 d3 bd 3f 0f a9 bd a7 b7 96 3d 92 a8 9a 3e
       -0.10306462 -0.08254861 0.07359248 0.30206734
000390 aa a3 a1 3a 06 7f 51 be 4e 25 8b be 12 80 3e be
       0.0012332101 -0.20458612 -0.271769 -0.18603542
0003a0 6c 23 4d 3e be 24 51 3d 8e e2 09 3e 16 36 0f be
       0.20033044 0.05106043 0.1346533 -0.13985476
0003b0 24 cb a7 3e 5d ef b8 be 38 94 94 bd d3 3d 8c 3d
       0.32772171 -0.3612012 -0.07254833 0.068477295
0003c0 11 98 13 3e 00 f9 4c bd 31 2a 1b 3e 5d af 7f 3e
       0.14413477 -0.050042152 0.15152813 0.2496924
0003d0 6d ae a2 bb 26 ef 90 3d 91 77 b3 3e 5e 0a c9 be
       -0.004964641 0.07076864 0.3505216 -0.39265722
0003e0 bc 26 86 3e e4 f3 51 3e 13 e8 bf 3e ad b4 51 be
       0.26201427 0.20503193 0.37481746 -0.20479079
0003f0 15 11 33 3e d2 14 46 3e a9 3b 2b be 51 60 f0 3d
       0.17486985 0.1934388 -0.16721977 0.11737121

arith.constant2 f4 [32, 64]
000000 f6 3c 3f bd 41 68 2f be ba 85 56 be 63 66 f4 3c
       -0.046688996 -0.17129613 -0.2094945 0.029833978
000010 8c b6 b2 3e ce 0d b5 3d ae 01 9d 3e 48 23 60 be
       0.34904897 0.08840524 0.30665344 -0.21888459
000020 30 75 ff bc 82 c7 2d be d5 d5 85 3e ba 92 7b be
       -0.031183809 -0.16970637 0.26139703 -0.2456769
000030 99 f4 53 be 01 77 13 3e 47 e0 da 3d ac 87 e3 3c
       -0.20698775 0.14400865 0.10687309 0.027774654
000040 1b 20 76 3e eb 93 0c 3e e7 b8 8c bd b3 19 b4 be
       0.24035685 0.13728301 -0.06871205 -0.35175857
000050 32 3c 9b be ba 3d 3f 3e 7d 9b 03 bd 0c de b7 3e
       -0.30319363 0.1867589 -0.032130707 0.35911596
000060 82 2f 28 be 99 aa 52 3e ac 6d e1 3d 3f c4 37 3d
       -0.16424373 0.2057289 0.110072464 0.04486489
000070 63 40 2d be 46 e0 a0 3e 1d c6 cd 3a 86 52 1b 3e
       -0.16919093 0.31421107 0.0015699301 0.15168199
000080 e2 ed ce bd 94 2b aa 3c 30 3a 1b be 01 54 e1 3b
       -0.10103966 0.020772733 -0.15158916 0.006876469
000090 0b aa 59 bd 2c 77 fc 3d 31 e9 09 3e e2 c4 07 be
       -0.05314068 0.12327418 0.13467862 -0.13258699
0000a0 fe b5 48 bd e6 87 df ba 13 8a 2e bd 7b 2e 5d 3e
       -0.049001686 -0.0017054051 -0.042612147 0.21599762
0000b0 e4 a2 d7 3d f7 14 0e 3c 19 cd 11 be 83 13 92 3d
       0.10529116 0.008671991 -0.14238395 0.07132628
0000c0 50 2f 5b be 56 f7 26 be 4e c0 bf 3d 64 64 b1 3c
       -0.21404767 -0.16305289 0.09362851 0.021654315
0000d0 57 64 1c 3e b7 72 bd 3c 94 1b 58 3e f4 0f 64 3e
       0.15272652 0.02312599 0.2110427 0.2227171
0000e0 75 9f 69 3e cb 13 21 3d 0c 92 50 be ae c7 4a 3d
       0.22814734 0.039325517 -0.20368212 0.049506836
0000f0 f2 ed 03 3d 00 e7 3d 3e cd 02 61 be 56 fc 92 be
       0.032209344 0.18545151 -0.21973725 -0.28708142
000100 c1 1d a3 3e cb e7 df 3d 69 cf b2 3d 84 27 1b 3e
       0.31858638 0.10932883 0.087309666 0.15151793
000110 47 f6 64 be 58 ec 82 3d 41 5f a9 3e 5a a4 ea 3e
       -0.22359572 0.06392735 0.33080485 0.45828515
000120 f7 db 8b bb 11 df 44 bd 87 53 c2 bd c1 99 e4 3d
       -0.004268165 -0.048064295 -0.09488588 0.11162139
000130 d0 91 06 3e 3c e4 ef bb fd ca f5 bd 26 03 8c bd
       0.1314156 -0.007320909 -0.120016076 -0.06836538
000140 a5 5d 9d bd 8c 6c bf 3d ee 8d 3d be 81 38 8f bc
       -0.07683877 0.093468755 -0.18511173 -0.017482998
000150 fa 20 8b 3d 64 3a 7d 3d 9e 42 83 3e ed d9 0f be
       0.06793399 0.061823264 0.25636762 -0.14047976
000160 e4 af 9b bd e1 f8 08 bb d1 cb e6 3d 40 d5 d7 3e
       -0.07601908 -0.0020900297 0.11269344 0.42154884
000170 cb 17 b6 3e 66 2b 8e be dd ab 99 3e a9 f4 e3 3d
       0.35565028 -0.27767485 0.30013934 0.111306496
000180 a6 31 bc 3e 19 bb 37 3e 4c e8 8d 3e ca ee b5 3d
       0.3675663 0.17942466 0.2771629 0.08883436
000190 29 61 38 be ba 14 ca 3d 87 85 cf bd 00 91 15 be
       -0.18005814 0.098672345 -0.1013289 -0.14606094
0001a0 16 bd 24 3d cb da 51 bd 9b 14 c8 3e b9 fe 5c 3c
       0.04021939 -0.051234048 0.3907822 0.013488465
0001b0 f4 09 cc 3d bf f6 06 3d 92 14 b2 3e 9f ed 5c 3e
       0.09962836 0.03295016 0.3478132 0.2157502
0001c0 8c 7f 5b 3e 44 c6 d8 3e 3b 1a 83 3d 90 a9 ed 3d
       0.21435374 0.42338765 0.064014874 0.11604607
0001d0 31 c1 e4 3c b8 01 93 3e 55 6d 0e 3e b0 79 ed bc
       0.027924152 0.2871225 0.13908894 -0.02898869
0001e0 aa 23 4d 3e 00 04 1f 3e ae c9 05 bd cd 9d 83 be
       0.20033136 0.1552887 -0.03266304 -0.2570633
0001f0 01 7c 8c 3d ec 23 18 be f4 2d 7d 3e 63 35 40 be
       0.06859589 -0.14857453 0.24724561 -0.18770365
000200 63 bd 8d be 3c fc 3d be d3 83 9d bd ec bd ed 3d
       -0.27683553 -0.18553251 -0.07691159 0.1160849
000210 a6 56 b9 be ab 3f 7c be c8 4f 08 3e b8 44 10 3e
       -0.3619892 -0.24633662 0.13311684 0.14088714
000220 64 98 a1 3d 10 9d 90 3e 3b 38 17 3e fc a7 de 3a
       0.07890394 0.2824483 0.14767544 0.0016987319
000230 e4 9e 26 3e da 18 6e 3d c9 15 74 3e 54 1e 3b 3d
       0.1627155 0.05812917 0.23836435 0.04568322
000240 23 b5 a0 3e 7e fa a9 3d 4c c1 8c bb e9 e6 67 3e
       0.31388196 0.08299731 -0.0042955037 0.22646679
000250 c8 d2 22 be a9 6a 95 3e ba 8f d4 bd ca 5b 6f be
       -0.15900719 0.29182938 -0.10378976 -0.23374858
000260 e2 16 a2 bd f2 9d 17 bd a5 ef 60 be 3e f0 9b 3e
       -0.07914521 -0.037015863 -0.21966417 0.30456728
000270 6e a9 ba 3e 03 1e dd 3d 3b 7b 32 3e 32 a6 f9 bc
       0.3645739 0.1079674 0.17429821 -0.030474756
000280 7f f8 93 3e a0 3c 46 bd ed 02 a9 3c 2b 01 c1 3e
       0.28900525 -0.04839766 0.020631278 0.37696204
000290 b7 76 07 be 69 3d 00 3c 72 03 94 be bf 0b 15 be
       -0.1322888 0.007827141 -0.2890888 -0.14555262
0002a0 37 c9 8e be c0 90 20 3c ab 0e 8a 3c 4c 86 27 3d
       -0.2788789 0.009800136 0.016852697 0.04089956
0002b0 7c ea b8 3e e3 8d 46 be 08 2e 8e 3d 45 f4 22 be
       0.36116397 -0.19390063 0.069423735 -0.15913494
0002c0 5b 6e af 3d bf d1 80 bd 70 8c 6c bd 61 20 a3 3d
       0.085659705 -0.06290006 -0.05775112 0.0796516
0002d0 b4 02 0f 3e f9 7d d2 3d 16 a8 83 3d 9c 3d b9 ba
       0.13965875 0.102779336 0.06428544 -0.0014132741
0002e0 a7 27 f5 bc 7e c4 95 bc 57 f3 79 3e 1d de 6b be
       -0.029926134 -0.018282171 0.24409233 -0.23033948
0002f0 9f a6 68 3e 84 65 ce bd 34 49 38 3e b4 68 d6 3d
       0.22719811 -0.10077956 0.17996675 0.10469189
000300 19 cf c9 b8 6c 29 0a be fd 90 bc 3d 8e 36 13 3e
       -9.623002e-05 -0.13492364 0.09207342 0.1437628
000310 8a 46 95 bd b7 e7 43 be 23 70 15 3e b7 ea 0b bd
       -0.07288845 -0.19131361 0.14593558 -0.03415939
000320 b3 e9 07 3d 21 0c 8c 3d 5d ec 9e be 7b 63 af 3d
       0.033181857 0.06838251 -0.31039706 0.08563896
000330 c8 0d a1 3e c9 c9 e6 bd 75 ad 20 3e 4a f2 5f 3e
       0.31455827 -0.11268956 0.15691169 0.2186977
000340 d3 4b 12 bd 8e 2e 90 3e fa e1 69 3e b9 1b b6 3e
       -0.035716843 0.28160518 0.2284011 0.35568026
000350 66 d3 cf 3d 22 8c b7 3d 0b 11 c7 ba ce 78 62 be
       0.10147743 0.08962275 -0.0015187574 -0.22116396
000360 4e 33 0a 3e d1 1e 81 3e e9 29 20 3e eb a0 c6 be
       0.13496134 0.25218824 0.15640987 -0.38794646
000370 e2 ce 62 3c c2 88 17 3e 66 b3 2d 3e 97 8c 6a 3e
       0.01384327 0.14798263 0.16962966 0.22905193
000380 95 a3 cc 3d c6 b2 fc bd ef 2a 49 bd 0d 8f 97 be
       0.09992138 -0.12338786 -0.04911321 -0.29601327
000390 5d eb 9c 3d c3 0f cb 3d 0d 15 aa 3d a2 22 d3 3d
       0.076620795 0.09915116 0.08304796 0.1030934
0003a0 dc 32 b9 3d 87 57 b6 3e f4 d1 40 3d 1c a5 bb 3e
       0.09042904 0.35613653 0.047075227 0.36649406
0003b0 ac 3d 0b be 7c 0a 68 bc 33 5b a2 3d 3b 43 c3 be
       -0.13597745 -0.014162656 0.07927551 -0.3813723
0003c0 14 1d 1e 3e 01 ff ad 3e a4 15 55 be 53 ff 5a bd
       0.1544078 0.33983615 -0.20809036 -0.053466152
0003d0 33 ca a8 bd 33 72 43 3e 36 23 91 3d 75 c6 8b 3e
       -0.082416914 0.19086532 0.07086794 0.27299848
0003e0 40 87 8f bd 27 64 28 be ae 3d 90 3e 5c 55 c8 3e
       -0.07008219 -0.16444455 0.28172058 0.39127624
0003f0 2b 00 3e be e0 17 91 3e 6b e6 77 bb ee 6a ea 3d
       -0.18554752 0.28338528 -0.0037826549 0.114461765

arith.constant3 f4 [64, 5]
000000 d0 7c 9f be e6 62 5d 3d ed 81 d4 bc c0 dc 5e be
       -0.31149912 0.054049395 -0.02594086 -0.21763897
000010 c4 43 98 3e b7 05 17 be 41 b8 81 be aa 6e 0d be
       0.297392 -0.14748274 -0.25335887 -0.13811746
000020 2b 6e c6 be 4c e2 25 be 1b 21 01 bf 9b 48 c8 3d
       -0.38755926 -0.16199607 -0.5044114 0.097794734
000030 f2 75 2a be 71 82 b0 3c fd 9e c2 3d 4d be b5 3e
       -0.16646555 0.021546574 0.09502981 0.3549675
000040 ca 9a 4c 3e 1b a5 2e be a5 36 2e 3e c9 4c 92 be
       0.19980922 -0.1705517 0.17013033 -0.28574207
000050 ce 71 a3 be ec 2b 07 be 30 46 b2 3d 5c 8e c9 3e
       -0.31922764 -0.13200349 0.087047935 0.39366424
000060 1c cb 91 3e 81 b6 59 be e4 b8 7d bd da d5 a0 3d
       0.28475273 -0.21261026 -0.061943904 0.07853289
000070 06 1f c3 3d df c4 ab 3e 7b b4 69 be dc 87 9e 3e
       0.095274016 0.33548638 -0.22822754 0.30963027
000080 55 f6 87 3c 69 ee 50 be 58 35 82 3d 1a b1 9f 3e
       0.016596952 -0.20403446 0.06357831 0.31189805
000090 de c6 f4 bd 52 de e9 3e 42 18 76 be 70 7d fb 3d
       -0.119519934 0.4567743 -0.24032691 0.12279785
0000a0 f5 c6 f6 bc 25 16 9f be 0f 0c a5 be e2 ac d4 bd
       -0.030124167 -0.31071582 -0.32235762 -0.10384537
0000b0 e9 8f a1 be e8 6d e4 3e 2d f0 18 be 6a bf 99 3e
       -0.31555107 0.44615102 -0.1493537 0.3002885
0000c0 f5 10 75 be c3 88 46 be 76 90 3e be d2 2b bb bc
       -0.2393225 -0.19388108 -0.18609795 -0.022848044
0000d0 0e 7f a3 3e 9a 6e 9d 3e f7 98 dd 3e e3 48 ad be
       0.31932873 0.30748445 0.43280765 -0.3384467
0000e0 e8 23 4c bd b7 84 65 be 34 27 c3 be 80 b9 0a 3e
       -0.04983893 -0.22413908 -0.38115847 0.13547325
0000f0 c6 73 19 3e f1 a1 dc 3d 7e 00 41 be b1 f1 b1 3e
       0.1498557 0.10773075 -0.18847844 0.34754708
000100 28 ac aa be ec de 8e 3e f0 4f 07 3e e3 c0 39 be
       -0.3333447 0.2790445 0.13214087 -0.18139987
000110 1d fe 96 3e 06 44 4d 3d 78 17 4b 3b 2a c5 c3 be
       0.29490748 0.0501137 0.003098933 -0.38236362
000120 d5 c3 be be 84 a6 42 bd f2 3c 87 bc c4 2c 49 bd
       -0.37258783 -0.047522083 -0.016508553 -0.049114957
000130 c1 cf 28 bd f1 0a b6 be 0c ce 0b 3e 35 eb 9a 3e
       -0.041213755 -0.35555223 0.1365282 0.30257574
000140 c5 11 60 3b 8e cc 73 be 88 b3 0e be 13 33 06 bc
       0.003419028 -0.238085 -0.13935673 -0.008190888
000150 27 6d d8 3e 3c ef 88 3e 28 15 6a bd ef eb b5 bd
       0.42270777 0.2674502 -0.057149082 -0.088828914
000160 eb b2 9d be 0a fe f4 bd 96 ec 31 be ae 22 28 3e
       -0.30800566 -0.119625166 -0.17375407 0.16419479
000170 78 82 21 3e c4 5d a8 3e c6 d0 aa be 61 84 ab 3e
       0.15772426 0.32884037 -0.33362406 0.33499435
000180 0c fe bc 3e da 45 92 3e 12 db 18 be f0 ec 9f be
       0.36912572 0.28568918 -0.14927319 -0.31235456
000190 a7 b2 91 be d8 2c 03 be 8c 03 16 3d 64 90 e1 bd
       -0.28456613 -0.12810075 0.036624476 -0.110138685
0001a0 ce ad 97 3e 9c bb 51 3d a1 1f 05 be 60 6d a7 be
       0.2962479 0.05120431 -0.13000347 -0.32700634
0001b0 0b 0c 93 be 34 c7 53 3e 1e 33 6a 3e cb 86 05 3e
       -0.28720126 0.20681459 0.22871062 0.130397
0001c0 02 b9 c6 3e ab 76 01 3e 42 7e a2 be 4a 12 88 be
       0.38813025 0.12642924 -0.31736952 -0.26576453
0001d0 28 bc 40 3d cb e1 82 3e e3 ac 37 be 01 fa 94 3e
       0.04705444 0.2556289 -0.17937045 0.29096988
0001e0 1b 64 25 3c 6f 81 7a be c8 58 8b 3d 9c 87 fc bb
       0.010094668 -0.24463437 0.06804043 -0.0077065956
0001f0 0e ba 9a be 1b 0e b2 bd 98 52 46 3e d8 85 a1 3e
       -0.30220073 -0.08694097 0.19367445 0.31547427
000200 e5 0d 63 3e 97 9b 1c 3d e4 28 95 be f3 95 78 3c
       0.22173269 0.03823432 -0.2913276 0.015172469
000210 c5 56 bc be e1 29 3f be fc 24 16 be 17 71 90 3e
       -0.3678495 -0.1866832 -0.14662546 0.2821128
000220 9c 79 cb 3e 15 74 87 bd 8e 5a 89 be 51 3a 4b 3e
       0.39741218 -0.06613938 -0.268269 0.19846465
000230 57 79 5a 3e 4d f8 22 3e b6 65 e6 bc 86 d7 af bd
       0.2133535 0.15915032 -0.028124671 -0.0858603
000240 48 e6 2e 3e 4b f6 c2 3d 7b 63 c1 be c1 ad c5 be
       0.17080033 0.09519633 -0.3777121 -0.38609126
000250 be 93 b1 3e 9c 3f 22 3e 32 76 bf 3e 9f 2e 81 be
       0.3468303 0.15844578 0.37394863 -0.25230882
000260 90 01 88 be 36 4f 4f bc 49 c8 36 3e 88 7a ed 3d
       -0.26563692 -0.012653163 0.1784984 0.115956366
000270 3d 2b 32 be 0e 3e ef bd 19 e3 44 be 20 be ce be
       -0.17399307 -0.11681758 -0.19227256 -0.4037943
000280 84 64 9c 3e 9a d5 45 be ea 50 7f bd df e6 90 be
       0.30545437 -0.19319764 -0.062333025 -0.2830114
000290 84 11 10 bd 04 6b bd 3e 09 e1 16 be cb 1c be be
       -0.035172954 0.3699571 -0.14734282 -0.37131342
0002a0 61 a8 78 be d6 74 10 3e 8f 2e a5 be 05 2f 0f be
       -0.24282981 0.1410707 -0.32262084 -0.1398278
0002b0 05 b9 6e be 4d f3 54 bb 7d b7 c5 be 8d 90 aa 3e
       -0.23312767 -0.0032493651 -0.38616553 0.33313408
0002c0 07 14 fa bd 80 59 31 bd 52 2c 1e be 6e fd b4 3e
       -0.12210851 -0.043298244 -0.15446594 0.35349602
0002d0 5d b9 0d 3e ea c4 38 be d8 dc 35 be 7d 3f 01 3f
       0.13840242 -0.18043867 -0.17760026 0.504875
0002e0 38 82 b1 be cd ed 4e bc 08 41 d6 be 2d 6a 03 be
       -0.34669662 -0.012629938 -0.4184649 -0.12833472
0002f0 44 9b a3 be 75 49 60 3e ba bd 10 be 6c 1c 96 bc
       -0.31954396 0.21903022 -0.14134875 -0.0183241
000300 c4 30 5b 3e a7 ee 9e 3d c0 b5 9a 3e 4e 15 0e 3a
       0.21405321 0.07760363 0.3021679 0.0005420045
000310 40 a7 e2 3e 49 61 bf 3e 6b 37 1d 3e 7a 7d be 3d
       0.44268227 0.3737891 0.15353172 0.093012765
000320 a5 ec 5d be bf 2b 5d be bc 0f 9f 3e 6e cb 96 bc
       -0.21672304 -0.21598719 0.31066692 -0.01840755
000330 25 25 06 be 74 64 b1 3e 52 88 a4 3e ee 88 5e be
       -0.13100107 0.34646952 0.32135254 -0.21731922
000340 6b a2 aa 3e b9 11 b5 be 1e 2e 83 be 25 6a 51 3e
       0.3332704 -0.35365084 -0.25621122 0.20450647
000350 64 91 22 3e bc f6 ac be af 06 80 be 45 0f e5 bd
       0.15875775 -0.33781993 -0.250051 -0.11184553
000360 f3 2b da be 06 32 0b be 4d c8 f9 bc 3b 08 57 3e
       -0.42611656 -0.13593301 -0.030491019 0.20999233
000370 40 a7 06 3f e4 20 fe 3d eb 5a 74 be 6e 83 f4 3e
       0.52598953 0.12408617 -0.23862807 0.47756523
000380 e5 51 97 3e dc 61 30 be 11 cc 9c 3b bf 5b 75 be
       0.29554668 -0.1722483 0.004785069 -0.2396078
000390 e8 df 8b 3e 34 a7 f1 bd 03 b1 95 3e 65 04 41 3e
       0.27319264 -0.117994696 0.29236612 0.18849333
0003a0 71 43 c5 3e 11 ab ff bd 40 fe 0b be 3b 7b eb 3d
       0.38528016 -0.124838 -0.13671207 0.11498114
0003b0 e6 68 b0 3e 56 11 30 3e 36 a2 2f 3e 93 03 f1 3e
       0.3445503 0.17194113 0.17151722 0.4707304
0003c0 e1 d6 67 3c 8d c0 ae bd 85 c1 01 3e 79 9e 8f 3d
       0.014150352 -0.0853282 0.12671478 0.07012648
0003d0 e1 92 9d be 26 d4 42 bd 5c bf df 3b 12 d0 9c 3e
       -0.30776122 -0.0475656 0.0068282317 0.30627495
0003e0 46 7b af be ca 37 b9 be 5b 90 42 be 94 3f 0a be
       -0.34273738 -0.36175376 -0.1900038 -0.13500816
0003f0 1b 6d fc 3d 82 e9 54 be c7 6c 3d 3e d4 fa 64 be
       0.12325498 -0.20792201 0.18498527 -0.22361308

arith.constant4 f4 [1, 5]
000000 35 35 a3 39 60 d7 d1 39 58 b7 d1 39 9d ac 9a 39
       0.00031129425 0.00040024053 0.00040000188 0.00029501776
000010 d7 47 a3 3a
       0.0012457323

Const_1 f4 [1, 5]
000000 1f fb 45 45 7a 98 b0 45 8c 93 b0 45 35 68 b0 45
       3167.695 5651.0596 5650.4434 5645.026
000010 d7 c6 ef 45
       7672.855

sequential_1/dense_1_2/Add/ReadVariableOp f4 [32]
000000 2c 0c a0 3d f8 44 a5 3d d4 36 fd 3c aa 8c 21 3e
       0.078148216 0.08069795 0.030909933 0.15776315
000010 a1 1e c8 bc de 1e a9 3d b2 53 9f 3d 22 33 f6 3c
       -0.024428668 0.082578406 0.077796355 0.030053679
000020 c2 c4 af 3d 2e 91 c0 ba 09 e1 98 3d 6c a7 96 3d
       0.085824504 -0.0014691704 0.07464797 0.07356152
000030 70 61 82 3d b3 ec b0 3d bb 3e af 3d 4c 23 5a bc
       0.06366241 0.08638897 0.08556887 -0.0133140795
000040 6e d1 d3 3c 62 41 85 3d 15 34 aa 3d 1d 04 26 3d
       0.0258567 0.065066114 0.08310715 0.040531266
000050 a7 40 a2 3c 91 cf 06 3e a3 69 91 3c be d7 96 3d
       0.01980622 0.13165118 0.017750567 0.07365368
000060 95 58 2c 3d 78 62 46 3d 4c d2 ed 3d fc d4 ce 3d
       0.042076666 0.04843375 0.116123766 0.10099217
000070 30 32 ba 3d b9 5a 8d bd 8e e8 2b 3c fe 51 0f 3e
       0.09091604 -0.069020696 0.010492457 0.13996121

sequential_1/dense_1/Add/ReadVariableOp f4 [64]
000000 6f 24 b9 3d 45 c4 b4 3d 47 9e 0a 3e c8 f3 d1 3d
       0.09040152 0.08826498 0.1353694 0.10251576
000010 f8 74 01 3e 37 2e ca 3c a5 9a 1a 3e e7 84 1c 3e
       0.12642276 0.02468024 0.15098055 0.15285073
000020 5b 1d 19 3e 65 0e 02 bc b5 11 63 3d a5 99 eb 3d
       0.14952604 -0.007938002 0.05543681 0.11503915
000030 c1 c7 26 3e 0d 7a ed 3c a9 be 23 3e ac 85 1a 3e
       0.16287138 0.028988862 0.159907 0.15090054
000040 f8 e7 18 3e 6f 9b 49 3e 26 b4 dd 3d d1 11 ad 3d
       0.14932239 0.196882 0.10825376 0.08450664
000050 63 3b 9c 3d fa be f6 3b d2 d5 c4 3c e4 bb 87 3d
       0.076285146 0.0075300904 0.024027739 0.06627634
000060 c8 19 b7 bd f8 38 0f 3e 26 f3 06 3e 6b af bf 3d
       -0.08940464 0.13986576 0.13178691 0.0935963
000070 60 9d 81 3d 57 df a4 3d 1f 66 a4 3d 3a e9 36 3e
       0.06328845 0.08050411 0.080272906 0.17862406
000080 cc 07 4d 3e 12 76 f3 3d cf fc a1 3d af 56 df 3d
       0.20022506 0.118877545 0.079095475 0.109052055
000090 3c f8 2e 3e d0 59 bc 3d d9 43 91 3c 47 c1 14 3e
       0.17086881 0.09196818 0.017732548 0.14526854
0000a0 b9 59 0b bd b5 25 f1 3d df c0 06 3e 4b 05 0c 3e
       -0.034021113 0.1177477 0.13159512 0.13673894
0000b0 fc 81 9f 3d 7c 79 e3 bd a7 54 eb 3d 06 b4 b4 3d
       0.077884644 -0.11107156 0.114907555 0.08823399
0000c0 39 be fb 3d df 19 51 3e c3 4e c7 3d 77 33 af 3d
       0.122921415 0.20420025 0.097318195 0.08554738
0000d0 d9 d7 03 3e 82 fa 1b 3e 7a e2 ff 3d 81 c4 d5 3d
       0.12875308 0.1523228 0.12494369 0.10437871
0000e0 82 41 4d 3d 91 56 24 3e 20 ec aa 3d 40 e6 f9 3d
       0.0501113 0.16048647 0.083458185 0.1220212
0000f0 e8 a8 ef bc 31 b8 31 3e 4d 05 3a 3e 00 a8 2e 3e
       -0.029255345 0.1735542 0.18166085 0.17056274

sequential_1/dense_2_1/Add/ReadVariableOp f4 [32]
000000 8c b1 b9 3c 6e 3c 8a 3d 16 c3 bf 3d 8c 90 0e 3d
       0.022667669 0.06749807 0.093633816 0.03480582
000010 41 bd 38 3d 0e d0 d1 3d f4 6f a2 3d ec 22 26 3d
       0.04510236 0.102447614 0.079315096 0.040560648
000020 95 6b 3d 3d 52 4d 32 3d 25 9f 65 3c 80 57 15 bd
       0.046245176 0.04353077 0.014014994 -0.0364604
000030 c2 b5 3b 3d c8 60 16 bd 96 5d 9f 3d ad 25 f7 ba
       0.045827635 -0.03671339 0.07781522 -0.0018855833
000040 24 6f 6b 3d 35 8d 9e bc 74 25 2f bd 66 70 4d 3d
       0.05747904 -0.019354442 -0.042760327 0.05015602
000050 e1 6d 05 3d b1 03 88 bc 1d 82 9c 3d 9b b0 51 3d
       0.03257549 -0.016603323 0.07642005 0.051193815
000060 a1 8d 0d 3d 6a 12 fd 3d ae b7 f2 ba 88 95 e4 3d
       0.034558896 0.12357028 -0.0018517876 0.11161333
000070 5c 3f 12 bd a7 36 53 3d e7 f7 fe bc 8e d2 42 3d
       -0.035704955 0.051565792 -0.031124068 0.04756408

sequential_1/dense_3_1/Add/ReadVariableOp f4 [10]
000000 c6 b2 d7 3c 56 1c 95 bd ff 15 e2 bc de a1 18 3d
       0.026330363 -0.07280795 -0.02759838 0.037263744
000010 1d 4c c4 3d 86 74 19 bc b9 d4 3f bd b6 35 22 bd
       0.0958483 -0.00936616 -0.046833728 -0.039602004
000020 fa bf 1d bd b8 1b a8 bc
       -0.03851316 -0.02052103
