tensorflow/model.tflite (tflite, 12812 bytes, 8 tensors)

arith.constant f4 [2, 32]
000000 e1 09 a0 be c0 aa b0 3e a9 ae 69 3e 22 c5 ab be
       -0.31257537 0.34505272 0.22820534 -0.33548838
000010 aa ff 2a 3e 30 3d 43 3e fa ed cf 3e 65 0b 58 3c
       0.1669909 0.1906631 0.4061125 0.01318631
000020 6a 76 6a 3e 2d 1e 61 3e 68 91 4d 3d eb 59 c6 3e
       0.22896734 0.21984167 0.0501875 0.38740477
000030 5d 51 61 bc b7 54 a5 3e 59 22 55 bd 84 7b a7 3e
       -0.013752309 0.32291195 -0.05203471 0.32711422
000040 4b f5 10 bd 66 c2 09 3e 1e 0c 82 be d2 78 99 3e
       -0.03539018 0.13453063 -0.2539987 0.2997499
000050 1e 82 94 be 91 82 8d 3e 26 c6 21 3e 41 3a 41 be
       -0.29005522 0.27638677 0.15798244 -0.18869878
000060 b7 5b 61 be 61 79 37 be 49 ed af 3e 03 3d da bd
       -0.22007643 -0.17917396 0.34360722 -0.10656168
000070 e5 77 ca 3e 27 38 8f be 1a 72 c7 be 70 f0 9e bd
       0.39544597 -0.27972528 -0.3895424 -0.077607036
000080 b7 a5 cc be 36 2d 35 be 14 e5 b1 be db c5 0e 3e
       -0.3997018 -0.17693028 -0.34745085 0.13942663
000090 f7 bc 95 be 99 a7 58 be 62 7f a2 be 8d 10 2e 3e
       -0.2924573 -0.21157683 -0.3173781 0.16998501
0000a0 18 bd 0b be 96 67 86 be 6c f2 b7 be 6d f7 e1 3d
       -0.13646352 -0.26250905 -0.3592714 0.11033521
0000b0 b6 e2 8e 3e 5e d1 8d 3d ed 62 8f 3e cb 37 55 be
       0.27907342 0.06924699 0.28005162 -0.20822065
0000c0 d4 47 6b be 50 e3 e7 bc 15 fc 13 be 10 05 37 3e
       -0.22976619 -0.028306633 -0.1445163 0.17873025
0000d0 e9 f2 80 3e 19 7b b9 3e c1 25 80 be 83 cb 6d be
       0.25185326 0.3622673 -0.25028804 -0.23222165
0000e0 09 fb 6a be 5b 20 94 be 3d 52 68 be 37 1a c1 3e
       -0.22947325 -0.28930935 -0.22687621 0.37715313
0000f0 38 42 a2 3d 8f e0 4f 3e 58 3b d0 bd 29 52 b7 be
       0.079227865 0.20300506 -0.10167569 -0.3580487

arith.constant1 f4 [32, 64]
000000 3e 87 15 3e ae 18 25 3e 29 ee 46 be a4 be e5 bd
       0.14602372 0.16122696 -0.19426788 -0.112180024
000010 65 bb ea 3d b4 77 71 3e 88 7b 0b be 71 8e fd 3d
       0.11461524 0.2358082 -0.13621342 0.12380684
000020 b0 c8 28 3e ac 81 cc 3c c0 05 f5 3d 00 43 d8 3b
       0.16482806 0.024964176 0.11963987 0.006599784
000030 ee d9 50 3e dc b9 7e be c8 ad 21 3e ac 08 1d be
       0.20395634 -0.24875587 0.15788949 -0.1533534
000040 0c 53 50 be 20 fc 56 bd 2d 83 90 3d 51 4c eb 3d
       -0.2034418 -0.05248654 0.0705627 0.114891656
000050 c8 75 1d be d0 d8 1d 3e 7d fe 81 bd cc 7c 3e 3e
       -0.15376961 0.15414739 -0.06347368 0.18602294
000060 d4 11 6f 3e 04 41 1f be b0 50 8d 3d c0 b1 97 bd
       0.23346645 -0.15552145 0.069001555 -0.0740695
000070 7d 9a 76 3e fa 51 37 be 70 7d 2a bd 9c 2a 64 3e
       0.2408237 -0.17902365 -0.041623533 0.22281879
000080 1a 45 18 be 08 2c bb bd 5c 7c 50 be d8 14 79 be
       -0.1487011 -0.09139258 -0.2035994 -0.24324358
000090 a8 d9 b5 bd d8 98 64 3e 36 d1 09 bd 03 3b 42 be
       -0.08879405 0.2232393 -0.033646785 -0.18967824
0000a0 50 c3 2c 3e 1f ca 47 3d 90 d6 63 3e 08 58 ce 3d
       0.16871381 0.048776742 0.22249818 0.100753844
0000b0 e0 13 52 3d 10 1e 7b be 04 5d c6 3d 7b 14 fa bc
       0.051288486 -0.24523187 0.0968571 -0.030527344
0000c0 a8 fc b1 bd 6a d2 1c bc 41 8a be bc e0 73 15 3e
       -0.086907685 -0.009571651 -0.023259284 0.14594984
0000d0 ec 93 62 3e 28 27 7c be c8 ba 3c 3e a0 b2 46 be
       0.2212674 -0.24624312 0.18430626 -0.19404078
0000e0 0c c0 10 3e d9 5c cc 3c e0 f8 4d 3d 80 d0 b7 3b
       0.1413576 0.024946617 0.050286174 0.005609572
0000f0 37 b4 25 bd 52 5d 15 3e 76 e8 41 be e7 3b d4 bd
       -0.04045507 0.1458638 -0.18936333 -0.10362988
000100 45 21 00 3e da 95 20 3e f9 0c 41 3e 40 1c 3a bd
       0.12512691 0.15682164 0.18852605 -0.045437098
000110 16 a6 1e 3e e0 b2 74 3e 94 dd 2c 3e 5c 98 7a bd
       0.15493044 0.2389636 0.168814 -0.061180457
000120 52 d6 e4 bd f7 f9 6a be 51 35 5b 3e b4 e2 16 be
       -0.11173691 -0.22946917 0.21407057 -0.14734918
000130 d1 af 47 be e5 8e 30 3e 1d e9 b5 3d c0 68 54 be
       -0.19500662 0.1724201 0.088823535 -0.20743084
000140 04 7b f4 bd 09 73 aa bc 6b 0b 29 3e 6b 20 78 3e
       -0.11937526 -0.020806806 0.16508262 0.24231116
000150 33 b9 d5 bd 29 6d a5 3d ed 38 11 3c 80 e5 f0 3d
       -0.104357146 0.08077461 0.00886367 0.11762524
000160 1d bf 7c 3e 48 51 fa bd b7 d1 f5 3d 27 ff 3d bc
       0.24682279 -0.122225344 0.120028906 -0.011596478
000170 1d bf 0b be e3 a2 63 bd 3e 36 06 be 73 41 31 3e
       -0.13647123 -0.055575263 -0.13106629 0.17310123
000180 a5 bb 70 be 3d 0b 1d 3e 63 3e 7b 3e fe 2a 39 bd
       -0.2350908 0.15336318 0.24535517 -0.045207016
000190 23 04 61 3d 53 11 b2 bd 7c 61 a1 bd df 3e 19 3e
       0.054935586 -0.086947106 -0.07879922 0.1496539
0001a0 73 8b 63 be ba b8 ae 3d b3 81 79 bd 63 da 75 3e
       -0.22221164 0.085313275 -0.060914706 0.24009089
0001b0 e2 46 31 be 37 ad 4c be 54 67 df 3d 47 af 4f 3e
       -0.17312196 -0.19987951 0.1090838 0.20281707
0001c0 d9 28 c8 3d d1 39 4e 3e b0 2a 9e 3d 3c eb 56 3e
       0.09773416 0.20139243 0.07722986 0.20988172
0001d0 28 0d 4f be d7 37 45 bd 81 d0 de 3d 9e 39 01 be
       -0.20219862 -0.048148956 0.10879613 -0.12619635
0001e0 78 d3 89 3d 2c f4 08 3e ec f5 18 3e 7d 42 a7 bd
       0.067297876 0.13374394 0.14937562 -0.081669785
0001f0 47 e8 c9 3d ad 1d 78 3e 77 d6 4e be 21 de 67 3e
       0.098587565 0.2423007 -0.20199 0.22643329
000200 ec 5f 03 bb 18 a0 02 bd 45 3d 9a bd 87 17 26 be
       -0.0020046188 -0.03189096 -0.075312175 -0.16219912
000210 55 ee 45 be 74 a7 3a be c0 4d 65 3e 30 4e ae 3d
       -0.19329198 -0.18227941 0.2239294 0.08511007
000220 f0 11 7e be da 86 68 3e c0 35 99 bd d0 f0 7c bd
       -0.2481153 0.22707692 -0.07480955 -0.061753094
000230 41 4e 6e 3e a0 14 81 3d 20 db 01 be 98 a0 93 3d
       0.23272039 0.06302762 -0.12681246 0.07208365
000240 38 16 b8 bd 68 21 80 3d 3a 32 72 3e 70 00 ab 3d
       -0.08988613 0.06256372 0.23651972 0.08349693
000250 70 95 2f 3d 94 ef 58 3e 1c d1 35 be e9 2f 3f 3d
       0.042867124 0.21185142 -0.1775555 0.04667655
000260 50 42 75 bd 70 53 64 3e a0 cb 65 3d b0 b9 49 be
       -0.059877694 0.22297454 0.056102395 -0.1969974
000270 c1 00 57 bd 23 9a 6a be 4c 91 4b be 00 b8 ff bc
       -0.052490953 -0.22910361 -0.19879645 -0.031215668
000280 d1 bb 68 bd 6c dc 08 be 88 2c ad bd e0 89 c2 3d
       -0.05681974 -0.13365334 -0.08455759 0.09498954
000290 40 91 a0 3c 51 d8 13 bd 82 3f 37 bc 4d 22 80 3e
       0.01960051 -0.036094967 -0.011184575 0.2502617
0002a0 10 ce 78 3d c0 0a 23 bd 5c 95 5e 3e e0 df 9d bd
       0.06074339 -0.039805174 0.21736664 -0.077087164
0002b0 08 9e 7a be 1c 41 09 be 4f 58 be 3d 96 26 90 3d
       -0.24474347 -0.13403744 0.09294187 0.0703861
0002c0 f4 d3 2d be 72 04 a5 bd eb 17 99 3d 0d 0f b3 bd
       -0.16975385 -0.080574885 0.07475265 -0.08743105
0002d0 a7 82 53 be a8 f2 98 3d 00 8b 54 3c 74 05 62 be
       -0.20655309 0.07468158 0.012972593 -0.22072393
0002e0 c4 06 55 be b4 01 17 3b 60 50 84 bc 88 2c 4f be
       -0.20803362 0.0023041787 -0.016151607 -0.20231831
0002f0 70 b4 1a 3d 77 1a d3 bc 1a 80 db bd e4 5d 56 3e
       0.037769735 -0.025769455 -0.10717793 0.20934254
000300 a1 40 55 be 74 53 6a be 4a f8 ee 3d 14 37 68 be
       -0.20825435 -0.22883397 0.11668451 -0.2267726
000310 e8 92 0c 3d 68 5a e5 bd c8 1d 1d be 5b 50 1c be
       0.03431979 -0.11198884 -0.15343392 -0.15265028
000320 80 61 2f 3e 2e 31 2a 3c 00 28 44 bc 00 13 04 3d
       0.17127037 0.010387702 -0.011972427 0.032244682
000330 eb d5 78 bd d8 df 90 3d 10 a0 ba bd 70 d9 57 3d
       -0.060750883 0.07073945 -0.09112561 0.0526976
000340 10 b3 d3 3d 10 5b 12 be 8b 10 79 3d 1a 8b c3 3d
       0.10336888 -0.1429255 0.060806792 0.09548016
000350 80 11 6a 3e c8 66 89 3d 9a 45 28 3d 88 9e 04 3e
       0.22858238 0.06709057 0.041082002 0.129511
000360 d8 bf ef bd fc 88 07 3e 40 45 27 3e b0 a6 02 3e
       -0.11706513 0.13235849 0.1633501 0.12758899
000370 77 2e 70 3e 78 29 47 be e8 ba 98 bd 68 d1 5c 3e
       0.23455225 -0.19449413 -0.074575245 0.21564257
000380 33 f5 fb 3d 0c 6b 06 3e c0 db 06 3c f8 65 8a bd
       0.123026274 0.13126773 0.008231103 -0.0675773
000390 90 cb 05 be 19 c9 8e bc 2c 01 bc 3c 7e 07 f6 3d
       -0.13065934 -0.017429875 0.022949778 0.12013148
0003a0 58 ab 5b be ab 50 9f 3c 80 0f bb 3d d4 b3 58 be
       -0.21452081 0.019447645 0.09133816 -0.21162349
0003b0 a8 18 1a 3e 34 19 4e be a3 6e 68 be f4 53 f4 3c
       0.15048468 -0.20126802 -0.22698455 0.029825188
0003c0 d4 d4 68 3e d3 04 d2 bc 6c e8 6a 3e 60 5f 4d be
       0.22737437 -0.025637066 0.22940224 -0.20055914
0003d0 f3 eb f5 bd 40 ef 9b 3d a0 1d 72 3d 6c e7 2a be
       -0.12007894 0.07613993 0.059110284 -0.16689843
0003e0 c0 1d 3f be 49 18 70 3d 24 5b 59 3e 78 5d ee 3d
       -0.18663692 0.05861691 0.21226174 0.116389215
0003f0 ce bc 16 3e 80 2d af 3d 87 ff c7 3d 34 ad 42 be
       0.14720461 0.085536 0.09765535 -0.19011384

arith.constant2 f4 [64, 5]
000000 15 13 99 bc 20 28 90 3e 5c 4a fb 3d 44 ea ba 3d
       -0.018685857 0.28155613 0.12270042 0.09126714
000010 00 8a 2b 3e 3a 5b 0f be 9e 97 fd bd 23 8a 7e be
       0.16751862 -0.13999644 -0.12382434 -0.24857382
000020 25 7a 80 be 94 e9 73 3e fc 5b 8c be 06 ae 2d 3e
       -0.2509319 0.23819572 -0.27413929 0.16960916
000030 a0 52 f4 3c 50 7c 1b 3e a8 7d 03 bd 8e 7b 6a bd
       0.029824555 0.1518414 -0.032102257 -0.057246737
000040 f1 05 1a be 94 ff 60 3e 7a bf 24 3e f4 21 52 3e
       -0.15041329 0.21972495 0.16088668 0.20520765
000050 2f 7f bd bd cd 06 09 be 90 3a 0b 3e f8 01 fb 3d
       -0.09252774 -0.133815 0.13596559 0.12256235
000060 d1 df 59 be 9c ec 32 3d 74 97 98 bd d0 3b 49 3e
       -0.21276785 0.04368268 -0.074507624 0.19651723
000070 4a 76 29 be fc 39 3c be fe b1 9a 3d 9f 34 6b be
       -0.1654903 -0.18381494 0.075534806 -0.22969292
000080 8e 34 6e be 08 c0 86 3d 3e 58 54 be 33 c4 ef bd
       -0.23262236 0.06579596 -0.20736787 -0.11707344
000090 68 8a bd bd 92 51 34 be 34 f2 c7 bd 20 90 db 3c
       -0.092549145 -0.17609242 -0.097629935 0.026802123
0000a0 9f 9b 77 3d ea 1e 91 be 90 73 58 3d 9b 3b 7e be
       0.060451146 -0.28343898 0.052844584 -0.24827425
0000b0 c8 da 65 3e 15 29 72 be 80 ae ec bd 5f 79 8b be
       0.2244674 -0.23648484 -0.11556721 -0.27241036
0000c0 00 ed 70 3e c0 6e fd 3c 0a fa 82 3d a6 3d 33 be
       0.23527908 0.030936599 0.063953474 -0.17503986
0000d0 b8 29 0b be 08 53 c1 3d 8c 89 9c bd 36 10 1a 3d
       -0.13590133 0.09439665 -0.076434225 0.037613116
0000e0 c0 3f 05 3e 98 a3 0b 3d 58 af 3d bd 98 25 90 3e
       0.130126 0.034091562 -0.0463098 0.28153682
0000f0 54 79 80 be 1f a7 4c be 28 b1 1a be 64 cd 29 be
       -0.25092566 -0.19985627 -0.15106642 -0.16582257
000100 c4 ac 5d 3e 0f 11 35 3e 20 1e 29 bd 5e 9d 87 3e
       0.21647936 0.17682289 -0.041288495 0.2648725
000110 de 36 fa bd bc b5 ba 3d 71 de 84 3e 82 48 53 be
       -0.12217496 0.09116694 0.2595096 -0.20633128
000120 8a 56 15 be de ef d4 bd 01 f3 70 be d2 75 ae 3d
       -0.14583793 -0.103973135 -0.23530199 0.08518566
000130 c0 44 99 bb 00 cf bc 3c 98 1b 3b 3e 10 78 e2 bc
       -0.004677385 0.023047924 0.18272245 -0.02764514
000140 9f 1c a4 3d cc 1d 56 3e b0 77 96 bd 6c 19 93 3e
       0.080132715 0.20909804 -0.07347047 0.28730333
000150 3e d8 25 3e 72 31 5d 3e a0 32 d1 bc 50 f7 0f 3e
       0.16195771 0.21600893 -0.025536835 0.14059186
000160 02 b8 1b 3e d2 86 54 be 95 db 91 bd ca c3 08 be
       0.15206912 -0.20754555 -0.0712196 -0.13355938
000170 e8 86 33 3d 21 73 88 be 04 b6 cf 3d 43 a9 82 be
       0.04382983 -0.26650336 0.101421386 -0.2551976
000180 30 b1 fa bc d6 a8 50 be bc 61 0e 3e 88 c3 7b 3d
       -0.030602068 -0.20376906 0.1390447 0.06146577
000190 6b 7b 58 3e 5e b6 50 be e8 bb 63 3e a7 51 11 be
       0.2114083 -0.20382068 0.2223965 -0.14191304
0001a0 94 29 c6 bd eb 44 cc 3c cc b7 55 bd 0a 36 88 3e
       -0.09675899 0.024935206 -0.052177235 0.2660373
0001b0 4e cc 58 be 6e 21 30 3e 4a 79 96 bd e8 45 07 bd
       -0.21171686 0.17200252 -0.07347353 -0.033025652
0001c0 b3 45 68 be ac 97 d1 bd 40 40 ef 3c 48 41 59 be
       -0.22682838 -0.10234007 0.029205441 -0.21216309
0001d0 9e 5a 91 be 80 11 a2 bd d0 2f c4 bd ea 76 16 be
       -0.28389448 -0.07913494 -0.09579432 -0.146938
0001e0 90 82 1f 3e b8 62 18 3d c0 37 13 3e 56 21 3a 3e
       0.1557715 0.03720352 0.14376736 0.18176779
0001f0 ab 56 15 be 96 e0 cf 3b 57 6e 82 be 40 ed 00 be
       -0.14583842 0.0063439114 -0.25474808 -0.12590504
000200 fa e4 63 be 12 b0 08 3e 2c 49 45 3e 98 93 62 3d
       -0.22255316 0.13348415 0.19266194 0.055316538
000210 46 d9 50 be 1f 7d 90 be 16 f2 8f be 35 9e b9 3c
       -0.20395383 -0.2822046 -0.28114384 0.022658447
000220 94 76 55 be 3a 05 3e be a0 cd fb 3d 3c 46 7f be
       -0.20846015 -0.18556681 0.12295079 -0.24929136
000230 57 5b b4 bd 82 e0 e5 bd d4 35 39 be d4 8a e9 3d
       -0.08806484 -0.11224462 -0.1808694 0.114034325
000240 0c fb 9a bd 41 f7 3c be 1c 57 e1 3d 7a fb 85 3e
       -0.07567415 -0.18453695 0.11002943 0.26168424
000250 8c b8 29 be 50 26 2e bd a9 59 8f 3e 9d a6 94 be
       -0.16574305 -0.042517006 0.27998093 -0.29033366
000260 c0 f3 73 bc 16 55 48 be 40 a2 3e 3d b0 97 93 3e
       -0.0148896575 -0.19563708 0.046541452 0.28826666
000270 60 b0 a2 3c 43 57 96 be 80 98 82 3e 88 ea 37 be
       0.019859493 -0.2936345 0.25506973 -0.1796056
000280 d2 d6 78 be 00 92 68 be b8 1e a7 bd 18 b7 8a 3d
       -0.24300697 -0.22711945 -0.08160156 0.067732036
000290 a0 d7 37 3d 33 13 d3 3c 8c f7 5c 3e e8 13 85 3e
       0.04488337 0.02576599 0.21578807 0.2599175
0002a0 98 15 51 3e 68 e2 e1 3d cb 7c 04 3d 06 45 4f be
       0.20418394 0.11029512 0.032345574 -0.20241174
0002b0 6e 4b 9d bd 18 cc e5 3d c0 3a c0 bb a5 27 8e 3e
       -0.07680403 0.112205684 -0.0058663785 0.2776462
0002c0 70 9e 2a 3d d0 27 c6 3d 72 4a 15 be b0 40 85 3d
       0.041655004 0.096755624 -0.1457918 0.06506479
0002d0 21 8c 64 3e 16 f6 8e be 80 e7 71 be 77 77 67 be
       0.2231908 -0.27922124 -0.23623466 -0.22604166
0002e0 38 aa 5b 3d 4d 10 89 be d2 d2 39 3e d0 69 db bc
       0.05362913 -0.2677025 0.18146828 -0.026783854
0002f0 d0 7e 55 be 20 f0 22 bd bb 17 73 be ec e7 7d 3e
       -0.20849156 -0.039779782 -0.23739521 0.24795502
000300 5c 09 eb 3d dc 58 ed 3d ba 72 8c 3e 80 9f 92 bd
       0.114763945 0.11589214 0.2743128 -0.071593285
000310 90 78 fa 3c 70 e4 cd bc aa 10 4f 3e 5c 2b 8c 3e
       0.030575067 -0.025133342 0.202212 0.2737683
000320 81 6e 5f 3e 78 2e de 3d 3b 7c 14 be 18 a9 30 be
       0.21819498 0.10848707 -0.14500515 -0.17252004
000330 78 38 ab 3d f6 f9 22 be ba 6e 51 3e d9 e1 4a be
       0.0836038 -0.15915665 0.20452395 -0.19812717
000340 54 71 a3 3d 08 88 6c 3e ac 19 64 3d cc 91 c1 3d
       0.079806 0.23098767 0.055688545 0.09451637
000350 20 e8 2b bc 00 cb c6 3b 00 fd b7 ba 9f 1a 64 3e
       -0.010492355 0.00606668 -0.0014037192 0.2227578
000360 f2 d7 90 be 48 0e 40 3d 00 82 85 3e e4 69 90 be
       -0.28289753 0.04688862 0.26075745 -0.28205788
000370 31 51 8d 3c d0 1c de 3c 40 dc 1c 3d a1 d7 0a be
       0.01725063 0.027113348 0.038295984 -0.13558818
000380 fc e5 b9 bd 3c df 74 3e 5c 87 70 3e 33 f5 70 be
       -0.09077069 0.23913282 0.23489136 -0.23531036
000390 79 e8 30 be ab d0 04 be 8d 19 65 be 4b d4 85 be
       -0.17276181 -0.12970226 -0.22373028 -0.2613853
0003a0 72 2a 45 3e 34 b2 6b 3e 30 37 48 3e ef 5d c9 bc
       0.19254473 0.23017198 0.19552302 -0.024580924
0003b0 1c b5 5f be 60 81 88 3c 98 d0 da 3d d8 5e f3 3d
       -0.21846431 0.016663253 0.10684317 0.118833244
0003c0 52 e4 8d 3e 2c 20 2c 3e ac f2 29 3e 3b 5a 85 be
       0.27713257 0.16809148 0.16596478 -0.26045403
0003d0 e3 ab 4e be 19 0b 94 be 78 11 83 be 64 e8 1a 3e
       -0.20182757 -0.28914717 -0.25599265 0.15127712
0003e0 43 48 1c be 86 65 28 3e 71 5a 3f be 60 b1 bc bd
       -0.1526194 0.16444978 -0.18686844 -0.09213519
0003f0 80 fb 0b bc 11 f6 0c be c8 5f 19 3d c6 3c 37 be
       -0.008543849 -0.13765742 0.03744486 -0.17894277

arith.constant3 f4 [1, 5]
000000 f5 7b 47 3a 80 96 18 4b 80 96 18 4b 80 96 18 4b
       0.00076097186 1e+07 1e+07 1e+07
000010 80 96 18 4b
       1e+07

Const_1 f4 [1, 5]
000000 94 aa bf 45 00 00 00 00 00 00 00 00 00 00 00 00
       6133.3223 0.0 0.0 0.0
000010 00 00 00 00
       0.0

sequential_1/dense_1_2/Add/ReadVariableOp f4 [32]
000000 6d 2b 44 3b 89 eb f1 ba d8 39 44 3b ea 3a 44 bb
       0.002993311 -0.0018457036 0.0029941704 -0.0029942342
000010 5a 39 44 3b f4 37 f2 ba 98 8e 3f bb 9c 38 44 bb
       0.002994141 -0.001847981 -0.002922928 -0.0029940968
000020 00 00 00 00 c8 2e 3f bb 00 00 00 00 a2 37 44 3b
       0.0 -0.002917217 0.0 0.0029940386
000030 de ce f1 3a 37 37 44 3b bb b9 3f 3b b4 39 44 3b
       0.0018448492 0.0029940137 0.002925499 0.002994162
000040 a2 35 44 3b 00 00 00 00 06 f5 3f 3b 89 4a 3f bb
       0.0029939194 0.0 0.0029290332 -0.0029188714
000050 00 00 00 00 00 00 00 00 00 00 00 00 b7 0f 44 3b
       0.0 0.0 0.0 0.0029916593
000060 20 1f 3c bb 0b 40 3f bb 00 00 00 00 f2 d7 f1 3a
       -0.0028705075 -0.002918246 0.0 0.0018451198
000070 00 00 00 00 26 30 f2 3a 00 00 00 00 21 78 3f bb
       0.0 0.0018477484 0.0 -0.002921589

sequential_1/dense_1/Add/ReadVariableOp f4 [64]
000000 44 31 44 3b 98 33 44 3b 8e 8d fa 39 16 5a 43 3b
       0.002993659 0.0029937979 0.00047789182 0.0029808334
000010 1c 99 43 3b 74 15 3f bb da c1 3f 3b 1f 27 44 bb
       0.00298459 -0.0029157074 0.0029259832 -0.0029930545
000020 64 ae 40 3b 72 5c 43 bb 00 a3 80 37 a6 f4 3f 3b
       0.002940082 -0.002980974 1.5334692e-05 0.002929011
000030 61 eb 43 3b b2 14 3f bb a1 fd 3e bb 8c 91 3d bb
       0.0029894935 -0.0029156622 -0.0029142874 -0.0028925864
000040 c0 46 40 3b be 46 3f bb 24 29 44 3b bd 30 44 3b
       0.0029339045 -0.0029186453 0.0029931748 0.0029936277
000050 6c c3 41 3b 91 d5 3f 3b ef 36 44 bb 26 40 27 bb
       0.0029565943 0.0029271583 -0.002993997 -0.0025520413
000060 87 5f 3f bb 2e be 3e bb e8 fb 3e bb af f8 3e bb
       -0.0029201226 -0.0029105055 -0.0029141847 -0.0029139926
000070 72 04 44 bb ee 11 44 3b 76 6a 40 3b 8f 33 3f bb
       -0.0029909876 0.0029917913 0.002936033 -0.0029175018
000080 6b 3a 44 bb ac 18 40 3b d6 e6 41 3b e2 d7 3f 3b
       -0.0029942046 0.002931158 0.0029587052 0.0029272963
000090 5c a9 41 3b 94 33 44 bb ac a1 43 3b 83 17 44 3b
       0.002955041 -0.002993797 0.0029851003 0.002992124
0000a0 b2 5f 41 3b a8 33 44 3b 3d 8d 38 bb 73 17 3f bb
       0.0029506502 0.0029938016 -0.0028160356 -0.0029158264
0000b0 7d d9 3f 3b c4 74 40 3b b7 2c 44 3b a5 09 44 3b
       0.002927392 0.0029366473 0.0029933879 0.0029912975
0000c0 fa e1 3f 3b f4 26 44 bb 1e c7 3e 3b af 35 44 3b
       0.002927898 -0.0029930444 0.0029110382 0.0029939224
0000d0 79 38 44 bb 33 f1 3e bb 82 e5 3e bb f0 f1 3e bb
       -0.0029940887 -0.0029135465 -0.0029128497 -0.0029135905
0000e0 25 64 42 3b fe f1 43 3b f8 06 40 3b 30 ed 3f 3b
       0.0029661742 0.0029898877 0.0029301029 0.0029285662
0000f0 e6 d5 43 bb be 2e 44 3b 56 38 44 bb de 33 44 3b
       -0.0029882132 0.0029935087 -0.0029940805 0.0029938142

sequential_1/dense_2_1/Add/ReadVariableOp f4 [2]
000000 70 0f f2 ba 72 0f f2 3a
       -0.0018467735 0.0018467738
