tensorflow/model_quantized.tflite (tflite, 10064 bytes, 10 tensors)

arith.constant f4 [10]
0.026330363 -0.07280795 -0.02759838 0.037263744 0.0958483 -0.00936616 -0.046833728 -0.039602004
-0.03851316 -0.02052103
00000000: c6b2 d73c 561c 95bd ff15 e2bc dea1 183d
00000010: 1d4c c43d 8674 19bc b9d4 3fbd b635 22bd
00000020: fabf 1dbd b81b a8bc

arith.constant1 f4 [32]
0.022667669 0.06749807 0.093633816 0.03480582 0.04510236 0.102447614 0.079315096 0.040560648
0.046245176 0.04353077 0.014014994 -0.0364604 0.045827635 -0.03671339 0.07781522 -0.0018855833
0.05747904 -0.019354442 -0.042760327 0.05015602 0.03257549 -0.016603323 0.07642005 0.051193815
0.034558896 0.12357028 -0.0018517876 0.11161333 -0.035704955 0.051565792 -0.031124068 0.04756408
00000000: 8cb1 b93c 6e3c 8a3d 16c3 bf3d 8c90 0e3d
00000010: 41bd 383d 0ed0 d13d f46f a23d ec22 263d
00000020: 956b 3d3d 524d 323d 259f 653c 8057 15bd
00000030: c2b5 3b3d c860 16bd 965d 9f3d ad25 f7ba
00000040: 246f 6b3d 358d 9ebc 7425 2fbd 6670 4d3d
00000050: e16d 053d b103 88bc 1d82 9c3d 9bb0 513d
00000060: a18d 0d3d 6a12 fd3d aeb7 f2ba 8895 e43d
00000070: 5c3f 12bd a736 533d e7f7 febc 8ed2 423d

arith.constant2 f4 [64]
0.09040152 0.08826498 0.1353694 0.10251576 0.12642276 0.02468024 0.15098055 0.15285073
0.14952604 -0.007938002 0.05543681 0.11503915 0.16287138 0.028988862 0.159907 0.15090054
0.14932239 0.196882 0.10825376 0.08450664 0.076285146 0.0075300904 0.024027739 0.06627634
-0.08940464 0.13986576 0.13178691 0.0935963 0.06328845 0.08050411 0.080272906 0.17862406
0.20022506 0.118877545 0.079095475 0.109052055 0.17086881 0.09196818 0.017732548 0.14526854
-0.034021113 0.1177477 0.13159512 0.13673894 0.077884644 -0.11107156 0.114907555 0.08823399
0.122921415 0.20420025 0.097318195 0.08554738 0.12875308 0.1523228 0.12494369 0.10437871
0.0501113 0.16048647 0.083458185 0.1220212 -0.029255345 0.1735542 0.18166085 0.17056274
00000000: 6f24 b93d 45c4 b43d 479e 0a3e c8f3 d13d
00000010: f874 013e 372e ca3c a59a 1a3e e784 1c3e
00000020: 5b1d 193e 650e 02bc b511 633d a599 eb3d
00000030: c1c7 263e 0d7a ed3c a9be 233e ac85 1a3e
00000040: f8e7 183e 6f9b 493e 26b4 dd3d d111 ad3d
00000050: 633b 9c3d fabe f63b d2d5 c43c e4bb 873d
00000060: c819 b7bd f838 0f3e 26f3 063e 6baf bf3d
00000070: 609d 813d 57df a43d 1f66 a43d 3ae9 363e
00000080: cc07 4d3e 1276 f33d cffc a13d af56 df3d
00000090: 3cf8 2e3e d059 bc3d d943 913c 47c1 143e
000000a0: b959 0bbd b525 f13d dfc0 063e 4b05 0c3e
000000b0: fc81 9f3d 7c79 e3bd a754 eb3d 06b4 b43d
000000c0: 39be fb3d df19 513e c34e c73d 7733 af3d
000000d0: d9d7 033e 82fa 1b3e 7ae2 ff3d 81c4 d53d
000000e0: 8241 4d3d 9156 243e 20ec aa3d 40e6 f93d
000000f0: e8a8 efbc 31b8 313e 4d05 3a3e 00a8 2e3e

arith.constant3 f4 [32]
0.078148216 0.08069795 0.030909933 0.15776315 -0.024428668 0.082578406 0.077796355 0.030053679
0.085824504 -0.0014691704 0.07464797 0.07356152 0.06366241 0.08638897 0.08556887 -0.0133140795
0.0258567 0.065066114 0.08310715 0.040531266 0.01980622 0.13165118 0.017750567 0.07365368
0.042076666 0.04843375 0.116123766 0.10099217 0.09091604 -0.069020696 0.010492457 0.13996121
00000000: 2c0c a03d f844 a53d d436 fd3c aa8c 213e
00000010: a11e c8bc de1e a93d b253 9f3d 2233 f63c
00000020: c2c4 af3d 2e91 c0ba 09e1 983d 6ca7 963d
00000030: 7061 823d b3ec b03d bb3e af3d 4c23 5abc
00000040: 6ed1 d33c 6241 853d 1534 aa3d 1d04 263d
00000050: a740 a23c 91cf 063e a369 913c bed7 963d
00000060: 9558 2c3d 7862 463d 4cd2 ed3d fcd4 ce3d
00000070: 3032 ba3d b95a 8dbd 8ee8 2b3c fe51 0f3e

arith.constant4 f4 [1, 5]
3167.695 5651.0596 5650.4434 5645.026 7672.855
00000000: 1ffb 4545 7a98 b045 8c93 b045 3568 b045
00000010: d7c6 ef45

arith.constant5 f4 [1, 5]
0.00031129425 0.00040024053 0.00040000188 0.00029501776 0.0012457323
00000000: 3535 a339 60d7 d139 58b7 d139 9dac 9a39
00000010: d747 a33a

arith.constant6 f4 [64, 5]
-0.31149912 0.054049395 -0.02594086 -0.21763897 0.297392 -0.14748274 -0.25335887 -0.13811746
-0.38755926 -0.16199607 -0.5044114 0.097794734 -0.16646555 0.021546574 0.09502981 0.3549675
0.19980922 -0.1705517 0.17013033 -0.28574207 -0.31922764 -0.13200349 0.087047935 0.39366424
0.28475273 -0.21261026 -0.061943904 0.07853289 0.095274016 0.33548638 -0.22822754 0.30963027
0.016596952 -0.20403446 0.06357831 0.31189805 -0.119519934 0.4567743 -0.24032691 0.12279785
-0.030124167 -0.31071582 -0.32235762 -0.10384537 -0.31555107 0.44615102 -0.1493537 0.3002885
-0.2393225 -0.19388108 -0.18609795 -0.022848044 0.31932873 0.30748445 0.43280765 -0.3384467
-0.04983893 -0.22413908 -0.38115847 0.13547325 0.1498557 0.10773075 -0.18847844 0.34754708
-0.3333447 0.2790445 0.13214087 -0.18139987 0.29490748 0.0501137 0.003098933 -0.38236362
-0.37258783 -0.047522083 -0.016508553 -0.049114957 -0.041213755 -0.35555223 0.1365282 0.30257574
0.003419028 -0.238085 -0.13935673 -0.008190888 0.42270777 0.2674502 -0.057149082 -0.088828914
-0.30800566 -0.119625166 -0.17375407 0.16419479 0.15772426 0.32884037 -0.33362406 0.33499435
0.36912572 0.28568918 -0.14927319 -0.31235456 -0.28456613 -0.12810075 0.036624476 -0.110138685
0.2962479 0.05120431 -0.13000347 -0.32700634 -0.28720126 0.20681459 0.22871062 0.130397
0.38813025 0.12642924 -0.31736952 -0.26576453 0.04705444 0.2556289 -0.17937045 0.29096988
0.010094668 -0.24463437 0.06804043 -0.0077065956 -0.30220073 -0.08694097 0.19367445 0.31547427
0.22173269 0.03823432 -0.2913276 0.015172469 -0.3678495 -0.1866832 -0.14662546 0.2821128
0.39741218 -0.06613938 -0.268269 0.19846465 0.2133535 0.15915032 -0.028124671 -0.0858603
0.17080033 0.09519633 -0.3777121 -0.38609126 0.3468303 0.15844578 0.37394863 -0.25230882
-0.26563692 -0.012653163 0.1784984 0.115956366 -0.17399307 -0.11681758 -0.19227256 -0.4037943
0.30545437 -0.19319764 -0.062333025 -0.2830114 -0.035172954 0.3699571 -0.14734282 -0.37131342
-0.24282981 0.1410707 -0.32262084 -0.1398278 -0.23312767 -0.0032493651 -0.38616553 0.33313408
-0.12210851 -0.043298244 -0.15446594 0.35349602 0.13840242 -0.18043867 -0.17760026 0.504875
-0.34669662 -0.012629938 -0.4184649 -0.12833472 -0.31954396 0.21903022 -0.14134875 -0.0183241
0.21405321 0.07760363 0.3021679 0.0005420045 0.44268227 0.3737891 0.15353172 0.093012765
-0.21672304 -0.21598719 0.31066692 -0.01840755 -0.13100107 0.34646952 0.32135254 -0.21731922
0.3332704 -0.35365084 -0.25621122 0.20450647 0.15875775 -0.33781993 -0.250051 -0.11184553
-0.42611656 -0.13593301 -0.030491019 0.20999233 0.52598953 0.12408617 -0.23862807 0.47756523
0.29554668 -0.1722483 0.004785069 -0.2396078 0.27319264 -0.117994696 0.29236612 0.18849333
0.38528016 -0.124838 -0.13671207 0.11498114 0.3445503 0.17194113 0.17151722 0.4707304
0.014150352 -0.0853282 0.12671478 0.07012648 -0.30776122 -0.0475656 0.0068282317 0.30627495
-0.34273738 -0.36175376 -0.1900038 -0.13500816 0.12325498 -0.20792201 0.18498527 -0.22361308
00000000: d07c 9fbe e662 5d3d ed81 d4bc c0dc 5ebe
00000010: c443 983e b705 17be 41b8 81be aa6e 0dbe
00000020: 2b6e c6be 4ce2 25be 1b21 01bf 9b48 c83d
00000030: f275 2abe 7182 b03c fd9e c23d 4dbe b53e
00000040: ca9a 4c3e 1ba5 2ebe a536 2e3e c94c 92be
00000050: ce71 a3be ec2b 07be 3046 b23d 5c8e c93e
00000060: 1ccb 913e 81b6 59be e4b8 7dbd dad5 a03d
00000070: 061f c33d dfc4 ab3e 7bb4 69be dc87 9e3e
00000080: 55f6 873c 69ee 50be 5835 823d 1ab1 9f3e
00000090: dec6 f4bd 52de e93e 4218 76be 707d fb3d
000000a0: f5c6 f6bc 2516 9fbe 0f0c a5be e2ac d4bd
000000b0: e98f a1be e86d e43e 2df0 18be 6abf 993e
000000c0: f510 75be c388 46be 7690 3ebe d22b bbbc
000000d0: 0e7f a33e 9a6e 9d3e f798 dd3e e348 adbe
000000e0: e823 4cbd b784 65be 3427 c3be 80b9 0a3e
000000f0: c673 193e f1a1 dc3d 7e00 41be b1f1 b13e
00000100: 28ac aabe ecde 8e3e f04f 073e e3c0 39be
00000110: 1dfe 963e 0644 4d3d 7817 4b3b 2ac5 c3be
00000120: d5c3 bebe 84a6 42bd f23c 87bc c42c 49bd
00000130: c1cf 28bd f10a b6be 0cce 0b3e 35eb 9a3e
00000140: c511 603b 8ecc 73be 88b3 0ebe 1333 06bc
00000150: 276d d83e 3cef 883e 2815 6abd efeb b5bd
00000160: ebb2 9dbe 0afe f4bd 96ec 31be ae22 283e
00000170: 7882 213e c45d a83e c6d0 aabe 6184 ab3e
00000180: 0cfe bc3e da45 923e 12db 18be f0ec 9fbe
00000190: a7b2 91be d82c 03be 8c03 163d 6490 e1bd
000001a0: cead 973e 9cbb 513d a11f 05be 606d a7be
000001b0: 0b0c 93be 34c7 533e 1e33 6a3e cb86 053e
000001c0: 02b9 c63e ab76 013e 427e a2be 4a12 88be
000001d0: 28bc 403d cbe1 823e e3ac 37be 01fa 943e
000001e0: 1b64 253c 6f81 7abe c858 8b3d 9c87 fcbb
000001f0: 0eba 9abe 1b0e b2bd 9852 463e d885 a13e
00000200: e50d 633e 979b 1c3d e428 95be f395 783c
00000210: c556 bcbe e129 3fbe fc24 16be 1771 903e
00000220: 9c79 cb3e 1574 87bd 8e5a 89be 513a 4b3e
00000230: 5779 5a3e 4df8 223e b665 e6bc 86d7 afbd
00000240: 48e6 2e3e 4bf6 c23d 7b63 c1be c1ad c5be
00000250: be93 b13e 9c3f 223e 3276 bf3e 9f2e 81be
00000260: 9001 88be 364f 4fbc 49c8 363e 887a ed3d
00000270: 3d2b 32be 0e3e efbd 19e3 44be 20be cebe
00000280: 8464 9c3e 9ad5 45be ea50 7fbd dfe6 90be
00000290: 8411 10bd 046b bd3e 09e1 16be cb1c bebe
000002a0: 61a8 78be d674 103e 8f2e a5be 052f 0fbe
000002b0: 05b9 6ebe 4df3 54bb 7db7 c5be 8d90 aa3e
000002c0: 0714 fabd 8059 31bd 522c 1ebe 6efd b43e
000002d0: 5db9 0d3e eac4 38be d8dc 35be 7d3f 013f
000002e0: 3882 b1be cded 4ebc 0841 d6be 2d6a 03be
000002f0: 449b a3be 7549 603e babd 10be 6c1c 96bc
00000300: c430 5b3e a7ee 9e3d c0b5 9a3e 4e15 0e3a
00000310: 40a7 e23e 4961 bf3e 6b37 1d3e 7a7d be3d
00000320: a5ec 5dbe bf2b 5dbe bc0f 9f3e 6ecb 96bc
00000330: 2525 06be 7464 b13e 5288 a43e ee88 5ebe
00000340: 6ba2 aa3e b911 b5be 1e2e 83be 256a 513e
00000350: 6491 223e bcf6 acbe af06 80be 450f e5bd
00000360: f32b dabe 0632 0bbe 4dc8 f9bc 3b08 573e
00000370: 40a7 063f e420 fe3d eb5a 74be 6e83 f43e
00000380: e551 973e dc61 30be 11cc 9c3b bf5b 75be
00000390: e8df 8b3e 34a7 f1bd 03b1 953e 6504 413e
000003a0: 7143 c53e 11ab ffbd 40fe 0bbe 3b7b eb3d
000003b0: e668 b03e 5611 303e 36a2 2f3e 9303 f13e
000003c0: e1d6 673c 8dc0 aebd 85c1 013e 799e 8f3d
000003d0: e192 9dbe 26d4 42bd 5cbf df3b 12d0 9c3e
000003e0: 467b afbe ca37 b9be 5b90 42be 943f 0abe
000003f0: 1b6d fc3d 82e9 54be c76c 3d3e d4fa 64be

arith.constant7 f4 [10, 32]
0.42333314 0.08315712 -0.13371377 0.32831553 0.21639019 -0.27287108 0.28720644 0.30938873
-0.27772576 -0.22660898 -0.29712656 -0.20356563 0.34086964 -0.055424374 -0.047541007 -0.07806417
0.3647494 -0.10930151 0.048545346 -0.1390097 -0.12324341 -0.058590576 0.004770217 0.39805034
0.48298186 0.029816423 -0.1645652 0.075124934 -0.18791379 0.21053818 -0.3450613 -0.3133882
0.063805826 0.33237997 -0.017889054 -0.15125446 0.39127383 0.00031080653 0.07634961 -0.4898278
0.052278984 -0.020930262 0.2674084 0.23446904 -0.0072541614 -0.27581158 -0.28918666 0.07914097
0.3674449 -0.1574859 -0.18640174 -0.26590773 0.15264553 -0.54557806 0.27555338 0.21595092
-0.3035221 -0.6145261 0.11974043 -0.46993676 -0.06362324 0.13611086 -0.18401958 -0.1872617
0.020084057 -0.16019407 -0.2934563 0.07044934 0.14448342 0.30026913 -0.42230392 0.30772823
0.21272995 -0.1374598 -0.072351284 0.3440498 0.10537033 -0.08786094 -0.2525208 0.23040587
-0.3122513 -0.21631065 0.16816166 -0.16339523 0.34977645 0.1708991 -0.3808705 0.25688943
0.30025467 0.25864795 0.115449555 -0.4450562 -0.016796997 -0.17357792 -0.17642723 -0.032747798
0.049098976 -0.16555989 0.06159927 -0.31918627 -0.012228685 0.13779356 -0.6497377 -0.39313412
-0.048615295 0.30321673 -0.41036728 -0.4796012 0.08089444 0.353089 0.31108674 0.005177846
-0.04572185 -0.45604572 -0.04964443 -0.02802934 0.064892255 -0.2528361 -0.1339742 0.067505375
-0.019597441 0.5415422 -0.4087858 0.035555232 -0.30003408 -0.3845709 -0.055062942 -0.13369608
-0.23513372 0.013408656 0.27089417 -0.3316203 -0.13881777 0.3457726 0.34239635 0.1912859
0.10895346 -0.21623883 -0.3053766 -0.041057166 0.1700293 -0.05016233 -0.5601655 -0.06709448
-0.20861727 -0.12913717 -0.12721136 0.06506537 -0.24767454 -0.5078141 0.47202012 0.4192706
0.01920475 -0.1929262 -0.3497375 0.5385585 0.17305759 -0.4787158 -0.356512 0.20310631
0.028848002 -0.41129056 0.29609278 0.045872014 -0.4384885 0.17059736 0.20550102 0.081246994
0.1319855 0.24302037 -0.5396193 0.056968108 0.39917845 0.108344376 -0.0030351619 -0.19579573
-0.008912765 -0.26413652 0.12400076 -0.54327345 0.32062668 -0.19560048 -0.008385451 0.3445352
-0.12629959 -0.11242149 -0.22108851 -0.3131017 0.3108222 -0.37785742 -0.058762137 -0.041331545
-0.10490157 0.08319485 -0.39282563 0.024896197 0.02242497 -0.21080376 0.20683564 0.17396681
0.19479685 -0.2293925 0.37061307 0.44301122 0.02311462 0.21770431 -0.04428344 -0.06890713
-0.012920592 -0.15666175 0.2167794 -0.14505428 -0.1958965 -0.15127233 -0.5137006 -0.46851858
0.1704781 0.0072951135 -0.13593416 0.32752842 -0.37091243 0.22140285 -0.28631577 -0.33296266
0.18734406 -0.5994902 0.034935627 0.068127856 0.09686642 0.31749445 -0.27282318 -0.09521455
-0.482056 0.26438504 -0.52121913 -0.35301957 0.055086866 -0.10981846 0.15944047 0.37354392
-0.45616367 0.2540223 0.03362708 -0.47897905 -0.5381957 -0.10954916 -0.006225353 -0.23289289
-0.6249625 0.15236816 0.25518677 -0.057073273 -0.34211445 -0.24959096 0.057547323 -0.092824295
00000000: 1fbf d83e 484e aa3d 43ec 08be f918 a83e
00000010: 6495 5d3e c2b5 8bbe b90c 933e 3368 9e3e
00000020: 1232 8ebe 2f0c 68be f920 98be 8273 50be
00000030: 7786 ae3e ab04 63bd 5cba 42bd 1ce0 9fbd
00000040: 6fc0 ba3e 78d9 dfbd 7cd7 463d 8f58 0ebe
00000050: 0a67 fcbd acfc 6fbd 7b4f 9c3b 41cd cb3e
00000060: 6649 f73e 9241 f43c c883 28be 1adb 993d
00000070: 796c 40be 5297 573e e0ab b0be 6b74 a0be
00000080: a1ac 823d b52d aa3e 118c 92bc 73e2 1abe
00000090: 0b55 c83e bff3 a239 2f5d 9c3d b6ca fabe
000000a0: 7d22 563d f175 abbc c1e9 883e a718 703e
000000b0: 51b4 edbb 2d37 8dbe 4610 94be a914 a23d
000000c0: bd21 bc3e fc43 21be 19e0 3ebe 0f25 88be
000000d0: 1c4f 1c3e 01ab 0bbf 5515 8d3e 3d22 5d3e
000000e0: 4067 9bbe 9551 1dbf 783a f53d 8d9b f0be
000000f0: e74c 82bd a560 0b3e a16f 3cbe 88c1 3fbe
00000100: 5287 a43c ea09 24be e73f 96be be47 903d
00000110: 76f3 133e e0bc 993e 3838 d8be 8e8e 9d3e
00000120: e1d5 593e 43c2 0cbe e92c 94bd 4c27 b03e
00000130: 66cc d73d 70f0 b3bd 684a 81be 84ef 6b3e
00000140: 67df 9fbe 8a80 5dbe 9232 2c3e 1451 27be
00000150: e615 b33e 2c00 2f3e 7501 c3be 0387 833e
00000160: fbba 993e 816d 843e d170 ec3d 68de e3be
00000170: db99 89bc 69be 31be 57a9 34be 8e22 06bd
00000180: 021c 493d 8888 29be 844f 7c3d 626c a3be
00000190: d35a 48bc c119 0d3e 3655 26bf e048 c9be
000001a0: d520 47bd 393f 9b3e a91b d2be 4a8e f5be
000001b0: fcab a53d 15c8 b43e c346 9f3e ecaa a93b
000001c0: d646 3bbd d37e e9be f557 4bbd c99d e5bc
000001d0: 3be6 843d bc73 81be 8830 09be 4240 8a3d
000001e0: d08a a0bc 82a2 0a3f 5f4c d1be 5da2 113d
000001f0: 119e 99be 7ae6 c4be ae89 61bd a0e7 08be
00000200: e5c6 70be fbaf 5b3c a4b2 8a3e 23ca a9be
00000210: 3f26 0ebe 1b09 b13e 934e af3e 73e0 433e
00000220: fe22 df3d b66d 5dbe 525a 9cbe 8f2b 28bd
00000230: 291c 2e3e 0477 4dbd 0267 0fbf d568 89bd
00000240: c49f 55be 893c 04be b243 02be fe40 853d
00000250: 659e 7dbe 1b00 02bf 9fac f13e a3aa d63e
00000260: 4853 9d3c 728e 45be cb10 b3be f8de 093f
00000270: 0236 313e 3d1a f5be be88 b6be 1afb 4f3e
00000280: a552 ec3c ad94 d2be 7999 973e 4be4 3b3d
00000290: 9181 e0be 13b1 2e3e dc6e 523e d364 a63d
000002a0: 3527 073e 55da 783e 7e24 0abf 6457 693d
000002b0: 1e61 cc3e a8e3 dd3d 91e9 46bb ad7e 48be
000002c0: d906 12bc e73c 87be 1cf4 fd3d f813 0bbf
000002d0: 2e29 a43e 7e4b 48be 2163 09bc eb66 b03e
000002e0: ae54 01be 3d3d e6bd 0765 62be de4e a0be
000002f0: 1624 9f3e 8776 c1be 91b0 70bd 444b 29bd
00000300: a2d6 d6bd 1062 aa3d 7120 c9be 1cf3 cb3c
00000310: 92b4 b73c f1dc 57be b9cc 533e 5b24 323e
00000320: d378 473e dee5 6abe ffc0 bd3e 5ed2 e23e
00000330: df5a bd3c e1ed 5e3e 8d62 35bd 2e1f 8dbd
00000340: e4b0 53bc f06b 20be 6bfb 5d3e 1c89 14be
00000350: 1899 48be 22e7 1abe e281 03bf abe1 efbe
00000360: d091 2e3e d90b ef3b 5332 0bbe ceb1 a73e
00000370: 3ce8 bdbe 6eb7 623e fb97 92be 157a aabe
00000380: 1fd7 3f3e 3178 19bf a918 0f3d 9e86 8b3d
00000390: e761 c63d a28e a23e 7baf 8bbe d9ff c2bd
000003a0: 0bd0 f6be 7a5d 873e 9e6e 05bf fbbe b4be
000003b0: c4a2 613d 80e8 e0bd 5d44 233e 2641 bf3e
000003c0: 498e e9be 360f 823e 8dbc 093d be3c f5be
000003d0: 32c7 09bf 4f5b e0bd 0cfe cbbb 797b 6ebe
000003e0: 8bfd 1fbf 6606 1c3e d7a7 823e aac5 69bd
000003f0: a029 afbe c694 7fbe beb6 6b3d aa1a bebd

tfl.pseudo_qconst i1 [32, 32]
-12 -56 66 -32 -15 -61 80 -27
69 25 -2 65 77 65 -79 62
-118 118 9 127 -40 -17 -29 -24
-4 -66 -79 -93 -54 -58 58 -17
72 57 -31 -9 16 111 -11 10
7 -12 -28 127 24 98 -8 119
-78 -5 -43 -23 -61 122 44 41
72 -56 115 17 35 -34 61 -37
-20 127 14 77 48 7 21 -26
-55 39 83 98 1 -46 84 -106
86 -24 -50 -125 -47 -56 91 11
44 -43 103 113 120 -52 23 62
35 23 7 32 -82 16 119 25
87 -61 75 -38 91 14 -80 117
-2 110 112 118 98 -80 127 12
21 17 60 -93 -95 -59 85 -59
40 114 31 38 -92 113 42 -76
127 25 -92 23 51 -39 55 -19
54 -85 -65 55 28 -34 -103 30
-25 4 21 -100 66 -32 -83 37
53 62 -79 -56 91 9 54 86
-59 33 35 14 -8 10 55 -63
85 -55 127 -127 19 105 19 -44
-10 96 -16 83 -61 5 73 113
25 -66 -6 124 -20 29 -14 45
47 -6 59 -63 -12 11 69 36
90 -29 -11 46 67 127 -77 3
-51 -21 13 100 -70 -78 -13 -9
-33 -27 24 98 0 -66 -88 -60
65 17 44 -45 106 -117 -23 22
47 -16 49 81 -2 23 113 -127
85 66 121 -66 57 63 -54 38
00000000: f4c8 42e0 f1c3 50e5 4519 fe41 4d41 b13e
00000010: 8a76 097f d8ef e3e8 fcbe b1a3 cac6 3aef
00000020: 4839 e1f7 106f f50a 07f4 e47f 1862 f877
00000030: b2fb d5e9 c37a 2c29 48c8 7311 23de 3ddb
00000040: ec7f 0e4d 3007 15e6 c927 5362 01d2 5496
00000050: 56e8 ce83 d1c8 5b0b 2cd5 6771 78cc 173e
00000060: 2317 0720 ae10 7719 57c3 4bda 5b0e b075
00000070: fe6e 7076 62b0 7f0c 1511 3ca3 a1c5 55c5
00000080: 2872 1f26 a471 2ab4 7f19 a417 33d9 37ed
00000090: 36ab bf37 1cde 991e e704 159c 42e0 ad25
000000a0: 353e b1c8 5b09 3656 c521 230e f80a 37c1
000000b0: 55c9 7f81 1369 13d4 f660 f053 c305 4971
000000c0: 19be fa7c ec1d f22d 2ffa 3bc1 f40b 4524
000000d0: 5ae3 f52e 437f b303 cdeb 0d64 bab2 f3f7
000000e0: dfe5 1862 00be a8c4 4111 2cd3 6a8b e916
000000f0: 2ff0 3151 fe17 7181 5542 79be 393f ca26

tfl.pseudo_qconst1 i1 [32, 64]
-17 -61 -74 11 123 31 108 -77
-11 -60 92 -87 -73 51 38 10
85 49 -24 -124 -107 66 -11 127
-58 73 39 16 -60 111 1 54
-36 7 -54 2 -19 44 48 -47
-17 -1 -15 76 37 3 -50 25
-76 -58 33 8 54 8 75 79
81 14 -72 18 11 66 -78 -102
88 30 24 42 -62 18 92 127
-1 -13 -26 31 36 -2 -33 -19
-21 26 -51 -5 19 17 71 -39
-21 -1 31 117 99 -77 83 31
102 50 77 25 -50 27 -28 -40
11 -14 108 4 28 9 96 60
59 117 18 32 8 80 39 -8
56 43 -9 -71 19 -41 69 -52
-93 -63 -26 39 -122 -83 45 47
27 95 50 1 55 20 80 15
106 28 -1 76 -54 98 -35 -79
-27 -12 -74 103 123 36 59 -10
97 -16 7 127 -45 3 -97 -49
-94 3 6 14 122 -65 23 -54
29 -21 -19 27 47 35 22 0
-10 -6 82 -78 77 -34 61 35
0 -44 30 47 -24 -62 47 -11
11 22 -101 28 102 -37 51 71
-12 91 74 115 33 29 0 -72
44 82 51 -126 4 48 55 74
32 -40 -16 -96 25 32 27 33
29 116 15 119 -44 -5 26 -124
50 110 -68 -17 -27 62 23 89
-23 -53 91 127 -60 92 -1 37
00000000: efc3 b60b 7b1f 6cb3 f5c4 5ca9 b733 260a
00000010: 5531 e884 9542 f57f c649 2710 c46f 0136
00000020: dc07 ca02 ed2c 30d1 efff f14c 2503 ce19
00000030: b4c6 2108 3608 4b4f 510e b812 0b42 b29a
00000040: 581e 182a c212 5c7f fff3 e61f 24fe dfed
00000050: eb1a cdfb 1311 47d9 ebff 1f75 63b3 531f
00000060: 6632 4d19 ce1b e4d8 0bf2 6c04 1c09 603c
00000070: 3b75 1220 0850 27f8 382b f7b9 13d7 45cc
00000080: a3c1 e627 86ad 2d2f 1b5f 3201 3714 500f
00000090: 6a1c ff4c ca62 ddb1 e5f4 b667 7b24 3bf6
000000a0: 61f0 077f d303 9fcf a203 060e 7abf 17ca
000000b0: 1deb ed1b 2f23 1600 f6fa 52b2 4dde 3d23
000000c0: 00d4 1e2f e8c2 2ff5 0b16 9b1c 66db 3347
000000d0: f45b 4a73 211d 00b8 2c52 3382 0430 374a
000000e0: 20d8 f0a0 1920 1b21 1d74 0f77 d4fb 1a84
000000f0: 326e bcef e53e 1759 e9cb 5b7f c45c ff25
