tensorflow/model.tflite (tflite, 7336 bytes, 8 tensors)

arith.constant f4 [4]
0	0x3ccd3c4b	0.025053164
1	0x3c27efc8	0.010250039
2	0xbd16967c	-0.036764607
3	0xba94c588	-0.0011350373

arith.constant1 f4 [64]
0	0x3d0c001e	0.0341798
1	0xbc8b50c8	-0.017006293
2	0x3d33945d	0.043842662
3	0x3cbc827a	0.023011435
4	0xbd0af9f5	-0.033929784
5	0xbb620b37	-0.0034491548
6	0x3cb239ad	0.021756018
7	0xbc810885	-0.015751133
8	0x3ce85d53	0.028364813
9	0xbbe4d6ff	-0.0069836373
10	0xbcdac461	-0.026704969
11	0x3d38378b	0.044974845
12	0x3caa53bc	0.02079188
13	0xbd23bdb3	-0.039975833
14	0x3d3ca1a1	0.04605258
15	0x3d4725d0	0.048620045
16	0x3d46e325	0.048556466
17	0x3d2079f4	0.039178804
18	0x3ce154f7	0.027506335
19	0xbd0717b6	-0.032981597
20	0x3c588994	0.013216395
21	0x3d36dc8e	0.04464393
22	0x3d3cc852	0.046089478
23	0x3ccd7dca	0.025084395
24	0x3c847b7a	0.01617216
25	0x3d35bfbe	0.044372313
26	0x3ce4a68a	0.027911443
27	0x3d30834d	0.04309397
28	0x3d0093dc	0.03139101
29	0x3d38b839	0.045097563
30	0x3d3ab8af	0.045586284
31	0x3d0a5ab6	0.033777915
32	0x3ca17dd0	0.019713312
33	0x3d53a8d3	0.051674675
34	0xbcb14a8d	-0.021641994
35	0xbd14ed48	-0.0363591
36	0x3d5223be	0.051303618
37	0xba20636e	-0.0006118332
38	0xbd12fc97	-0.03588542
39	0xbcbfee49	-0.023429053
40	0x3d4eb89a	0.05046902
41	0x3d42a44a	0.04751996
42	0x3c3192dd	0.010838238
43	0x3c46dcde	0.01213762
44	0x3d557ead	0.05212276
45	0x3d3714cc	0.044697568
46	0xbcad3280	-0.021142244
47	0x3aca1136	0.0015416506
48	0x3bbc1f54	0.0057410393
49	0x3d405c97	0.0469633
50	0xbd01c259	-0.031679485
51	0x3d401be7	0.04690161
52	0x3cd79256	0.026314896
53	0x3d46643a	0.048435427
54	0x3cd20eee	0.025641885
55	0x3d4735da	0.04863534
56	0x3d468f98	0.048476785
57	0xbd2cff0d	-0.042235423
58	0x3d5a55c2	0.05330444
59	0xbc35ef62	-0.011104437
60	0x3d400e85	0.046888847
61	0x3d287885	0.04113056
62	0x3bcb595e	0.0062057218
63	0xbad81685	-0.0016486204

arith.constant2 f4 [32]
0	0x3cbe16c4	0.023204215
1	0x3d172bef	0.036907133
2	0xbbc085a7	-0.0058753076
3	0x3d24134c	0.040057465
4	0x3d2fa5f1	0.042882863
5	0x3d40e74a	0.047095574
6	0x3ce21f5c	0.027602844
7	0x00000000	0.0
8	0x3d01942c	0.03163545
9	0x3d0a31db	0.033738952
10	0x3ce3f088	0.027824655
11	0x3d358a99	0.04432163
12	0xbcaa60ca	-0.020798106
13	0x3d1ab6b4	0.037771896
14	0xbc87b95a	-0.016567875
15	0x00000000	0.0
16	0x3d213593	0.039357733
17	0x3d551ac3	0.052027475
18	0x3d39714a	0.045274056
19	0x3d57aebb	0.05265687
20	0x3d244ef8	0.040114373
21	0xbd08b654	-0.033377007
22	0x3d30dc92	0.043179102
23	0xbd05cae7	-0.032664206
24	0xbc9cab90	-0.019124776
25	0xbc8090d6	-0.015694063
26	0x00000000	0.0
27	0x3d36c11d	0.04461776
28	0x3d463616	0.048391424
29	0xbc94f1f6	-0.018181782
30	0x00000000	0.0
31	0xbcb69aff	-0.022290705

arith.constant3 f4 [1, 5]
0	0x457a340e	4003.2534
1	0x45acb490	5526.5703
2	0x45acc697	5528.8237
3	0x459c2722	4996.8916
4	0x45f3c08b	7800.068

arith.constant4 f4 [1, 5]
0	0x398dd805	0.00027054563
1	0x3a12e6eb	0.00056038675
2	0x3a12eece	0.00056050427
3	0x3991631d	0.000277304
4	0x3b1c39a8	0.0023838077

arith.constant5 f4 [64, 5]
0	0xbe2efec2	-0.1708937
1	0xbd107776	-0.035270177
2	0x3e9aab0d	0.30208626
3	0x3e61f2ee	0.22065327
4	0xbe926af4	-0.28597224
5	0x3e54d6ea	0.20785108
6	0x3e5ef816	0.21774325
7	0x3e3ab48e	0.18232939
8	0x3e3cccbd	0.18437476
9	0x3df53de1	0.11974693
10	0xbeaa779b	-0.33294377
11	0x3e913a25	0.28364673
12	0x3e4fa7e0	0.20278883
13	0x3d2ee3cc	0.042697713
14	0xbe9a0912	-0.30085045
15	0x3d39041e	0.045169942
16	0x3e8254c7	0.25455305
17	0x3b904f5d	0.004403992
18	0xbdf3915d	-0.1189296
19	0xbe8cc366	-0.27492827
20	0xbe473503	-0.19453816
21	0xbda91646	-0.082562014
22	0x3c8ae2fa	0.016953934
23	0xbd9368d3	-0.07197728
24	0x3d97dca3	0.0741513
25	0x3e115be4	0.1419521
26	0x3d5535ef	0.05205339
27	0x3e5a97af	0.21346925
28	0x3d005d31	0.031338874
29	0xbd252bc1	-0.04032493
30	0x3e061bd5	0.13096555
31	0xbd3aa889	-0.045570884
32	0x3dd1da79	0.102467485
33	0x3e88f085	0.26746002
34	0xbe93fdc7	-0.28904554
35	0xbcb573ba	-0.02214991
36	0xbe5d918e	-0.21637556
37	0x3e5ab577	0.21358286
38	0x3e703340	0.2345705
39	0xbaaf40b0	-0.0013370719
40	0x3d2755c2	0.04085327
41	0x3da959ff	0.082691185
42	0x3e0c4c7e	0.13701054
43	0x3da266a0	0.079297304
44	0x3d7ef5e4	0.06224622
45	0xbe43d548	-0.19124329
46	0xbe9617b4	-0.2931496
47	0x3c910fa9	0.017707663
48	0xbdb54236	-0.08850519
49	0xbd92c6c1	-0.071668155
50	0x3c18b1bd	0.00931972
51	0xbe1b62b9	-0.15174378
52	0x3e46ee7a	0.19426909
53	0x3e6055eb	0.21907775
54	0xbccbb696	-0.024867337
55	0xbd89cd64	-0.06728628
56	0xbe8bd8fc	-0.27313983
57	0xbc6c0ab4	-0.014406849
58	0xbe8909d8	-0.26765323
59	0xbe3f85e7	-0.18703423
60	0xbbbfe02f	-0.005855582
61	0x3e9811ae	0.2970099
62	0xbd89e558	-0.06733197
63	0xbdfd85cf	-0.123790376
64	0x3e823b9d	0.25436106
65	0x3e89e7f8	0.2693479
66	0x3d8b612f	0.06805646
67	0x3dae457c	0.08509347
68	0x3d575852	0.052574463
69	0xbe7dfa18	-0.24802434
70	0xbe955ad3	-0.29170856
71	0xbd8d3e51	-0.068966515
72	0x3d92f1e4	0.07175043
73	0x3e51e71d	0.20498319
74	0x3e9d3639	0.3070543
75	0x3cd990b0	0.02655825
76	0xbe85592e	-0.260446
77	0x3e4e3594	0.20137626
78	0xbe93c4bb	-0.2886103
79	0xbe3cee2b	-0.18450229
80	0xbeaa907f	-0.33313367
81	0xbc602f3d	-0.0136831375
82	0x3e1b1515	0.15144761
83	0xbe8999eb	-0.26875243
84	0xbe926234	-0.28590548
85	0xbde0a3d0	-0.10968745
86	0xbdea2d70	-0.11434448
87	0xbdc3b954	-0.09556833
88	0xbe6e62a8	-0.23279822
89	0x3e3dcac5	0.18534382
90	0x3e86d59c	0.26334846
91	0xbe62172c	-0.22079152
92	0x3d0fa787	0.035071876
93	0xbda86dd6	-0.082240745
94	0x3e5e88f7	0.21731935
95	0xbe68d559	-0.22737636
96	0xbd3e7d1f	-0.046506044
97	0xbe50375b	-0.20333616
98	0xbe000edc	-0.12505668
99	0x3cfaa9eb	0.030598601
100	0x3df7d1ef	0.121005885
101	0x3e64a779	0.22329511
102	0xbcd22da1	-0.025656523
103	0x3de4e5da	0.11176653
104	0x3e3330c9	0.17499079
105	0xbe53d44c	-0.20686454
106	0xbe020ee1	-0.12700988
107	0xbe358e2b	-0.17730014
108	0x3c95493f	0.018223403
109	0xbe7a6dab	-0.24455898
110	0xbde06158	-0.10956067
111	0x3d8e33a7	0.06943446
112	0xbe9e0aec	-0.30867708
113	0xbea043cf	-0.31301734
114	0xbc4b9042	-0.01242453
115	0xbe89c476	-0.269077
116	0xbe804418	-0.2505195
117	0xbd4de7f8	-0.05027005
118	0x3ddeac0f	0.10872661
119	0xbdca8713	-0.098890446
120	0xbe888868	-0.2666657
121	0xbdf7e206	-0.121036574
122	0x3e6316fc	0.22176737
123	0x3e7ea6ec	0.24868363
124	0x3d103e90	0.035215914
125	0x3e88cbe2	0.2671805
126	0x3d10f72d	0.035391975
127	0x3ddfa765	0.109206
128	0x3e2b9461	0.16755821
129	0x3eacb1e6	0.33729476
130	0x3c2bd049	0.010486671
131	0xbe9459cc	-0.2897476
132	0x3d02f25f	0.031969424
133	0x3d9e7fa1	0.07739187
134	0x3e97e772	0.29668766
135	0x3e3fdbd4	0.18736202
136	0xbe8c1d5b	-0.27366146
137	0xbe536482	-0.2064381
138	0x3c58fd45	0.013243978
139	0xbe52938d	-0.20564099
140	0x3e95affa	0.29235822
141	0x3d9326dc	0.07185146
142	0x3e68b9f8	0.22727191
143	0x3e564df8	0.2092818
144	0x3ca5201c	0.020156913
145	0x3dc4526c	0.09586033
146	0x3e04391e	0.12912413
147	0xbde73f14	-0.11291328
148	0xbe88719c	-0.26649177
149	0x3e7991c6	0.24372014
150	0x3d05ff0c	0.032713935
151	0xbe9077c5	-0.28216377
152	0x3e6f4033	0.23364334
153	0xbe9e9e5f	-0.30980203
154	0x3dfc0f75	0.12307636
155	0x3e70f4c6	0.23530874
156	0xbe41beaf	-0.18920396
157	0x3e45cf29	0.19317307
158	0xbe07a6dd	-0.13247247
159	0x3e417fe8	0.18896449
160	0x3e9cb446	0.30606288
161	0x3d7f3c72	0.062313505
162	0xbe0f951e	-0.14021727
163	0x3da08895	0.07838551
164	0xbdab0a88	-0.08351618
165	0xbe5bd57f	-0.21468161
166	0x3e24c177	0.16089426
167	0xbe86748d	-0.26260796
168	0x3e1ba2d0	0.15198827
169	0x3d884d41	0.0665536
170	0x3e676fa4	0.22601181
171	0x3e96be5e	0.29442114
172	0x3d0bf880	0.034172535
173	0x3c49157e	0.012273191
174	0x3e57aea6	0.21062717
175	0x3d58e31c	0.052950963
176	0x3d8e44fb	0.06946751
177	0x3e2677a7	0.16256581
178	0x3e752d0c	0.23942965
179	0x3e1e45ac	0.15456265
180	0xbc6e4735	-0.014543344
181	0x3eab1d5e	0.33420843
182	0x3e491113	0.1963542
183	0x3db82574	0.089915186
184	0xbd1cf68a	-0.038321055
185	0x3d5d65b0	0.054052055
186	0x3e668a98	0.22513807
187	0xbe9ae4ee	-0.30252784
188	0x3d918722	0.07105853
189	0x3ce987a9	0.02850707
190	0xbe58a0f5	-0.2115515
191	0xbd45635b	-0.048190456
192	0x3e696533	0.2279251
193	0xbe328f09	-0.17437376
194	0x3df38937	0.11891406
195	0xbdf8e74d	-0.12153492
196	0x3d3ec650	0.046575844
197	0x3e48efa7	0.1962267
198	0x3e33ce70	0.17559218
199	0x3d7791c8	0.060441762
200	0x3e334693	0.1750739
201	0x3e7bba78	0.24582851
202	0x3e204f25	0.15655191
203	0xbe9c9605	-0.30583206
204	0xbe51ca91	-0.20487429
205	0x3dd8f6b9	0.105939336
206	0xbe988a17	-0.29792854
207	0xbe309a6c	-0.17246407
208	0xbdb7acab	-0.08968481
209	0x3afdf03a	0.0019373961
210	0x3e808be4	0.25106728
211	0xbe48be34	-0.19603807
212	0x3e1516c8	0.14559472
213	0x3ddb75a8	0.107158005
214	0x3e0967e0	0.13418531
215	0x3d10aa16	0.035318457
216	0xbdbae582	-0.091258064
217	0xbd40eeba	-0.047102667
218	0xbe7bcde8	-0.24590266
219	0xbdffc651	-0.12488998
220	0x3e62468d	0.22097225
221	0x3ea42cce	0.32065433
222	0x3ca505f1	0.020144435
223	0xbceaad8f	-0.028647212
224	0xbdcd1b14	-0.1001493
225	0xbc9e2739	-0.019305812
226	0xbdd76613	-0.10517516
227	0xbe0c4bf3	-0.13700847
228	0xbea4edfb	-0.32212815
229	0x3e999e55	0.3000361
230	0x3ccbf47c	0.024896853
231	0x3e49c9cb	0.19705884
232	0x3ea476a9	0.3212178
233	0x3cd8556b	0.026407918
234	0xbd5e52a8	-0.054278046
235	0x3ea4c275	0.3217961
236	0x3bea1288	0.0071433224
237	0x3cc64a1d	0.024205262
238	0xbe207219	-0.15668525
239	0xbd56fd2c	-0.052487537
240	0xbe6eac12	-0.23307827
241	0xbe31dde3	-0.173698
242	0xbe87843e	-0.2646808
243	0x3e064e66	0.13115844
244	0xbe1ed163	-0.15509562
245	0xbe29e092	-0.16589573
246	0xbea90982	-0.33015066
247	0xbce0411d	-0.027374798
248	0xbe6dfc1d	-0.23240705
249	0xbdc73ac1	-0.09728003
250	0xbe26696a	-0.1625115
251	0x3e907def	0.2822108
252	0x3d37cc26	0.044872425
253	0xbe047f67	-0.12939225
254	0xbd4b310e	-0.04960733
255	0xbe920115	-0.2851645

arith.constant6 f4 [4, 32]
0	0xbe2a0d11	-0.16606547
1	0xbe8014ab	-0.25015768
2	0xbec22bb4	-0.37923968
3	0x3e9aba39	0.30220202
4	0x3e4cfdf6	0.20018753
5	0xbedc572f	-0.43035266
6	0x3d5e394c	0.05425386
7	0x3e9930be	0.2992
8	0xbe2a95c2	-0.1665869
9	0x3e9426d2	0.28935868
10	0x3d8fba6f	0.07017981
11	0xbe808c3c	-0.2510699
12	0xbea54d30	-0.32285452
13	0xbda67253	-0.08127274
14	0xbb1593e1	-0.0022823738
15	0x3d265e98	0.040617555
16	0xbce2243a	-0.027605165
17	0x3ea2364d	0.31682053
18	0x3cd0c4f4	0.02548454
19	0xbd09a679	-0.033606026
20	0x3ee33bee	0.4438166
21	0xbdb64399	-0.08899612
22	0x3e5f55cc	0.21810073
23	0xbec13f35	-0.37743536
24	0x3e96c4d5	0.29447046
25	0xbeb6c755	-0.35698953
26	0x3e3560dc	0.1771273
27	0x3e8059c6	0.25068492
28	0x3e9eecf3	0.31040153
29	0x3cfa3db4	0.030547
30	0x3ebbe29e	0.36696333
31	0x3ebcc6b6	0.36870354
32	0xbea4ebf8	-0.3221128
33	0xbd440d46	-0.04786422
34	0x3d4bd33c	0.049761996
35	0xbdcdd21f	-0.10049843
36	0x3d7a42f9	0.061099026
37	0xbed9de00	-0.42552185
38	0x3eaf19de	0.34199423
39	0x3d4e7800	0.05040741
40	0xbe1cec49	-0.1532451
41	0xbd7a4a47	-0.061105993
42	0x3d1c556e	0.03816741
43	0x3ec494e6	0.3839485
44	0xbdaac6c2	-0.08338691
45	0x3eac9a14	0.33711302
46	0x3cc2be5d	0.023772413
47	0x3e8f7044	0.2801534
48	0xbedbd318	-0.4293449
49	0x3e8f5458	0.27994037
50	0xbdce38b9	-0.10069413
51	0x3e58f99c	0.21188968
52	0x3e250a48	0.16117203
53	0xbdcdba15	-0.10045258
54	0x3cb4435b	0.022004774
55	0xbed5f835	-0.4179093
56	0xbe682b90	-0.22672868
57	0xbdcfa359	-0.10138578
58	0xbdfb7458	-0.1227805
59	0xbec59350	-0.38588953
60	0x3e84c1fd	0.2592925
61	0xbe19c52b	-0.1501662
62	0x3eac1828	0.3361218
63	0x3e24d2d0	0.16096044
64	0x3e781de0	0.24230146
65	0x3e84b159	0.25916556
66	0xbcebd2f3	-0.028787112
67	0x3d3b2a75	0.045694787
68	0xbea26623	-0.3171855
69	0x3bf022a8	0.00732835
70	0xbdeb2ad7	-0.114827804
71	0x3eb3dabe	0.35127825
72	0x3eb3a7aa	0.35088855
73	0x3e97f917	0.29682228
74	0xbe621f14	-0.22082168
75	0xbd54ba6e	-0.051935606
76	0xbd80a087	-0.06280618
77	0xbece7a2f	-0.40327594
78	0xbe855ae4	-0.26045907
79	0x3dc92b30	0.098226905
80	0x3d3857aa	0.045005478
81	0xbded69f1	-0.11592472
82	0xbee6e448	-0.4509604
83	0x3d85e6ee	0.06538187
84	0xbee88346	-0.45412654
85	0x3e8e5bb8	0.2780435
86	0xbd65f309	-0.05613998
87	0x3ec3503c	0.3814715
88	0xbdb334ad	-0.087502815
89	0xbe12f75b	-0.14352171
90	0xbdc242ac	-0.09485373
91	0xbed380e0	-0.4130926
92	0xbe84d81e	-0.25946134
93	0x3e1bc197	0.15210567
94	0xbc7139a0	-0.0147232115
95	0xbbad1ed1	-0.0052832146
96	0x3eb57a05	0.35444656
97	0xbcfbef4c	-0.030753754
98	0xbe45696f	-0.19278501
99	0xbd2d22ae	-0.0422694
100	0xbe849efd	-0.25902548
101	0x3daa0d4d	0.08303318
102	0x3ec18642	0.37797743
103	0x3ce131c0	0.027489543
104	0x3e8d8b0d	0.2764515
105	0x3da3474c	0.07972583
106	0xbead4b5f	-0.33846566
107	0xbe9ecce6	-0.310157
108	0xbe2f4d7b	-0.171194
109	0xbb05884a	-0.0020375424
110	0xbead32c7	-0.33827803
111	0xbdbdc764	-0.09266546
112	0x3e952681	0.2913094
113	0xbeadc887	-0.33942053
114	0xbe63748c	-0.22212428
115	0x3e39042b	0.18067996
116	0xbe94f754	-0.29094946
117	0xbe1abe4e	-0.15111658
118	0xbdeade8d	-0.114682294
119	0xbc863383	-0.016381985
120	0x3e3342e1	0.17505981
121	0xbed5d713	-0.4176565
122	0xbec693f6	-0.3878476
123	0xbecfec38	-0.40609908
124	0x3e281261	0.16413261
125	0xbe987be7	-0.2978203
126	0x3c829b20	0.01594311
127	0xbeaef460	-0.34170818

tfl.pseudo_qconst i1 [32, 64]
0	0x61	97
1	0x51	81
2	0x46	70
3	0x86	-122
4	0xab	-85
5	0x21	33
6	0xbb	-69
7	0x1d	29
8	0xf0	-16
9	0xdf	-33
10	0xe6	-26
11	0x54	84
12	0xc0	-64
13	0x91	-111
14	0xf6	-10
15	0x07	7
16	0xd4	-44
17	0x2f	47
18	0x7f	127
19	0x4a	74
20	0xf5	-11
21	0xe1	-31
22	0xa6	-90
23	0xdf	-33
24	0xb7	-73
25	0x74	116
26	0xf6	-10
27	0xaa	-86
28	0x23	35
29	0x0a	10
30	0x97	-105
31	0x60	96
32	0x7d	125
33	0xee	-18
34	0x55	85
35	0xb3	-77
36	0xe4	-28
37	0x5a	90
38	0xc5	-59
39	0x4a	74
40	0x50	80
41	0x2d	45
42	0x20	32
43	0x0a	10
44	0xbd	-67
45	0x52	82
46	0x2e	46
47	0x0c	12
48	0xc6	-58
49	0x35	53
50	0x44	68
51	0x85	-123
52	0xf6	-10
53	0xae	-82
54	0x0e	14
55	0x00	0
56	0xa6	-90
57	0x23	35
58	0xfa	-6
59	0xa4	-92
60	0x3a	58
61	0xef	-17
62	0x22	34
63	0x04	4
64	0x4a	74
65	0x28	40
66	0xb1	-79
67	0x03	3
68	0x1b	27
69	0xc9	-55
70	0xc1	-63
71	0xd7	-41
72	0xdf	-33
73	0x36	54
74	0x6e	110
75	0x16	22
76	0x7e	126
77	0xb5	-75
78	0xf2	-14
79	0x2f	47
80	0x4c	76
81	0x1f	31
82	0xaf	-81
83	0xe4	-28
84	0xf1	-15
85	0xcd	-51
86	0x2e	46
87	0xd7	-41
88	0x14	20
89	0x19	25
90	0x9e	-98
91	0x9f	-97
92	0x7e	126
93	0xef	-17
94	0xbd	-67
95	0xec	-20
96	0xb6	-74
97	0x40	64
98	0x18	24
99	0x57	87
100	0x78	120
101	0x15	21
102	0x9e	-98
103	0xd4	-44
104	0x6b	107
105	0x96	-106
106	0xe8	-24
107	0x89	-119
108	0xeb	-21
109	0xb7	-73
110	0x23	35
111	0x5a	90
112	0x1b	27
113	0x9b	-101
114	0x63	99
115	0x9c	-100
116	0xf9	-7
117	0xda	-38
118	0x0b	11
119	0x56	86
120	0xbe	-66
121	0xa3	-93
122	0x68	104
123	0x00	0
124	0x69	105
125	0x7f	127
126	0xf6	-10
127	0x4c	76
128	0xe3	-29
129	0xaa	-86
130	0x96	-106
131	0xe3	-29
132	0xca	-54
133	0xda	-38
134	0xf5	-11
135	0xef	-17
136	0x6e	110
137	0x8f	-113
138	0xe4	-28
139	0xe0	-32
140	0xa5	-91
141	0xbc	-68
142	0x44	68
143	0x95	-107
144	0x81	-127
145	0x13	19
146	0x5e	94
147	0x5d	93
148	0xa3	-93
149	0x3c	60
150	0xf5	-11
151	0x4a	74
152	0x15	21
153	0xf7	-9
154	0xec	-20
155	0x85	-123
156	0x77	119
157	0xd9	-39
158	0xc8	-56
159	0x9f	-97
160	0x91	-111
161	0x9e	-98
162	0x93	-109
163	0x12	18
164	0xf3	-13
165	0x1b	27
166	0xb5	-75
167	0x8b	-117
168	0x5d	93
169	0x70	112
170	0x6b	107
171	0x5e	94
172	0xa1	-95
173	0x22	34
174	0xe8	-24
175	0x13	19
176	0xc6	-58
177	0xc9	-55
178	0x1b	27
179	0xb6	-74
180	0xac	-84
181	0x23	35
182	0xe3	-29
183	0x9e	-98
184	0xb0	-80
185	0xb2	-78
186	0x17	23
187	0x34	52
188	0x03	3
189	0x0f	15
190	0xaa	-86
191	0x4e	78
192	0xb4	-76
193	0x81	-127
194	0x21	33
195	0xfd	-3
196	0x1e	30
197	0xaa	-86
198	0xa5	-91
199	0x59	89
200	0x8a	-118
201	0x30	48
202	0xba	-70
203	0x71	113
204	0x50	80
205	0x45	69
206	0xf9	-7
207	0xc0	-64
208	0x79	121
209	0xbe	-66
210	0x35	53
211	0x0b	11
212	0x94	-108
213	0x15	21
214	0x0b	11
215	0xf5	-11
216	0xf8	-8
217	0x53	83
218	0xfc	-4
219	0x00	0
220	0x44	68
221	0xed	-19
222	0x10	16
223	0xd1	-47
224	0xc7	-57
225	0x23	35
226	0x46	70
227	0xae	-82
228	0xfa	-6
229	0xde	-34
230	0xd3	-45
231	0x03	3
232	0x6a	106
233	0x1b	27
234	0x18	24
235	0xe3	-29
236	0x9b	-101
237	0xdf	-33
238	0x9b	-101
239	0x0d	13
240	0xab	-85
241	0x6c	108
242	0xd9	-39
243	0x7d	125
244	0x26	38
245	0x73	115
246	0x0c	12
247	0xa7	-89
248	0x61	97
249	0x77	119
250	0xe2	-30
251	0x1e	30
252	0x3a	58
253	0xba	-70
254	0x5a	90
255	0xec	-20
