tensorflow/model_quantized.tflite (tflite, 7072 bytes, 8 tensors)

arith.constant f4 [2]
0	0xbaf20f70	-0.0018467735
1	0x3af20f72	0.0018467738

arith.constant1 f4 [64]
0	0x3b443144	0.002993659
1	0x3b443398	0.0029937979
2	0x39fa8d8e	0.00047789182
3	0x3b435a16	0.0029808334
4	0x3b43991c	0.00298459
5	0xbb3f1574	-0.0029157074
6	0x3b3fc1da	0.0029259832
7	0xbb44271f	-0.0029930545
8	0x3b40ae64	0.002940082
9	0xbb435c72	-0.002980974
10	0x3780a300	1.5334692e-05
11	0x3b3ff4a6	0.002929011
12	0x3b43eb61	0.0029894935
13	0xbb3f14b2	-0.0029156622
14	0xbb3efda1	-0.0029142874
15	0xbb3d918c	-0.0028925864
16	0x3b4046c0	0.0029339045
17	0xbb3f46be	-0.0029186453
18	0x3b442924	0.0029931748
19	0x3b4430bd	0.0029936277
20	0x3b41c36c	0.0029565943
21	0x3b3fd591	0.0029271583
22	0xbb4436ef	-0.002993997
23	0xbb274026	-0.0025520413
24	0xbb3f5f87	-0.0029201226
25	0xbb3ebe2e	-0.0029105055
26	0xbb3efbe8	-0.0029141847
27	0xbb3ef8af	-0.0029139926
28	0xbb440472	-0.0029909876
29	0x3b4411ee	0.0029917913
30	0x3b406a76	0.002936033
31	0xbb3f338f	-0.0029175018
32	0xbb443a6b	-0.0029942046
33	0x3b4018ac	0.002931158
34	0x3b41e6d6	0.0029587052
35	0x3b3fd7e2	0.0029272963
36	0x3b41a95c	0.002955041
37	0xbb443394	-0.002993797
38	0x3b43a1ac	0.0029851003
39	0x3b441783	0.002992124
40	0x3b415fb2	0.0029506502
41	0x3b4433a8	0.0029938016
42	0xbb388d3d	-0.0028160356
43	0xbb3f1773	-0.0029158264
44	0x3b3fd97d	0.002927392
45	0x3b4074c4	0.0029366473
46	0x3b442cb7	0.0029933879
47	0x3b4409a5	0.0029912975
48	0x3b3fe1fa	0.002927898
49	0xbb4426f4	-0.0029930444
50	0x3b3ec71e	0.0029110382
51	0x3b4435af	0.0029939224
52	0xbb443879	-0.0029940887
53	0xbb3ef133	-0.0029135465
54	0xbb3ee582	-0.0029128497
55	0xbb3ef1f0	-0.0029135905
56	0x3b426425	0.0029661742
57	0x3b43f1fe	0.0029898877
58	0x3b4006f8	0.0029301029
59	0x3b3fed30	0.0029285662
60	0xbb43d5e6	-0.0029882132
61	0x3b442ebe	0.0029935087
62	0xbb443856	-0.0029940805
63	0x3b4433de	0.0029938142

arith.constant2 f4 [32]
0	0x3b442b6d	0.002993311
1	0xbaf1eb89	-0.0018457036
2	0x3b4439d8	0.0029941704
3	0xbb443aea	-0.0029942342
4	0x3b44395a	0.002994141
5	0xbaf237f4	-0.001847981
6	0xbb3f8e98	-0.002922928
7	0xbb44389c	-0.0029940968
8	0x00000000	0.0
9	0xbb3f2ec8	-0.002917217
10	0x00000000	0.0
11	0x3b4437a2	0.0029940386
12	0x3af1cede	0.0018448492
13	0x3b443737	0.0029940137
14	0x3b3fb9bb	0.002925499
15	0x3b4439b4	0.002994162
16	0x3b4435a2	0.0029939194
17	0x00000000	0.0
18	0x3b3ff506	0.0029290332
19	0xbb3f4a89	-0.0029188714
20	0x00000000	0.0
21	0x00000000	0.0
22	0x00000000	0.0
23	0x3b440fb7	0.0029916593
24	0xbb3c1f20	-0.0028705075
25	0xbb3f400b	-0.002918246
26	0x00000000	0.0
27	0x3af1d7f2	0.0018451198
28	0x00000000	0.0
29	0x3af23026	0.0018477484
30	0x00000000	0.0
31	0xbb3f7821	-0.002921589

arith.constant3 f4 [1, 5]
0	0x45bfaa94	6133.3223
1	0x00000000	0.0
2	0x00000000	0.0
3	0x00000000	0.0
4	0x00000000	0.0

arith.constant4 f4 [1, 5]
0	0x3a477bf5	0.00076097186
1	0x4b189680	1e+07
2	0x4b189680	1e+07
3	0x4b189680	1e+07
4	0x4b189680	1e+07

arith.constant5 f4 [64, 5]
0	0xbc991315	-0.018685857
1	0x3e902820	0.28155613
2	0x3dfb4a5c	0.12270042
3	0x3dbaea44	0.09126714
4	0x3e2b8a00	0.16751862
5	0xbe0f5b3a	-0.13999644
6	0xbdfd979e	-0.12382434
7	0xbe7e8a23	-0.24857382
8	0xbe807a25	-0.2509319
9	0x3e73e994	0.23819572
10	0xbe8c5bfc	-0.27413929
11	0x3e2dae06	0.16960916
12	0x3cf452a0	0.029824555
13	0x3e1b7c50	0.1518414
14	0xbd037da8	-0.032102257
15	0xbd6a7b8e	-0.057246737
16	0xbe1a05f1	-0.15041329
17	0x3e60ff94	0.21972495
18	0x3e24bf7a	0.16088668
19	0x3e5221f4	0.20520765
20	0xbdbd7f2f	-0.09252774
21	0xbe0906cd	-0.133815
22	0x3e0b3a90	0.13596559
23	0x3dfb01f8	0.12256235
24	0xbe59dfd1	-0.21276785
25	0x3d32ec9c	0.04368268
26	0xbd989774	-0.074507624
27	0x3e493bd0	0.19651723
28	0xbe29764a	-0.1654903
29	0xbe3c39fc	-0.18381494
30	0x3d9ab1fe	0.075534806
31	0xbe6b349f	-0.22969292
32	0xbe6e348e	-0.23262236
33	0x3d86c008	0.06579596
34	0xbe54583e	-0.20736787
35	0xbdefc433	-0.11707344
36	0xbdbd8a68	-0.092549145
37	0xbe345192	-0.17609242
38	0xbdc7f234	-0.097629935
39	0x3cdb9020	0.026802123
40	0x3d779b9f	0.060451146
41	0xbe911eea	-0.28343898
42	0x3d587390	0.052844584
43	0xbe7e3b9b	-0.24827425
44	0x3e65dac8	0.2244674
45	0xbe722915	-0.23648484
46	0xbdecae80	-0.11556721
47	0xbe8b795f	-0.27241036
48	0x3e70ed00	0.23527908
49	0x3cfd6ec0	0.030936599
50	0x3d82fa0a	0.063953474
51	0xbe333da6	-0.17503986
52	0xbe0b29b8	-0.13590133
53	0x3dc15308	0.09439665
54	0xbd9c898c	-0.076434225
55	0x3d1a1036	0.037613116
56	0x3e053fc0	0.130126
57	0x3d0ba398	0.034091562
58	0xbd3daf58	-0.0463098
59	0x3e902598	0.28153682
60	0xbe807954	-0.25092566
61	0xbe4ca71f	-0.19985627
62	0xbe1ab128	-0.15106642
63	0xbe29cd64	-0.16582257
64	0x3e5dacc4	0.21647936
65	0x3e35110f	0.17682289
66	0xbd291e20	-0.041288495
67	0x3e879d5e	0.2648725
68	0xbdfa36de	-0.12217496
69	0x3dbab5bc	0.09116694
70	0x3e84de71	0.2595096
71	0xbe534882	-0.20633128
72	0xbe15568a	-0.14583793
73	0xbdd4efde	-0.103973135
74	0xbe70f301	-0.23530199
75	0x3dae75d2	0.08518566
76	0xbb9944c0	-0.004677385
77	0x3cbccf00	0.023047924
78	0x3e3b1b98	0.18272245
79	0xbce27810	-0.02764514
80	0x3da41c9f	0.080132715
81	0x3e561dcc	0.20909804
82	0xbd9677b0	-0.07347047
83	0x3e93196c	0.28730333
84	0x3e25d83e	0.16195771
85	0x3e5d3172	0.21600893
86	0xbcd132a0	-0.025536835
87	0x3e0ff750	0.14059186
88	0x3e1bb802	0.15206912
89	0xbe5486d2	-0.20754555
90	0xbd91db95	-0.0712196
91	0xbe08c3ca	-0.13355938
92	0x3d3386e8	0.04382983
93	0xbe887321	-0.26650336
94	0x3dcfb604	0.101421386
95	0xbe82a943	-0.2551976
96	0xbcfab130	-0.030602068
97	0xbe50a8d6	-0.20376906
98	0x3e0e61bc	0.1390447
99	0x3d7bc388	0.06146577
100	0x3e587b6b	0.2114083
101	0xbe50b65e	-0.20382068
102	0x3e63bbe8	0.2223965
103	0xbe1151a7	-0.14191304
104	0xbdc62994	-0.09675899
105	0x3ccc44eb	0.024935206
106	0xbd55b7cc	-0.052177235
107	0x3e88360a	0.2660373
108	0xbe58cc4e	-0.21171686
109	0x3e30216e	0.17200252
110	0xbd96794a	-0.07347353
111	0xbd0745e8	-0.033025652
112	0xbe6845b3	-0.22682838
113	0xbdd197ac	-0.10234007
114	0x3cef4040	0.029205441
115	0xbe594148	-0.21216309
116	0xbe915a9e	-0.28389448
117	0xbda21180	-0.07913494
118	0xbdc42fd0	-0.09579432
119	0xbe1676ea	-0.146938
120	0x3e1f8290	0.1557715
121	0x3d1862b8	0.03720352
122	0x3e1337c0	0.14376736
123	0x3e3a2156	0.18176779
124	0xbe1556ab	-0.14583842
125	0x3bcfe096	0.0063439114
126	0xbe826e57	-0.25474808
127	0xbe00ed40	-0.12590504
128	0xbe63e4fa	-0.22255316
129	0x3e08b012	0.13348415
130	0x3e45492c	0.19266194
131	0x3d629398	0.055316538
132	0xbe50d946	-0.20395383
133	0xbe907d1f	-0.2822046
134	0xbe8ff216	-0.28114384
135	0x3cb99e35	0.022658447
136	0xbe557694	-0.20846015
137	0xbe3e053a	-0.18556681
138	0x3dfbcda0	0.12295079
139	0xbe7f463c	-0.24929136
140	0xbdb45b57	-0.08806484
141	0xbde5e082	-0.11224462
142	0xbe3935d4	-0.1808694
143	0x3de98ad4	0.114034325
144	0xbd9afb0c	-0.07567415
145	0xbe3cf741	-0.18453695
146	0x3de1571c	0.11002943
147	0x3e85fb7a	0.26168424
148	0xbe29b88c	-0.16574305
149	0xbd2e2650	-0.042517006
150	0x3e8f59a9	0.27998093
151	0xbe94a69d	-0.29033366
152	0xbc73f3c0	-0.0148896575
153	0xbe485516	-0.19563708
154	0x3d3ea240	0.046541452
155	0x3e9397b0	0.28826666
156	0x3ca2b060	0.019859493
157	0xbe965743	-0.2936345
158	0x3e829880	0.25506973
159	0xbe37ea88	-0.1796056
160	0xbe78d6d2	-0.24300697
161	0xbe689200	-0.22711945
162	0xbda71eb8	-0.08160156
163	0x3d8ab718	0.067732036
164	0x3d37d7a0	0.04488337
165	0x3cd31333	0.02576599
166	0x3e5cf78c	0.21578807
167	0x3e8513e8	0.2599175
168	0x3e511598	0.20418394
169	0x3de1e268	0.11029512
170	0x3d047ccb	0.032345574
171	0xbe4f4506	-0.20241174
172	0xbd9d4b6e	-0.07680403
173	0x3de5cc18	0.112205684
174	0xbbc03ac0	-0.0058663785
175	0x3e8e27a5	0.2776462
176	0x3d2a9e70	0.041655004
177	0x3dc627d0	0.096755624
178	0xbe154a72	-0.1457918
179	0x3d8540b0	0.06506479
180	0x3e648c21	0.2231908
181	0xbe8ef616	-0.27922124
182	0xbe71e780	-0.23623466
183	0xbe677777	-0.22604166
184	0x3d5baa38	0.05362913
185	0xbe89104d	-0.2677025
186	0x3e39d2d2	0.18146828
187	0xbcdb69d0	-0.026783854
188	0xbe557ed0	-0.20849156
189	0xbd22f020	-0.039779782
190	0xbe7317bb	-0.23739521
191	0x3e7de7ec	0.24795502
192	0x3deb095c	0.114763945
193	0x3ded58dc	0.11589214
194	0x3e8c72ba	0.2743128
195	0xbd929f80	-0.071593285
196	0x3cfa7890	0.030575067
197	0xbccde470	-0.025133342
198	0x3e4f10aa	0.202212
199	0x3e8c2b5c	0.2737683
200	0x3e5f6e81	0.21819498
201	0x3dde2e78	0.10848707
202	0xbe147c3b	-0.14500515
203	0xbe30a918	-0.17252004
204	0x3dab3878	0.0836038
205	0xbe22f9f6	-0.15915665
206	0x3e516eba	0.20452395
207	0xbe4ae1d9	-0.19812717
208	0x3da37154	0.079806
209	0x3e6c8808	0.23098767
210	0x3d6419ac	0.055688545
211	0x3dc191cc	0.09451637
212	0xbc2be820	-0.010492355
213	0x3bc6cb00	0.00606668
214	0xbab7fd00	-0.0014037192
215	0x3e641a9f	0.2227578
216	0xbe90d7f2	-0.28289753
217	0x3d400e48	0.04688862
218	0x3e858200	0.26075745
219	0xbe9069e4	-0.28205788
220	0x3c8d5131	0.01725063
221	0x3cde1cd0	0.027113348
222	0x3d1cdc40	0.038295984
223	0xbe0ad7a1	-0.13558818
224	0xbdb9e5fc	-0.09077069
225	0x3e74df3c	0.23913282
226	0x3e70875c	0.23489136
227	0xbe70f533	-0.23531036
228	0xbe30e879	-0.17276181
229	0xbe04d0ab	-0.12970226
230	0xbe65198d	-0.22373028
231	0xbe85d44b	-0.2613853
232	0x3e452a72	0.19254473
233	0x3e6bb234	0.23017198
234	0x3e483730	0.19552302
235	0xbcc95def	-0.024580924
236	0xbe5fb51c	-0.21846431
237	0x3c888160	0.016663253
238	0x3ddad098	0.10684317
239	0x3df35ed8	0.118833244
240	0x3e8de452	0.27713257
241	0x3e2c202c	0.16809148
242	0x3e29f2ac	0.16596478
243	0xbe855a3b	-0.26045403
244	0xbe4eabe3	-0.20182757
245	0xbe940b19	-0.28914717
246	0xbe831178	-0.25599265
247	0x3e1ae864	0.15127712
248	0xbe1c4843	-0.1526194
249	0x3e286586	0.16444978
250	0xbe3f5a71	-0.18686844
251	0xbdbcb160	-0.09213519
252	0xbc0bfb80	-0.008543849
253	0xbe0cf611	-0.13765742
254	0x3d195fc8	0.03744486
255	0xbe373cc6	-0.17894277

arith.constant6 f4 [2, 32]
0	0xbea009e1	-0.31257537
1	0x3eb0aac0	0.34505272
2	0x3e69aea9	0.22820534
3	0xbeabc522	-0.33548838
4	0x3e2affaa	0.1669909
5	0x3e433d30	0.1906631
6	0x3ecfedfa	0.4061125
7	0x3c580b65	0.01318631
8	0x3e6a766a	0.22896734
9	0x3e611e2d	0.21984167
10	0x3d4d9168	0.0501875
11	0x3ec659eb	0.38740477
12	0xbc61515d	-0.013752309
13	0x3ea554b7	0.32291195
14	0xbd552259	-0.05203471
15	0x3ea77b84	0.32711422
16	0xbd10f54b	-0.03539018
17	0x3e09c266	0.13453063
18	0xbe820c1e	-0.2539987
19	0x3e9978d2	0.2997499
20	0xbe94821e	-0.29005522
21	0x3e8d8291	0.27638677
22	0x3e21c626	0.15798244
23	0xbe413a41	-0.18869878
24	0xbe615bb7	-0.22007643
25	0xbe377961	-0.17917396
26	0x3eafed49	0.34360722
27	0xbdda3d03	-0.10656168
28	0x3eca77e5	0.39544597
29	0xbe8f3827	-0.27972528
30	0xbec7721a	-0.3895424
31	0xbd9ef070	-0.077607036
32	0xbecca5b7	-0.3997018
33	0xbe352d36	-0.17693028
34	0xbeb1e514	-0.34745085
35	0x3e0ec5db	0.13942663
36	0xbe95bcf7	-0.2924573
37	0xbe58a799	-0.21157683
38	0xbea27f62	-0.3173781
39	0x3e2e108d	0.16998501
40	0xbe0bbd18	-0.13646352
41	0xbe866796	-0.26250905
42	0xbeb7f26c	-0.3592714
43	0x3de1f76d	0.11033521
44	0x3e8ee2b6	0.27907342
45	0x3d8dd15e	0.06924699
46	0x3e8f62ed	0.28005162
47	0xbe5537cb	-0.20822065
48	0xbe6b47d4	-0.22976619
49	0xbce7e350	-0.028306633
50	0xbe13fc15	-0.1445163
51	0x3e370510	0.17873025
52	0x3e80f2e9	0.25185326
53	0x3eb97b19	0.3622673
54	0xbe8025c1	-0.25028804
55	0xbe6dcb83	-0.23222165
56	0xbe6afb09	-0.22947325
57	0xbe94205b	-0.28930935
58	0xbe68523d	-0.22687621
59	0x3ec11a37	0.37715313
60	0x3da24238	0.079227865
61	0x3e4fe08f	0.20300506
62	0xbdd03b58	-0.10167569
63	0xbeb75229	-0.3580487

tfl.pseudo_qconst i1 [32, 64]
0	0x4b	75
1	0x52	82
2	0x9d	-99
3	0xc7	-57
4	0x3b	59
5	0x78	120
6	0xba	-70
7	0x3f	63
8	0x54	84
9	0x0d	13
10	0x3d	61
11	0x03	3
12	0x68	104
13	0x81	-127
14	0x51	81
15	0xb2	-78
16	0x98	-104
17	0xe5	-27
18	0x24	36
19	0x3b	59
20	0xb1	-79
21	0x4f	79
22	0xe0	-32
23	0x5f	95
24	0x77	119
25	0xb1	-79
26	0x23	35
27	0xda	-38
28	0x7b	123
29	0xa5	-91
30	0xeb	-21
31	0x72	114
32	0xb4	-76
33	0xd1	-47
34	0x98	-104
35	0x84	-124
36	0xd3	-45
37	0x72	114
38	0xef	-17
39	0x9f	-97
40	0x56	86
41	0x19	25
42	0x72	114
43	0x33	51
44	0x1a	26
45	0x83	-125
46	0x31	49
47	0xf0	-16
48	0xd4	-44
49	0xfb	-5
50	0xf4	-12
51	0x4b	75
52	0x71	113
53	0x82	-126
54	0x5e	94
55	0x9d	-99
56	0x48	72
57	0x0d	13
58	0x1a	26
59	0x03	3
60	0xeb	-21
61	0x4a	74
62	0x9f	-97
63	0xcb	-53
64	0x40	64
65	0x51	81
66	0x61	97
67	0xe9	-23
68	0x50	80
69	0x7b	123
70	0x57	87
71	0xe1	-31
72	0xc7	-57
73	0x8a	-118
74	0x6e	110
75	0xb4	-76
76	0x9c	-100
77	0x59	89
78	0x2e	46
79	0x95	-107
80	0xc3	-61
81	0xf5	-11
82	0x55	85
83	0x7d	125
84	0xca	-54
85	0x2a	42
86	0x05	5
87	0x3d	61
88	0x7f	127
89	0xc1	-63
90	0x3e	62
91	0xfa	-6
92	0xba	-70
93	0xe3	-29
94	0xbd	-67
95	0x59	89
96	0x87	-121
97	0x4f	79
98	0x7e	126
99	0xe9	-23
100	0x1c	28
101	0xd3	-45
102	0xd7	-41
103	0x4d	77
104	0x8e	-114
105	0x2c	44
106	0xe1	-31
107	0x7c	124
108	0xa7	-89
109	0x99	-103
110	0x38	56
111	0x68	104
112	0x32	50
113	0x68	104
114	0x28	40
115	0x6c	108
116	0x98	-104
117	0xe7	-25
118	0x38	56
119	0xbf	-65
120	0x23	35
121	0x45	69
122	0x4d	77
123	0xd6	-42
124	0x33	51
125	0x7d	125
126	0x98	-104
127	0x75	117
128	0xff	-1
129	0xf0	-16
130	0xda	-38
131	0xae	-82
132	0x9e	-98
133	0xa3	-93
134	0x72	114
135	0x2b	43
136	0x82	-126
137	0x73	115
138	0xda	-38
139	0xe1	-31
140	0x76	118
141	0x20	32
142	0xc0	-64
143	0x25	37
144	0xd2	-46
145	0x20	32
146	0x78	120
147	0x2a	42
148	0x16	22
149	0x6c	108
150	0xa6	-90
151	0x18	24
152	0xe2	-30
153	0x71	113
154	0x1c	28
155	0x9c	-100
156	0xe5	-27
157	0x8c	-116
158	0x9b	-101
159	0xf0	-16
160	0xe3	-29
161	0xbc	-68
162	0xd5	-43
163	0x30	48
164	0x0a	10
165	0xee	-18
166	0xfa	-6
167	0x7f	127
168	0x1f	31
169	0xec	-20
170	0x6e	110
171	0xd9	-39
172	0x84	-124
173	0xbc	-68
174	0x2f	47
175	0x24	36
176	0xaa	-86
177	0xd7	-41
178	0x26	38
179	0xd4	-44
180	0x97	-105
181	0x26	38
182	0x07	7
183	0x90	-112
184	0x96	-106
185	0x01	1
186	0xf8	-8
187	0x99	-103
188	0x13	19
189	0xf3	-13
190	0xca	-54
191	0x6a	106
192	0x8f	-113
193	0x84	-124
194	0x3f	63
195	0x85	-123
196	0x13	19
197	0xc3	-61
198	0xad	-83
199	0xad	-83
200	0x5d	93
201	0x06	6
202	0xfa	-6
203	0x11	17
204	0xdf	-33
205	0x26	38
206	0xcf	-49
207	0x1d	29
208	0x38	56
209	0xb3	-77
210	0x21	33
211	0x34	52
212	0x7c	124
213	0x24	36
214	0x16	22
215	0x46	70
216	0xc1	-63
217	0x48	72
218	0x58	88
219	0x45	69
220	0x7f	127
221	0x97	-105
222	0xd8	-40
223	0x75	117
224	0x43	67
225	0x47	71
226	0x04	4
227	0xdb	-37
228	0xb9	-71
229	0xf7	-9
230	0x0c	12
231	0x41	65
232	0x8c	-116
233	0x0b	11
234	0x31	49
235	0x8d	-115
236	0x51	81
237	0x93	-109
238	0x85	-123
239	0x10	16
240	0x7b	123
241	0xf2	-14
242	0x7c	124
243	0x93	-109
244	0xbf	-65
245	0x29	41
246	0x20	32
247	0xa6	-90
248	0x9b	-101
249	0x20	32
250	0x73	115
251	0x3f	63
252	0x50	80
253	0x2e	46
254	0x35	53
255	0x99	-103
