tensorflow/model_quantized.tflite (tflite, 3120 bytes, 6 tensors)

arith.constant f4 [3, 8]
0	0xbf17e66d	-0.59335977
1	0xbf01ccfb	-0.507034
2	0x3ede7629	0.43449524
3	0x3f0f8a01	0.5606995
4	0xbf193250	-0.59842396
5	0x3eedd21e	0.4644937
6	0xbf2f4807	-0.6846928
7	0xbcc2b3e0	-0.023767412
8	0x3ef4ac56	0.47787732
9	0xbf0005e5	-0.50008994
10	0x3d3eb1e3	0.046556365
11	0x3f0e0b2e	0.5548581
12	0x3e83fcf0	0.25778913
13	0xbde415e0	-0.11136985
14	0xbf1e5c12	-0.6185924
15	0xbed26e03	-0.41099557
16	0xbf04757b	-0.5174176
17	0x3dd45ea1	0.103696115
18	0xbeace2c6	-0.33766764
19	0xbe862d77	-0.26206562
20	0xbd822230	-0.06354177
21	0xbf123e3c	-0.5712621
22	0xbf01bebd	-0.5068167
23	0x3d0a5570	0.033772886

arith.constant1 f4 [8, 16]
0	0xbda71a70	-0.081593394
1	0x3b64b800	0.0034899712
2	0xbebd037c	-0.3691672
3	0x3ee6f4e0	0.451087
4	0xbd7c6a60	-0.061624885
5	0x3e70b640	0.23507023
6	0x3ef669f0	0.481277
7	0xbea492e8	-0.3214333
8	0xbe30b198	-0.17255247
9	0x3dbda2a0	0.09259534
10	0x3e7af528	0.24507582
11	0x3ecb3650	0.39689875
12	0xbebf6cc8	-0.3738768
13	0xbea05890	-0.31317568
14	0x3d7a9ae0	0.061182857
15	0xbeff2e14	-0.49839842
16	0xbe36e208	-0.17859662
17	0xbecf9554	-0.40543616
18	0x3d61a660	0.05509031
19	0x3de69dc0	0.11260557
20	0xbe946088	-0.28979897
21	0x3d83fc1e	0.06444572
22	0x3d1e7f20	0.038695455
23	0xbef0945c	-0.4698819
24	0xbc84481c	-0.016147666
25	0x3edc4d1c	0.4302758
26	0xbe8e7a48	-0.27827668
27	0x3cc71800	0.024303436
28	0xbd92f38a	-0.07175358
29	0x3e926608	0.2859347
30	0xbda67561	-0.08127857
31	0x3ecaa53d	0.39579192
32	0xbe8f0060	-0.27929974
33	0xbe4a1fe0	-0.19738722
34	0x3db0a980	0.086260796
35	0x3ea12ea4	0.31480896
36	0xbe888100	-0.2666092
37	0xbd9b9097	-0.07595938
38	0x3ec3c4f8	0.38236213
39	0x3ef6d018	0.48205638
40	0xbe93f962	-0.289012
41	0x3eeb1b14	0.45919096
42	0x3ec18c78	0.37802482
43	0xbeb7ae14	-0.35875
44	0x3d52503c	0.05134605
45	0xbe6fe9d8	-0.23429048
46	0xbe878477	-0.2646825
47	0x3ed9fc78	0.4257543
48	0xbeeaad68	-0.45835423
49	0xbc98da80	-0.018658876
50	0xbed0f4b4	-0.40811694
51	0xbe959f78	-0.29223228
52	0xbc92e280	-0.01793027
53	0xbef0a1db	-0.46998486
54	0xbe7db238	-0.24775016
55	0x3ed8ce00	0.42344666
56	0x3e8b2ec1	0.27184108
57	0xbd2b7ea0	-0.041868806
58	0x3d975860	0.07389903
59	0x3e616778	0.22012126
60	0x3ee35d4d	0.4440712
61	0xbe40b188	-0.18817723
62	0xbd0e8f7c	-0.034804806
63	0xbed88327	-0.4228756
64	0xbe6f3ef8	-0.23363864
65	0xbdb3e560	-0.08783984
66	0x3e9f35f8	0.31095862
67	0xbe2d8aa8	-0.16947424
68	0x3e9accec	0.30234468
69	0x3ea85e5c	0.3288449
70	0x3e9dbe58	0.30809283
71	0xbe05af18	-0.13055074
72	0xbd5c1040	-0.053726435
73	0xbef969d4	-0.48713553
74	0xbda62910	-0.08113301
75	0x3d834850	0.06410277
76	0xbef95b68	-0.4870255
77	0xbe75d3a8	-0.24006522
78	0x3dcc2770	0.099684596
79	0xbe5f2f60	-0.21795416
80	0xbd4ac3a0	-0.04950297
81	0xbec01494	-0.375157
82	0xbecc3808	-0.39886498
83	0x3dd10460	0.102059126
84	0xbee142b0	-0.4399619
85	0x3e7fe4c0	0.24989605
86	0x3eecb0e0	0.46228695
87	0x3da30a50	0.07960951
88	0xbe353240	-0.1769495
89	0x3ef2956c	0.47379625
90	0x3e05b078	0.13055599
91	0x3e873690	0.26408815
92	0xbe1e0900	-0.1543312
93	0xbeecb9fc	-0.46235645
94	0x3d9b57a0	0.075850725
95	0xbedd1854	-0.43182623
96	0xbefa994c	-0.4894508
97	0x3daccdf0	0.08437717
98	0xbd8db160	-0.06918597
99	0xbe99f760	-0.30071545
100	0xbc337680	-0.010953546
101	0xbee113cc	-0.43960416
102	0x3e058488	0.13038838
103	0x3de22f10	0.11044133
104	0xbd128b00	-0.035777092
105	0xbed18c38	-0.4092729
106	0x3e0a4d40	0.13506031
107	0x3ed33f54	0.41259253
108	0x3edb1090	0.42786074
109	0x3cb35880	0.021892786
110	0xbeb2cfac	-0.34924066
111	0xbec83154	-0.39100134
112	0xbda26be0	-0.07930732
113	0x3d2d0ae0	0.0422467
114	0x3d83c920	0.06434846
115	0x3ea51cec	0.32248628
116	0xbbf73400	-0.0075440407
117	0x3ccef140	0.025261521
118	0xbd0797c0	-0.033103704
119	0xbee001ac	-0.43751276
120	0x3db25ea0	0.087094545
121	0x3e9b43a4	0.30325043
122	0x3eea3cb4	0.45749438
123	0x3e69f558	0.22847497
124	0xbe865d74	-0.26243174
125	0xbb999b00	-0.004687667
126	0xbea2e52c	-0.3181547
127	0x3eadb1ac	0.33924615

arith.constant2 f4 [3]
0	0xbd556560	-0.05209863
1	0x3dc74612	0.09730162
2	0xbd925643	-0.07145359

sequential_1/dense_1_2/Add/ReadVariableOp f4 [8]
0	0x00000000	0.0
1	0xbd9d5e5c	-0.07684013
2	0xbd0d0443	-0.034427892
3	0x3c36381d	0.011121777
4	0x00000000	0.0
5	0x00000000	0.0
6	0x00000000	0.0
7	0x00000000	0.0

sequential_1/dense_1/Add/ReadVariableOp f4 [16]
0	0x00000000	0.0
1	0x00000000	0.0
2	0x00000000	0.0
3	0x00000000	0.0
4	0x00000000	0.0
5	0xbd487890	-0.048943102
6	0x00000000	0.0
7	0x00000000	0.0
8	0x3cbdda7d	0.023175472
9	0x00000000	0.0
10	0x00000000	0.0
11	0x00000000	0.0
12	0x3b4267da	0.002966395
13	0x00000000	0.0
14	0x3d573807	0.052543666
15	0xbdddeba2	-0.10835959

sequential_1/dense_1/MatMul f4 [16, 5]
0	0xbd23ae48	-0.03996113
1	0xbe02e874	-0.12783986
2	0x3eb701fa	0.35743695
3	0xbecaeeb0	-0.3963523
4	0x3edeea52	0.43538147
5	0xbe8c58e6	-0.27411574
6	0xbef568c0	-0.4793148
7	0x3e7f6c54	0.24943668
8	0x3d70e680	0.058813572
9	0xbd8f1b3c	-0.069876164
10	0xbcc93f20	-0.024566233
11	0xbf0606ff	-0.52354425
12	0x3ef51ace	0.47872013
13	0xbde14dd8	-0.11001176
14	0xbcb00bc0	-0.021489978
15	0xbee524ef	-0.4475474
16	0x3efc753a	0.49308187
17	0xbecf3744	-0.40471852
18	0xbddc39d4	-0.10753217
19	0x3e042e68	0.12908328
20	0xbdccb150	-0.09994757
21	0xbed2ef6a	-0.41198283
22	0x3e56c404	0.20973212
23	0x3eab1d44	0.33420765
24	0x3edf9388	0.43667245
25	0x3df5ea1d	0.12007544
26	0xbe8bc581	-0.2729912
27	0x3ed6bb3e	0.4193973
28	0xbefbd31e	-0.49184507
29	0x3f070537	0.5274233
30	0xbef30326	-0.4746334
31	0xbe8a2a1f	-0.2698526
32	0x3ef93692	0.48674446
33	0x3e090904	0.13382345
34	0x3eaff9ac	0.34370172
35	0xbef91af4	-0.48653376
36	0xbd04c2d0	-0.03241235
37	0xbe0e6fda	-0.13909855
38	0xbd1160c8	-0.03549269
39	0x3eb3e7ba	0.3513773
40	0x3dadd6a7	0.08488207
41	0xbec83a74	-0.39107096
42	0x3d0d0090	0.034424365
43	0xbe98631f	-0.29763123
44	0xbe9cda90	-0.306355
45	0xbecdf220	-0.4022379
46	0x3ef6248a	0.48074752
47	0x3e22a2b8	0.15882385
48	0xbc0bcd80	-0.008532882
49	0x3ea79f7c	0.32738864
50	0xbe411b60	-0.18858099
51	0x3ee1acfa	0.44077283
52	0xbda837bc	-0.082137555
53	0xbf06ebdb	-0.52703637
54	0xbf0526c4	-0.52012277
55	0xbce84e60	-0.028357685
56	0x3e162b04	0.14664847
57	0xbdb703b4	-0.08936253
58	0xbead2a81	-0.3382149
59	0xbdbaeaa8	-0.091267884
60	0x3ebe04fa	0.37113172
61	0xbe8d83bf	-0.27639577
62	0xbe6aa5d6	-0.22914824
63	0xbeedcab2	-0.46443707
64	0x3e4366b8	0.19082153
65	0xbe15a0e2	-0.14612153
66	0xbe200a48	-0.15628922
67	0xbd703710	-0.05864626
68	0x3ee2796e	0.44233268
69	0xbdfd7838	-0.123764455
70	0x3e9ca39e	0.3059358
71	0xbebc5b92	-0.36788613
72	0xbe331744	-0.17489344
73	0xbee222ec	-0.44167268
74	0xbd9c3608	-0.07627493
75	0x3e4eae5e	0.20183703
76	0x3debd508	0.11515242
77	0x3eb96b00	0.36214447
78	0xbf0442cd	-0.5166443
79	0xbea3b538	-0.31974196
