tensorflow/model_quantized.tflite (tflite, 7072 bytes, 8 tensors)

arith.constant f4 [2]
00000000: f427 653b f427 65bb
0.003496644 -0.003496644

arith.constant1 f4 [64]
00000000: ba29 81bb 57c0 7f3b 2b05 453b 4668 73bb
00000010: 4040 6f3b 6618 72bb ebfc 81bb 86d4 71bb
00000020: 6059 813b 1c20 723b 6e00 d3b9 3133 823b
00000030: 6093 7dbb 5057 76bb e71a 713b f607 723b
00000040: 20aa 7ebb f6d3 81bb 58c5 6a3b aa4c 6dbb
00000050: e966 5f3b 784d 50bb a94d 7fbb a2f6 70bb
00000060: cb9c 7f3b 44f4 663b f60c 583b f4cc 7ebb
00000070: 247d 6c3b 17d5 79bb 74f9 6ebb fa07 723b
00000080: aa65 7fbb 036d 7d3b 8c2b 71bb d8cd 70bb
00000090: 42f6 023b e8a7 70bb b0a2 66bb 13d2 62bb
000000a0: a40b 7d3b a91d 803b 0a2c 623b 4b81 803b
000000b0: 9652 80bb ee9b 813b 4441 7fbb a0b7 803b
000000c0: 2c8e 693b 6668 65bb 985c 6b3b 042a 803b
000000d0: 0c05 803b 16d2 b5ba ada1 743b 2156 7f3b
000000e0: f330 653b cf32 733b 65d3 543b 2e6b 6d3b
000000f0: f9b6 75bb 9be7 6b3b 5831 723b 6355 81bb
-0.003941742 0.0039024556 0.0030062895 -0.003714101 0.0036506802 -0.0036940812 -0.0039669177 -0.0036900355
0.003947422 0.0036945408 -0.00040245376 0.0039733876 -0.0038692579 -0.0037588663 0.0036789717 0.0036931015
-0.0038858727 -0.0039620353 0.0035823192 -0.0036209025 0.003408844 -0.0031784456 -0.0038956201 -0.0036768098
0.0039003368 0.0035240809 0.003296671 -0.0038879486 0.0036085332 -0.0038121396 -0.0036464604 0.0036931024
-0.0038970509 0.0038669712 -0.0036799638 -0.0036743786 0.0019983207 -0.0036721174 -0.0035192184 -0.0034610077
0.0038611675 0.0039097858 0.0034511113 0.003921663 -0.003916095 0.003955356 -0.0038948813 0.00392814
0.003563772 -0.0035004853 0.0035913344 0.0039112587 0.0039068516 -0.0013871815 0.0037327812 0.003896125
0.0034971803 0.0037109142 0.0032474634 0.0036227214 -0.0037493093 0.0035996202 0.003695568 -0.0039469465

arith.constant2 f4 [32]
00000000: cc5c 71bb 4fa6 633b 0000 0000 0000 0000
00000010: 5373 6f3b 0000 0000 e23c 713b 5c1e 663b
00000020: 23aa 71bb 92ba 6ebb fe1d 6bbb 73b1 6e3b
00000030: bd33 80bb f202 6ebb 18f0 96ba 91c0 6d3b
00000040: b3c2 813b 9798 653b 0000 0000 2fe2 6cbb
00000050: 2fc0 78bb e81c 703b 0000 0000 dc43 7bbb
00000060: 3150 803b 06cc 63bb c84a 713b c573 71bb
00000070: 1496 703b ea4c 803b acc6 803b 5191 71bb
-0.0036828993 0.0034736579 0.0 0.0 0.0036537244 0.0 0.003680997 0.003511331
-0.003687509 -0.0036427123 -0.003587603 0.0036421686 -0.0039124177 -0.0036317674 -0.0011515645 0.0036278109
0.0039599775 0.0035033578 0.0 -0.0036145558 -0.0037956347 0.0036638323 0.0 -0.0038340008
0.0039158096 -0.0034759059 0.0036818255 -0.0036842686 0.0036710547 0.003915419 0.0039299335 -0.0036860297

arith.constant3 f4 [1, 5]
00000000: 3f64 b644 d1f8 c644 0000 0000 0000 0000
00000010: 0000 0000
1459.1327 1591.7755 0.0 0.0 0.0

arith.constant4 f4 [1, 5]
00000000: d243 043a 4cd2 eb39 8096 184b 8096 184b
00000010: 8096 184b
0.00050455064 0.00044979376 1e+07 1e+07 1e+07

arith.constant5 f4 [64, 5]
00000000: 4a7a ecbc 9b0f 83bd 80e2 633b 383d b53d
00000010: 53f7 52be 6057 48be 4d06 3b3e 4007 813b
00000020: e03a af3d 3627 8bbe 0572 08be cb8c ec3d
00000030: 6c98 0d3e 701b 6a3e c657 2d3e f929 923d
00000040: 4350 843e 0abf 8dbe 7505 29be 520e a5bd
00000050: a973 463e 0ba6 563e 4024 bdbc 2ac8 823e
00000060: 9c91 6c3e beda f53a 995e 803e 0ef9 3fbe
00000070: 814c 7fbe f006 36be 61d0 81bd 33a7 94be
00000080: 1cf7 b53d a800 673e 9e9b 313e 45d3 283e
00000090: 0f59 73bd 4086 743d e825 893d bbb5 1ebe
000000a0: e9fd 36be a7de b43d 6847 903e 6063 683e
000000b0: b832 913e 85f3 603e fcb9 52bc 4c10 74bd
000000c0: 880e 7c3e 00d0 1e3c 4879 43be ab6c 5e3e
000000d0: 64ce 013e 381b 143d cee0 903e 2cd7 b9bd
000000e0: 7322 983d 0165 6abe e820 653e 4001 c83d
000000f0: 7cae 2b3e 5f7c 67be 4271 4fbe b0c7 d73c
00000100: 7024 383d de6d 0dbe 1abb 3cbe 281d 34bd
00000110: a682 30be 3801 20bd e942 8e3e 86df 20be
00000120: a2ed 813e 0cd0 febd c09c 12be 3fc9 483e
00000130: e0a6 11be 586f 323e a060 32bd 38a7 383e
00000140: 9f34 86be a814 a23c 6da5 05be 5c51 95bd
00000150: 60e6 26bc a578 14be 03d3 143e c27e 43be
00000160: feb8 b5bd 5251 3f3e 1854 1fb9 1bfd 963d
00000170: 3896 11bd 1e0d 7bbe 92f3 813e c97b 27be
00000180: b798 7b3e 5eb3 94be b0e7 4fbe 8278 51be
00000190: 9e89 8d3e 559a 36be c278 81be 807e 213b
000001a0: 30b3 f43d ffb1 76bd b6e3 853e 08c2 6d3e
000001b0: 8c88 de3d 2c03 843e 2eca 8ebd 8790 8dbe
000001c0: 0ab5 173e 2e4a 213e f826 153e 44bb 3e3d
000001d0: 09c6 303e 5498 173e b8a8 273e 4cf2 43be
000001e0: 57c6 8ebe 8112 0b3e 7cd5 193e 402f 26be
000001f0: 2036 28bd 558c 813e 5a1e e3bc c665 b2bd
00000200: 98fd 5d3d 2d6c 07be 9524 063e 3416 eabd
00000210: 92ae 333e a0d8 05bc f05d 073d 28b8 15be
00000220: eeef d8bd 2cc0 8f3e 72de 433e 66b0 cabd
00000230: a840 bf3c f3fa 14bc a0f0 52bc 80af e23b
00000240: 845a a53d ff5b 90bd a97c 54be 676a 2dbe
00000250: f03a 13be 4e6c 8e3e 5981 55be 76ce c73d
00000260: 90e1 fe3c bc14 53bd fa51 813e 0335 2ebe
00000270: 7636 243e 54bf af3d f4d4 b0bd 8084 993c
00000280: 53a3 2fbc 03e1 93be 28b5 79bd 34ac 903e
00000290: 549e 103e 84ba 85be b6b4 603e beed f8bd
000002a0: 5e95 82be c048 d1bb b616 c0bb 60a2 9f3d
000002b0: d0c7 e73c 60d8 45bd 9471 8abd 46d2 0e3e
000002c0: 336d 9fbd 6411 5e3e 6886 f13d 44f2 7a3e
000002d0: 280f d43c 4cde 7d3e c2d8 46be 800c a03c
000002e0: 2b45 3dbe 0f6e 703e cf8b 663e 64f8 48bd
000002f0: 9c72 f3bd 5017 c13d aa8f 943e fd72 823e
00000300: 5089 683e e41f fc3d a57b 18be 7f8a 613d
00000310: d365 843e 22ec 3cbe 3276 08be 9eec 0b3e
00000320: 20cc 72bd 1eed 70be 40f9 623e ec40 923e
00000330: 843f 703e 6a39 86be 21e1 d9bc d090 cebc
00000340: 10e2 013d fefe f7bd 2959 4fbe 2e13 50be
00000350: f0f1 843e 0a97 8f3e cde0 49be 071a 80be
00000360: fe3e 1e3e 204b a8bd 043f 663e 1259 8e3e
00000370: a235 43be 6e62 1d3e 6095 31bd f063 063e
00000380: 324a 013e e74f 81be 5118 a43d 0941 1dbe
00000390: a835 66be 3416 b13d fcb8 93bd ee28 b0bc
000003a0: a66c 0c3e d8af 4fbe 625c 65be a911 073e
000003b0: 682d 96be fc2a f4bd b05e 6a3d 10c4 27bd
000003c0: 3949 083e 93c1 3d3e c8ce 4c3e 548f 72bd
000003d0: b084 983d 37db 7c3e 399f 443e 000b a43b
000003e0: aa3d 953e a055 6cbd d17b 103e ff8e 763e
000003f0: 2a45 50be 6ef2 953e 74b0 f43d cc16 3dbe
-0.028866906 -0.06399461 0.0034772456 0.08849567 -0.20602159 -0.19564581 0.18264122 0.003937632
0.085561514 -0.27178353 -0.13324745 0.11550292 0.13827676 0.22862029 0.16928014 0.07136912
0.25842485 -0.27684814 -0.16505988 -0.08059372 0.19380058 0.20961778 -0.023088574 0.25543338
0.2310242 0.0018757207 0.25072172 -0.1874735 -0.24931528 -0.17776084 -0.06338573 -0.29033813
0.08885023 0.22558844 0.1734452 0.16486843 -0.059411105 0.059698343 0.06696683 -0.15499012
-0.17870297 0.0883153 0.2817948 0.22694159 0.28359008 0.21967895 -0.012861725 -0.059585854
0.24614918 0.009693146 -0.19089234 0.21721141 0.12676388 0.03615877 0.28296512 -0.09074244
0.07428446 -0.22890092 0.22375834 0.097658634 0.1676578 -0.22606038 -0.20258048 0.026340336
0.044956625 -0.13811442 -0.18430749 -0.043973118 -0.17237338 -0.039063662 0.27785423 -0.15710267
0.25376612 -0.124420255 -0.14317608 0.1960802 -0.14223814 0.17425287 -0.04354918 0.18032539
-0.26212022 0.01978524 -0.13051386 -0.07290909 -0.010186762 -0.14499147 0.1453362 -0.19091323
-0.08873175 0.18683365 -0.00015194749 0.07372495 -0.03554365 -0.24516723 0.25381142 -0.16355814
0.24569975 -0.29043096 -0.20303226 -0.20456126 0.27644056 -0.1783231 -0.25287443 0.002464205
0.1194824 -0.060228344 0.26150292 0.23218548 0.10865888 0.2578367 -0.069721565 -0.27649328
0.14815155 0.15750954 0.14565647 0.04656531 0.17263044 0.14804202 0.16372955 -0.19135398
-0.27885696 0.13581277 0.15022844 -0.16228962 -0.041067243 0.25302377 -0.027724434 -0.08710818
0.054196924 -0.1322486 0.13099892 -0.11430016 0.17547062 -0.008169323 0.03304857 -0.14621031
-0.10592638 0.28076303 0.19127825 -0.098969266 0.02334626 -0.009093034 -0.012874752 0.006917894
0.08073905 -0.07048797 -0.20750679 -0.1693512 -0.14377952 0.27817005 -0.20850123 0.09756176
0.031113416 -0.051533446 0.25257856 -0.1701241 0.160364 0.08581415 -0.086343676 0.018739939
-0.010720092 -0.28882608 -0.06096378 0.2825638 0.14122897 -0.26118863 0.21943936 -0.12154721
-0.25504583 -0.0063868463 -0.0058620824 0.077946424 0.02829352 -0.048302054 -0.067599446 0.139474
-0.077845 0.21686321 0.11793214 0.2450648 0.025886133 0.24791831 -0.19418624 0.01953721
-0.18483417 0.23479484 0.2251427 -0.04906501 -0.118870944 0.09428275 0.29015857 0.25478354
0.2270863 0.1231077 -0.14890917 0.05506372 0.25858936 -0.18449453 -0.13326338 0.13664481
-0.0592767 -0.23527953 0.22165394 0.28565156 0.2346173 -0.26215678 -0.026596608 -0.025215536
0.03170973 -0.12109183 -0.20248856 -0.20319816 0.25965834 0.2804492 -0.19714661 -0.25019857
0.15453717 -0.08217454 0.22484976 0.2780233 -0.19063428 0.15369579 -0.043355346 0.1312406
0.1262596 -0.25256273 0.080124505 -0.1535684 -0.22481406 0.08646813 -0.07213017 -0.021503892
0.13713321 -0.20281923 -0.22398522 0.1319033 -0.29331517 -0.11922261 0.057219207 -0.040958464
0.13309182 0.18530874 0.20000756 -0.05921872 0.07447183 0.24692999 0.19201364 0.005006194
0.29148608 -0.057698846 0.14109732 0.24077986 -0.20338884 0.29286522 0.11947718 -0.18465728

arith.constant6 f4 [2, 32]
00000000: dd4d 763d 2dea d03e 733f 91be 3666 abbe
00000010: 5efa 883e 102f ae3c c66b 6ebe 2ed2 c13e
00000020: 8783 5a3d 02bc 333d d48f b13e 3024 a6be
00000030: c37e 3abe 42b1 a73d 529c 713e 2ad0 babb
00000040: 5a5f a83e 7049 73be f980 b63e 0163 cc3c
00000050: 7ec4 acbe 9e51 4fbe 862c 31be 0eac d3be
00000060: b664 07bd b7e8 82be 4d75 c4be b69b 16be
00000070: b531 c8be b311 3d3e 618f 64bc 1d26 9d3e
00000080: 36fc 7dbe 6569 c23e 1488 46be dc47 a3be
00000090: 88c8 d13e f226 453e c1db 263d f62e 41be
000000a0: 9937 003d 1260 c2be 0fa0 a5be 0cef cb3e
000000b0: 8825 763e 40ff c9be d51a 923e 2b79 d93d
000000c0: 782e 503e ed45 a5be 5b62 91be 30f8 99bd
000000d0: a4e7 903e f0dc f2bd b6e2 abbe 5c97 c93e
000000e0: 0c82 d3be ea42 21ba ec80 ae3e 7d65 6ebe
000000f0: a10a b4be fdd3 9cbe 4ff1 58bd a5e3 893e
0.06013285 0.40803662 -0.2836872 -0.33476418 0.26753515 0.021262676 -0.232833 0.37855667
0.05334809 0.04388047 0.34680045 -0.32449484 -0.18212418 0.08188106 0.23594788 -0.0057010846
0.32885247 -0.23758483 0.35645273 0.024949552 -0.33743662 -0.20245978 -0.1730214 -0.41342205
-0.03305503 -0.25568172 -0.38370743 -0.14707837 -0.39100423 0.18463783 -0.0139502 0.3069314
-0.24803242 0.37971035 -0.19387847 -0.31890762 0.40973306 0.19253138 0.040736917 -0.1886557
0.031303022 -0.3796392 -0.32348678 0.39830816 0.24037755 -0.39452553 0.28536096 0.10618814
0.20330226 -0.32279912 -0.28395352 -0.07518041 0.28301728 -0.11858547 -0.33571404 0.3937329
-0.41310155 -0.00061516336 0.34082735 -0.23280902 -0.3516436 -0.30630484 -0.052964505 0.26931491

tfl.pseudo_qconst i1 [32, 64]
00000000: 0361 265b c674 d375 539f 5924 331b 862d
00000010: acef 0fbe 93a8 df81 21e4 bb32 bd91 77da
00000020: 9731 3058 eb70 dffa d6d5 c429 88a5 93e7
00000030: 6243 e6d2 e623 90ab d4b8 6970 e270 c879
00000040: 9fe6 d425 025c 616f 1f62 5f60 f179 f6c0
00000050: f426 5a12 1c63 76cc 1a6b 35de bba0 7540
00000060: ec7f 3826 cb1a 0b9b 7a94 9af2 d8e3 a3b8
00000070: 145d c72a 77f6 0c3b 4290 c646 4d39 b4cd
00000080: 03bf f317 cae8 8e15 0dd2 d169 e2e9 9fdf
00000090: 8c17 df71 f297 a16d 0dcf 33eb 1ad9 a289
000000a0: dcd1 d76a 9a52 71a3 b7bf c4ac 4136 4986
000000b0: 30cd a491 048c 8134 066a 9622 63af 687e
000000c0: 1203 b952 0765 fbd9 d589 56aa b4a2 fb67
000000d0: 2061 5793 4eb4 8f25 f5c6 abba 5230 bb92
000000e0: b42d 2cad 94b7 8c2a a1c9 7b1c e53c aeef
000000f0: d316 3433 ca9e 36ee fd18 c148 81fb f432
3 97 38 91 -58 116 -45 117
83 -97 89 36 51 27 -122 45
-84 -17 15 -66 -109 -88 -33 -127
33 -28 -69 50 -67 -111 119 -38
-105 49 48 88 -21 112 -33 -6
-42 -43 -60 41 -120 -91 -109 -25
98 67 -26 -46 -26 35 -112 -85
-44 -72 105 112 -30 112 -56 121
-97 -26 -44 37 2 92 97 111
31 98 95 96 -15 121 -10 -64
-12 38 90 18 28 99 118 -52
26 107 53 -34 -69 -96 117 64
-20 127 56 38 -53 26 11 -101
122 -108 -102 -14 -40 -29 -93 -72
20 93 -57 42 119 -10 12 59
66 -112 -58 70 77 57 -76 -51
3 -65 -13 23 -54 -24 -114 21
13 -46 -47 105 -30 -23 -97 -33
-116 23 -33 113 -14 -105 -95 109
13 -49 51 -21 26 -39 -94 -119
-36 -47 -41 106 -102 82 113 -93
-73 -65 -60 -84 65 54 73 -122
48 -51 -92 -111 4 -116 -127 52
6 106 -106 34 99 -81 104 126
18 3 -71 82 7 101 -5 -39
-43 -119 86 -86 -76 -94 -5 103
32 97 87 -109 78 -76 -113 37
-11 -58 -85 -70 82 48 -69 -110
-76 45 44 -83 -108 -73 -116 42
-95 -55 123 28 -27 60 -82 -17
-45 22 52 51 -54 -98 54 -18
-3 24 -63 72 -127 -5 -12 50
