tensorflow/model.tflite (tflite, 12812 bytes, 8 tensors)

arith.constant f4 [2, 32]
0	0x3d764ddd	0.06013285
1	0x3ed0ea2d	0.40803662
2	0xbe913f73	-0.2836872
3	0xbeab6636	-0.33476418
4	0x3e88fa5e	0.26753515
5	0x3cae2f10	0.021262676
6	0xbe6e6bc6	-0.232833
7	0x3ec1d22e	0.37855667
8	0x3d5a8387	0.05334809
9	0x3d33bc02	0.04388047
10	0x3eb18fd4	0.34680045
11	0xbea62430	-0.32449484
12	0xbe3a7ec3	-0.18212418
13	0x3da7b142	0.08188106
14	0x3e719c52	0.23594788
15	0xbbbad02a	-0.0057010846
16	0x3ea85f5a	0.32885247
17	0xbe734970	-0.23758483
18	0x3eb680f9	0.35645273
19	0x3ccc6301	0.024949552
20	0xbeacc47e	-0.33743662
21	0xbe4f519e	-0.20245978
22	0xbe312c86	-0.1730214
23	0xbed3ac0e	-0.41342205
24	0xbd0764b6	-0.03305503
25	0xbe82e8b7	-0.25568172
26	0xbec4754d	-0.38370743
27	0xbe169bb6	-0.14707837
28	0xbec831b5	-0.39100423
29	0x3e3d11b3	0.18463783
30	0xbc648f61	-0.0139502
31	0x3e9d261d	0.3069314
32	0xbe7dfc36	-0.24803242
33	0x3ec26965	0.37971035
34	0xbe468814	-0.19387847
35	0xbea347dc	-0.31890762
36	0x3ed1c888	0.40973306
37	0x3e4526f2	0.19253138
38	0x3d26dbc1	0.040736917
39	0xbe412ef6	-0.1886557
40	0x3d003799	0.031303022
41	0xbec26012	-0.3796392
42	0xbea5a00f	-0.32348678
43	0x3ecbef0c	0.39830816
44	0x3e762588	0.24037755
45	0xbec9ff40	-0.39452553
46	0x3e921ad5	0.28536096
47	0x3dd9792b	0.10618814
48	0x3e502e78	0.20330226
49	0xbea545ed	-0.32279912
50	0xbe91625b	-0.28395352
51	0xbd99f830	-0.07518041
52	0x3e90e7a4	0.28301728
53	0xbdf2dcf0	-0.11858547
54	0xbeabe2b6	-0.33571404
55	0x3ec9975c	0.3937329
56	0xbed3820c	-0.41310155
57	0xba2142ea	-0.00061516336
58	0x3eae80ec	0.34082735
59	0xbe6e657d	-0.23280902
60	0xbeb40aa1	-0.3516436
61	0xbe9cd3fd	-0.30630484
62	0xbd58f14f	-0.052964505
63	0x3e89e3a5	0.26931491

arith.constant1 f4 [32, 64]
0	0x3bd90080	0.006622374
1	0x3e459752	0.19296005
2	0x3d99ff86	0.0751944
3	0x3e37fff7	0.17968737
4	0xbdebe870	-0.11518943
5	0x3e6ace1e	0.2293019
6	0xbdb6eff8	-0.08932489
7	0x3e6d928e	0.23200437
8	0x3e28133b	0.16413586
9	0xbe4448fa	-0.19168463
10	0x3e34d9fb	0.17661278
11	0x3d93676f	0.07197463
12	0x3dce6cc6	0.10079341
13	0x3d5cac20	0.05387509
14	0xbe768de4	-0.24077564
15	0x3db5a3f0	0.08869159
16	0xbe2a8248	-0.16651261
17	0xbd083f8c	-0.033263728
18	0x3cf16ecd	0.02947178
19	0xbe066e0e	-0.1312792
20	0xbe5d4dde	-0.21611735
21	0xbe31bb2c	-0.17356557
22	0xbd83d4f8	-0.06437105
23	0xbe80bac5	-0.25142494
24	0x3d848f44	0.06472638
25	0xbd64f3c8	-0.05589655
26	0xbe0b48a0	-0.13601923
27	0x3dcbbb58	0.09947842
28	0xbe07bb85	-0.13255127
29	0xbe60e2e8	-0.21961558
30	0x3e7079ff	0.23484038
31	0xbd99e62d	-0.07514606
32	0xbe5536a4	-0.20821625
33	0x3dc61dec	0.09673676
34	0x3dc2c6d8	0.09510583
35	0x3e3269ef	0.17423223
36	0xbd26fecb	-0.040770333
37	0x3e62f067	0.22162019
38	0xbd855e1f	-0.06512093
39	0xbc3fe26d	-0.011711699
40	0xbda9ce40	-0.08291292
41	0xbdae8608	-0.08521658
42	0xbdf36ba8	-0.11885768
43	0x3da54051	0.08068908
44	0xbe732581	-0.23744775
45	0xbe38ffe4	-0.18066365
46	0xbe5d8dcc	-0.21636122
47	0xbd46c7c0	-0.04853034
48	0x3e46a5f2	0.1939924
49	0x3e06e3a4	0.13172776
50	0xbd55d719	-0.052207086
51	0xbdb9ecfb	-0.090784036
52	0xbd510780	-0.051032543
53	0x3d8ca71c	0.06867811
54	0xbe62d7cd	-0.22152634
55	0xbe2c488c	-0.1682455
56	0xbdb0cdfc	-0.086330384
57	0xbe12c57c	-0.14333147
58	0x3e559248	0.20856583
59	0x3e6259c8	0.22104561
60	0xbd7148f0	-0.05890745
61	0x3e622104	0.22082907
62	0xbde2032a	-0.1103576
63	0x3e754b74	0.23954564
64	0xbe452d85	-0.19255646
65	0xbd579016	-0.052627645
66	0xbdb47188	-0.08810717
67	0x3d9878f0	0.07444942
68	0x3b8bafde	0.0042629084
69	0x3e3bb242	0.18329719
70	0x3e46bca1	0.19407894
71	0x3e630482	0.22169688
72	0x3d7e1086	0.062027477
73	0x3e4864f9	0.19569768
74	0x3e420566	0.18947372
75	0x3e43a616	0.19106326
76	0xbcf48ac6	-0.029851329
77	0x3e77207d	0.24133487
78	0xbcaa921a	-0.02082162
79	0xbe033b01	-0.12815477
80	0xbcc20afb	-0.023686877
81	0x3d9bd725	0.07609395
82	0x3e373e3a	0.17894831
83	0x3d1048d6	0.03522571
84	0x3d64798d	0.055779982
85	0x3e492bf2	0.1964567
86	0x3e7191cb	0.23590772
87	0xbdd45e38	-0.10369533
88	0x3d565e09	0.052335773
89	0x3e5a5961	0.21323158
90	0x3dd74bf3	0.10512533
91	0xbd8b33c7	-0.06796985
92	0xbe0c09dc	-0.13675636
93	0xbe4372d2	-0.19086769
94	0x3e6e00b5	0.23242457
95	0x3e02ad0d	0.12761326
96	0xbd241f1c	-0.04006873
97	0x3e81a8e5	0.2532417
98	0x3de34f25	0.1109908
99	0x3d9b915c	0.075960845
100	0xbdd6da0d	-0.10490809
101	0x3d53ebc1	0.051738504
102	0x3cb74c68	0.0223753
103	0xbe4e21f0	-0.20130134
104	0x3e788c88	0.24272358
105	0xbe5ba955	-0.21451314
106	0xbe5103cb	-0.20411603
107	0xbce84614	-0.028353728
108	0xbda4abac	-0.08040556
109	0xbd6b8577	-0.05750033
110	0xbe3d9176	-0.1851252
111	0xbe128833	-0.14309768
112	0x3d2134b9	0.03935692
113	0x3e3d7e71	0.18505265
114	0xbde7a09d	-0.113099314
115	0x3dac52f6	0.08414261
116	0x3e738baa	0.23783746
117	0xbc9d0fa6	-0.0191725
118	0x3cc9a2ab	0.024613699
119	0x3df2bc4c	0.11852321
120	0x3e077805	0.13229378
121	0xbe645ff4	-0.22302228
122	0xbdeecf25	-0.116606034
123	0x3e0e791b	0.13913386
124	0x3e1e1eeb	0.15441482
125	0x3dea6cdd	0.11446545
126	0xbe1bf0a5	-0.15228517
127	0xbdd060e7	-0.10174733
128	0x3bce0480	0.0062871575
129	0xbe01d71c	-0.12679714
130	0xbcd214a0	-0.0256446
131	0x3d370a30	0.04468745
132	0xbdd678e0	-0.10472274
133	0xbd3fba30	-0.04680842
134	0xbe636b70	-0.22208953
135	0x3d25d0d0	0.040482342
136	0x3ccb0340	0.024781823
137	0xbdb6a010	-0.08917248
138	0xbdb9f2f8	-0.09079546
139	0x3e513a04	0.20432287
140	0xbd6ecb30	-0.058299243
141	0xbd3a1ed0	-0.04543954
142	0xbe40d844	-0.18832499
143	0xbd820da0	-0.06350255
144	0xbe66bf38	-0.22533882
145	0x3d3496f0	0.044089258
146	0xbd82db10	-0.06389439
147	0x3e6094bc	0.21931738
148	0xbcdbf920	-0.02685219
149	0xbe51261c	-0.20424694
150	0xbe3dbc24	-0.18528801
151	0x3e593384	0.21211058
152	0x3cd10b20	0.025518
153	0xbdc25250	-0.09488356
154	0x3dcb5d38	0.099298894
155	0xbd2b2b80	-0.04178953
156	0x3d4eb460	0.050464988
157	0xbd9a8a00	-0.07545853
158	0xbe3ae940	-0.1825304
159	0xbe6e0370	-0.23243499
160	0xbd8f00b0	-0.06982553
161	0xbdba67d0	-0.09101832
162	0xbda442a0	-0.0802052
163	0x3e52ce84	0.20586592
164	0xbe4b3db0	-0.1984775
165	0x3e23cfc8	0.15997231
166	0x3e60a3c0	0.21937466
167	0xbe39c810	-0.18142724
168	0xbe11b4f0	-0.14229178
169	0xbe02614c	-0.12732428
170	0xbdeecdb8	-0.116603315
171	0xbe271184	-0.16315275
172	0x3e0153c0	0.12629604
173	0x3dd8cfb8	0.10586494
174	0x3e11fb98	0.14256132
175	0xbe7416d4	-0.23836833
176	0x3dc085a0	0.09400487
177	0xbdcb1618	-0.099163234
178	0xbe3744b8	-0.17897308
179	0xbe5e6488	-0.21718037
180	0x3c01dd40	0.007926285
181	0xbe6727ac	-0.22573727
182	0xbe7d6900	-0.24747086
183	0x3dd062c0	0.10175085
184	0x3c473680	0.01215899
185	0x3e52a630	0.20571208
186	0xbe5480b8	-0.20752227
187	0x3d868e40	0.06570101
188	0x3e45ae60	0.193048
189	0xbe22189c	-0.158297
190	0x3e503560	0.20332861
191	0x3e7ab950	0.24484754
192	0x3d098cd0	0.033581555
193	0x3bb41000	0.0054950714
194	0xbe0bbbf0	-0.13645911
195	0x3e208c6c	0.15678567
196	0x3c51aa00	0.012796879
197	0x3e44f0b4	0.19232446
198	0xbc26fd40	-0.010192215
199	0xbd9712d8	-0.07376641
200	0xbda9df60	-0.082945585
201	0xbe687058	-0.22699106
202	0x3e28d2ac	0.16486615
203	0xbe278578	-0.16359508
204	0xbe147e80	-0.14501381
205	0xbe3916b0	-0.18075061
206	0xbc0f0680	-0.008729577
207	0x3e4a6b14	0.1976741
208	0x3d785ff0	0.060638368
209	0x3e3e7fdc	0.18603462
210	0x3e2b5bec	0.16734284
211	0xbe557be8	-0.20848048
212	0x3e196930	0.14981532
213	0xbe14f954	-0.14548236
214	0xbe5dce14	-0.21660644
215	0x3d914b38	0.07094425
216	0xbcb383e0	-0.021913469
217	0xbde43040	-0.111420155
218	0xbe2689f0	-0.16263556
219	0xbe097b64	-0.13425976
220	0x3e200834	0.15628129
221	0x3dba2480	0.09088993
222	0xbe07b034	-0.1325081
223	0xbe573b88	-0.21018803
224	0xbe156350	-0.14588666
225	0x3db13a30	0.086536765
226	0x3dac9298	0.08426398
227	0xbe236c50	-0.15959287
228	0xbe5396f0	-0.20663047
229	0xbe0e752c	-0.13911885
230	0xbe634610	-0.22194695
231	0x3da65a78	0.08122724
232	0xbe394674	-0.18093282
233	0xbdd94010	-0.10607922
234	0x3e70aa64	0.23502499
235	0x3d5b80a0	0.053589463
236	0xbd53ee50	-0.051740944
237	0x3dea9d98	0.1145584
238	0xbe20b0fc	-0.15692514
239	0xbd032130	-0.032014072
240	0xbdb1e208	-0.0868569
241	0x3d28bd40	0.041196108
242	0x3dcaab58	0.098959625
243	0x3dc6e388	0.09711367
244	0xbdd2abe0	-0.10286689
245	0xbe407094	-0.18792945
246	0x3dd46b48	0.10372025
247	0xbd108280	-0.035280704
248	0xbbb30f00	-0.0054644346
249	0x3d3d3600	0.046194077
250	0xbdf76448	-0.12079674
251	0x3e0c92f4	0.13727933
252	0xbe78bfc4	-0.24291903
253	0xbc182480	-0.009286046
254	0xbcbf2f40	-0.02333796
255	0x3dc2cf80	0.09512234

arith.constant2 f4 [64, 5]
0	0xbcec7a4a	-0.028866906
1	0xbd830f9b	-0.06399461
2	0x3b63e280	0.0034772456
3	0x3db53d38	0.08849567
4	0xbe52f753	-0.20602159
5	0xbe485760	-0.19564581
6	0x3e3b064d	0.18264122
7	0x3b810740	0.003937632
8	0x3daf3ae0	0.085561514
9	0xbe8b2736	-0.27178353
10	0xbe087205	-0.13324745
11	0x3dec8ccb	0.11550292
12	0x3e0d986c	0.13827676
13	0x3e6a1b70	0.22862029
14	0x3e2d57c6	0.16928014
15	0x3d9229f9	0.07136912
16	0x3e845043	0.25842485
17	0xbe8dbf0a	-0.27684814
18	0xbe290575	-0.16505988
19	0xbda50e52	-0.08059372
20	0x3e4673a9	0.19380058
21	0x3e56a60b	0.20961778
22	0xbcbd2440	-0.023088574
23	0x3e82c82a	0.25543338
24	0x3e6c919c	0.2310242
25	0x3af5dabe	0.0018757207
26	0x3e805e99	0.25072172
27	0xbe3ff90e	-0.1874735
28	0xbe7f4c81	-0.24931528
29	0xbe3606f0	-0.17776084
30	0xbd81d061	-0.06338573
31	0xbe94a733	-0.29033813
32	0x3db5f71c	0.08885023
33	0x3e6700a8	0.22558844
34	0x3e319b9e	0.1734452
35	0x3e28d345	0.16486843
36	0xbd73590f	-0.059411105
37	0x3d748640	0.059698343
38	0x3d8925e8	0.06696683
39	0xbe1eb5bb	-0.15499012
40	0xbe36fde9	-0.17870297
41	0x3db4dea7	0.0883153
42	0x3e904768	0.2817948
43	0x3e686360	0.22694159
44	0x3e9132b8	0.28359008
45	0x3e60f385	0.21967895
46	0xbc52b9fc	-0.012861725
47	0xbd74104c	-0.059585854
48	0x3e7c0e88	0.24614918
49	0x3c1ed000	0.009693146
50	0xbe437948	-0.19089234
51	0x3e5e6cab	0.21721141
52	0x3e01ce64	0.12676388
53	0x3d141b38	0.03615877
54	0x3e90e0ce	0.28296512
55	0xbdb9d72c	-0.09074244
56	0x3d982273	0.07428446
57	0xbe6a6501	-0.22890092
58	0x3e6520e8	0.22375834
59	0x3dc80140	0.097658634
60	0x3e2bae7c	0.1676578
61	0xbe677c5f	-0.22606038
62	0xbe4f7142	-0.20258048
63	0x3cd7c7b0	0.026340336
64	0x3d382470	0.044956625
65	0xbe0d6dde	-0.13811442
66	0xbe3cbb1a	-0.18430749
67	0xbd341d28	-0.043973118
68	0xbe3082a6	-0.17237338
69	0xbd200138	-0.039063662
70	0x3e8e42e9	0.27785423
71	0xbe20df86	-0.15710267
72	0x3e81eda2	0.25376612
73	0xbdfed00c	-0.124420255
74	0xbe129cc0	-0.14317608
75	0x3e48c93f	0.1960802
76	0xbe11a6e0	-0.14223814
77	0x3e326f58	0.17425287
78	0xbd3260a0	-0.04354918
79	0x3e38a738	0.18032539
80	0xbe86349f	-0.26212022
81	0x3ca214a8	0.01978524
82	0xbe05a56d	-0.13051386
83	0xbd95515c	-0.07290909
84	0xbc26e660	-0.010186762
85	0xbe1478a5	-0.14499147
86	0x3e14d303	0.1453362
87	0xbe437ec2	-0.19091323
88	0xbdb5b8fe	-0.08873175
89	0x3e3f5152	0.18683365
90	0xb91f5418	-0.00015194749
91	0x3d96fd1b	0.07372495
92	0xbd119638	-0.03554365
93	0xbe7b0d1e	-0.24516723
94	0x3e81f392	0.25381142
95	0xbe277bc9	-0.16355814
96	0x3e7b98b7	0.24569975
97	0xbe94b35e	-0.29043096
98	0xbe4fe7b0	-0.20303226
99	0xbe517882	-0.20456126
100	0x3e8d899e	0.27644056
101	0xbe369a55	-0.1783231
102	0xbe8178c2	-0.25287443
103	0x3b217e80	0.002464205
104	0x3df4b330	0.1194824
105	0xbd76b1ff	-0.060228344
106	0x3e85e3b6	0.26150292
107	0x3e6dc208	0.23218548
108	0x3dde888c	0.10865888
109	0x3e84032c	0.2578367
110	0xbd8eca2e	-0.069721565
111	0xbe8d9087	-0.27649328
112	0x3e17b50a	0.14815155
113	0x3e214a2e	0.15750954
114	0x3e1526f8	0.14565647
115	0x3d3ebb44	0.04656531
116	0x3e30c609	0.17263044
117	0x3e179854	0.14804202
118	0x3e27a8b8	0.16372955
119	0xbe43f24c	-0.19135398
120	0xbe8ec657	-0.27885696
121	0x3e0b1281	0.13581277
122	0x3e19d57c	0.15022844
123	0xbe262f40	-0.16228962
124	0xbd283620	-0.041067243
125	0x3e818c55	0.25302377
126	0xbce31e5a	-0.027724434
127	0xbdb265c6	-0.08710818
128	0x3d5dfd98	0.054196924
129	0xbe076c2d	-0.1322486
130	0x3e062495	0.13099892
131	0xbdea1634	-0.11430016
132	0x3e33ae92	0.17547062
133	0xbc05d8a0	-0.008169323
134	0x3d075df0	0.03304857
135	0xbe15b828	-0.14621031
136	0xbdd8efee	-0.10592638
137	0x3e8fc02c	0.28076303
138	0x3e43de72	0.19127825
139	0xbdcab066	-0.098969266
140	0x3cbf40a8	0.02334626
141	0xbc14faf3	-0.009093034
142	0xbc52f0a0	-0.012874752
143	0x3be2af80	0.006917894
144	0x3da55a84	0.08073905
145	0xbd905bff	-0.07048797
146	0xbe547ca9	-0.20750679
147	0xbe2d6a67	-0.1693512
148	0xbe133af0	-0.14377952
149	0x3e8e6c4e	0.27817005
150	0xbe558159	-0.20850123
151	0x3dc7ce76	0.09756176
152	0x3cfee190	0.031113416
153	0xbd5314bc	-0.051533446
154	0x3e8151fa	0.25257856
155	0xbe2e3503	-0.1701241
156	0x3e243676	0.160364
157	0x3dafbf54	0.08581415
158	0xbdb0d4f4	-0.086343676
159	0x3c998480	0.018739939
160	0xbc2fa353	-0.010720092
161	0xbe93e103	-0.28882608
162	0xbd79b528	-0.06096378
163	0x3e90ac34	0.2825638
164	0x3e109e54	0.14122897
165	0xbe85ba84	-0.26118863
166	0x3e60b4b6	0.21943936
167	0xbdf8edbe	-0.12154721
168	0xbe82955e	-0.25504583
169	0xbbd148c0	-0.0063868463
170	0xbbc016b6	-0.0058620824
171	0x3d9fa260	0.077946424
172	0x3ce7c7d0	0.02829352
173	0xbd45d860	-0.048302054
174	0xbd8a7194	-0.067599446
175	0x3e0ed246	0.139474
176	0xbd9f6d33	-0.077845
177	0x3e5e1164	0.21686321
178	0x3df18668	0.11793214
179	0x3e7af244	0.2450648
180	0x3cd40f28	0.025886133
181	0x3e7dde4c	0.24791831
182	0xbe46d8c2	-0.19418624
183	0x3ca00c80	0.01953721
184	0xbe3d452b	-0.18483417
185	0x3e706e0f	0.23479484
186	0x3e668bcf	0.2251427
187	0xbd48f864	-0.04906501
188	0xbdf3729c	-0.118870944
189	0x3dc11750	0.09428275
190	0x3e948faa	0.29015857
191	0x3e8272fd	0.25478354
192	0x3e688950	0.2270863
193	0x3dfc1fe4	0.1231077
194	0xbe187ba5	-0.14890917
195	0x3d618a7f	0.05506372
196	0x3e8465d3	0.25858936
197	0xbe3cec22	-0.18449453
198	0xbe087632	-0.13326338
199	0x3e0bec9e	0.13664481
200	0xbd72cc20	-0.0592767
201	0xbe70ed1e	-0.23527953
202	0x3e62f940	0.22165394
203	0x3e9240ec	0.28565156
204	0x3e703f84	0.2346173
205	0xbe86396a	-0.26215678
206	0xbcd9e121	-0.026596608
207	0xbcce90d0	-0.025215536
208	0x3d01e210	0.03170973
209	0xbdf7fefe	-0.12109183
210	0xbe4f5929	-0.20248856
211	0xbe50132e	-0.20319816
212	0x3e84f1f0	0.25965834
213	0x3e8f970a	0.2804492
214	0xbe49e0cd	-0.19714661
215	0xbe801a07	-0.25019857
216	0x3e1e3efe	0.15453717
217	0xbda84b20	-0.08217454
218	0x3e663f04	0.22484976
219	0x3e8e5912	0.2780233
220	0xbe4335a2	-0.19063428
221	0x3e1d626e	0.15369579
222	0xbd319560	-0.043355346
223	0x3e0663f0	0.1312406
224	0x3e014a32	0.1262596
225	0xbe814fe7	-0.25256273
226	0x3da41851	0.080124505
227	0xbe1d4109	-0.1535684
228	0xbe6635a8	-0.22481406
229	0x3db11634	0.08646813
230	0xbd93b8fc	-0.07213017
231	0xbcb028ee	-0.021503892
232	0x3e0c6ca6	0.13713321
233	0xbe4fafd8	-0.20281923
234	0xbe655c62	-0.22398522
235	0x3e0711a9	0.1319033
236	0xbe962d68	-0.29331517
237	0xbdf42afc	-0.11922261
238	0x3d6a5eb0	0.057219207
239	0xbd27c410	-0.040958464
240	0x3e084939	0.13309182
241	0x3e3dc193	0.18530874
242	0x3e4ccec8	0.20000756
243	0xbd728f54	-0.05921872
244	0x3d9884b0	0.07447183
245	0x3e7cdb37	0.24692999
246	0x3e449f39	0.19201364
247	0x3ba40b00	0.005006194
248	0x3e953daa	0.29148608
249	0xbd6c55a0	-0.057698846
250	0x3e107bd1	0.14109732
251	0x3e768eff	0.24077986
252	0xbe50452a	-0.20338884
253	0x3e95f26e	0.29286522
254	0x3df4b074	0.11947718
255	0xbe3d16cc	-0.18465728

arith.constant3 f4 [1, 5]
0	0x3a0443d2	0.00050455064
1	0x39ebd24c	0.00044979376
2	0x4b189680	1e+07
3	0x4b189680	1e+07
4	0x4b189680	1e+07

Const_1 f4 [1, 5]
0	0x44b6643f	1459.1327
1	0x44c6f8d1	1591.7755
2	0x00000000	0.0
3	0x00000000	0.0
4	0x00000000	0.0

sequential_1/dense_1_2/Add/ReadVariableOp f4 [32]
0	0xbb715ccc	-0.0036828993
1	0x3b63a64f	0.0034736579
2	0x00000000	0.0
3	0x00000000	0.0
4	0x3b6f7353	0.0036537244
5	0x00000000	0.0
6	0x3b713ce2	0.003680997
7	0x3b661e5c	0.003511331
8	0xbb71aa23	-0.003687509
9	0xbb6eba92	-0.0036427123
10	0xbb6b1dfe	-0.003587603
11	0x3b6eb173	0.0036421686
12	0xbb8033bd	-0.0039124177
13	0xbb6e02f2	-0.0036317674
14	0xba96f018	-0.0011515645
15	0x3b6dc091	0.0036278109
16	0x3b81c2b3	0.0039599775
17	0x3b659897	0.0035033578
18	0x00000000	0.0
19	0xbb6ce22f	-0.0036145558
20	0xbb78c02f	-0.0037956347
21	0x3b701ce8	0.0036638323
22	0x00000000	0.0
23	0xbb7b43dc	-0.0038340008
24	0x3b805031	0.0039158096
25	0xbb63cc06	-0.0034759059
26	0x3b714ac8	0.0036818255
27	0xbb7173c5	-0.0036842686
28	0x3b709614	0.0036710547
29	0x3b804cea	0.003915419
30	0x3b80c6ac	0.0039299335
31	0xbb719151	-0.0036860297

sequential_1/dense_1/Add/ReadVariableOp f4 [64]
0	0xbb8129ba	-0.003941742
1	0x3b7fc057	0.0039024556
2	0x3b45052b	0.0030062895
3	0xbb736846	-0.003714101
4	0x3b6f4040	0.0036506802
5	0xbb721866	-0.0036940812
6	0xbb81fceb	-0.0039669177
7	0xbb71d486	-0.0036900355
8	0x3b815960	0.003947422
9	0x3b72201c	0.0036945408
10	0xb9d3006e	-0.00040245376
11	0x3b823331	0.0039733876
12	0xbb7d9360	-0.0038692579
13	0xbb765750	-0.0037588663
14	0x3b711ae7	0.0036789717
15	0x3b7207f6	0.0036931015
16	0xbb7eaa20	-0.0038858727
17	0xbb81d3f6	-0.0039620353
18	0x3b6ac558	0.0035823192
19	0xbb6d4caa	-0.0036209025
20	0x3b5f66e9	0.003408844
21	0xbb504d78	-0.0031784456
22	0xbb7f4da9	-0.0038956201
23	0xbb70f6a2	-0.0036768098
24	0x3b7f9ccb	0.0039003368
25	0x3b66f444	0.0035240809
26	0x3b580cf6	0.003296671
27	0xbb7eccf4	-0.0038879486
28	0x3b6c7d24	0.0036085332
29	0xbb79d517	-0.0038121396
30	0xbb6ef974	-0.0036464604
31	0x3b7207fa	0.0036931024
32	0xbb7f65aa	-0.0038970509
33	0x3b7d6d03	0.0038669712
34	0xbb712b8c	-0.0036799638
35	0xbb70cdd8	-0.0036743786
36	0x3b02f642	0.0019983207
37	0xbb70a7e8	-0.0036721174
38	0xbb66a2b0	-0.0035192184
39	0xbb62d213	-0.0034610077
40	0x3b7d0ba4	0.0038611675
41	0x3b801da9	0.0039097858
42	0x3b622c0a	0.0034511113
43	0x3b80814b	0.003921663
44	0xbb805296	-0.003916095
45	0x3b819bee	0.003955356
46	0xbb7f4144	-0.0038948813
47	0x3b80b7a0	0.00392814
48	0x3b698e2c	0.003563772
49	0xbb656866	-0.0035004853
50	0x3b6b5c98	0.0035913344
51	0x3b802a04	0.0039112587
52	0x3b80050c	0.0039068516
53	0xbab5d216	-0.0013871815
54	0x3b74a1ad	0.0037327812
55	0x3b7f5621	0.003896125
56	0x3b6530f3	0.0034971803
57	0x3b7332cf	0.0037109142
58	0x3b54d365	0.0032474634
59	0x3b6d6b2e	0.0036227214
60	0xbb75b6f9	-0.0037493093
61	0x3b6be79b	0.0035996202
62	0x3b723158	0.003695568
63	0xbb815563	-0.0039469465

sequential_1/dense_2_1/Add/ReadVariableOp f4 [2]
0	0x3b6527f4	0.003496644
1	0xbb6527f4	-0.003496644
