tensorflow/model_backup.tflite (tflite, 13076 bytes, 8 tensors)

arith.constant f4 [4, 32]
000000 11 0d 2a be ab 14 80 be b4 2b c2 be 39 ba 9a 3e
       -0.16606547 -0.25015768 -0.37923968 0.30220202
000010 f6 fd 4c 3e 2f 57 dc be 4c 39 5e 3d be 30 99 3e
       0.20018753 -0.43035266 0.05425386 0.2992
000020 c2 95 2a be d2 26 94 3e 6f ba 8f 3d 3c 8c 80 be
       -0.1665869 0.28935868 0.07017981 -0.2510699
000030 30 4d a5 be 53 72 a6 bd e1 93 15 bb 98 5e 26 3d
       -0.32285452 -0.08127274 -0.0022823738 0.040617555
000040 3a 24 e2 bc 4d 36 a2 3e f4 c4 d0 3c 79 a6 09 bd
       -0.027605165 0.31682053 0.02548454 -0.033606026
000050 ee 3b e3 3e 99 43 b6 bd cc 55 5f 3e 35 3f c1 be
       0.4438166 -0.08899612 0.21810073 -0.37743536
000060 d5 c4 96 3e 55 c7 b6 be dc 60 35 3e c6 59 80 3e
       0.29447046 -0.35698953 0.1771273 0.25068492
000070 f3 ec 9e 3e b4 3d fa 3c 9e e2 bb 3e b6 c6 bc 3e
       0.31040153 0.030547 0.36696333 0.36870354
000080 f8 eb a4 be 46 0d 44 bd 3c d3 4b 3d 1f d2 cd bd
       -0.3221128 -0.04786422 0.049761996 -0.10049843
000090 f9 42 7a 3d 00 de d9 be de 19 af 3e 00 78 4e 3d
       0.061099026 -0.42552185 0.34199423 0.05040741
0000a0 49 ec 1c be 47 4a 7a bd 6e 55 1c 3d e6 94 c4 3e
       -0.1532451 -0.061105993 0.03816741 0.3839485
0000b0 c2 c6 aa bd 14 9a ac 3e 5d be c2 3c 44 70 8f 3e
       -0.08338691 0.33711302 0.023772413 0.2801534
0000c0 18 d3 db be 58 54 8f 3e b9 38 ce bd 9c f9 58 3e
       -0.4293449 0.27994037 -0.10069413 0.21188968
0000d0 48 0a 25 3e 15 ba cd bd 5b 43 b4 3c 35 f8 d5 be
       0.16117203 -0.10045258 0.022004774 -0.4179093
0000e0 90 2b 68 be 59 a3 cf bd 58 74 fb bd 50 93 c5 be
       -0.22672868 -0.10138578 -0.1227805 -0.38588953
0000f0 fd c1 84 3e 2b c5 19 be 28 18 ac 3e d0 d2 24 3e
       0.2592925 -0.1501662 0.3361218 0.16096044
000100 e0 1d 78 3e 59 b1 84 3e f3 d2 eb bc 75 2a 3b 3d
       0.24230146 0.25916556 -0.028787112 0.045694787
000110 23 66 a2 be a8 22 f0 3b d7 2a eb bd be da b3 3e
       -0.3171855 0.00732835 -0.114827804 0.35127825
000120 aa a7 b3 3e 17 f9 97 3e 14 1f 62 be 6e ba 54 bd
       0.35088855 0.29682228 -0.22082168 -0.051935606
000130 87 a0 80 bd 2f 7a ce be e4 5a 85 be 30 2b c9 3d
       -0.06280618 -0.40327594 -0.26045907 0.098226905
000140 aa 57 38 3d f1 69 ed bd 48 e4 e6 be ee e6 85 3d
       0.045005478 -0.11592472 -0.4509604 0.06538187
000150 46 83 e8 be b8 5b 8e 3e 09 f3 65 bd 3c 50 c3 3e
       -0.45412654 0.2780435 -0.05613998 0.3814715
000160 ad 34 b3 bd 5b f7 12 be ac 42 c2 bd e0 80 d3 be
       -0.087502815 -0.14352171 -0.09485373 -0.4130926
000170 1e d8 84 be 97 c1 1b 3e a0 39 71 bc d1 1e ad bb
       -0.25946134 0.15210567 -0.0147232115 -0.0052832146
000180 05 7a b5 3e 4c ef fb bc 6f 69 45 be ae 22 2d bd
       0.35444656 -0.030753754 -0.19278501 -0.0422694
000190 fd 9e 84 be 4d 0d aa 3d 42 86 c1 3e c0 31 e1 3c
       -0.25902548 0.08303318 0.37797743 0.027489543
0001a0 0d 8b 8d 3e 4c 47 a3 3d 5f 4b ad be e6 cc 9e be
       0.2764515 0.07972583 -0.33846566 -0.310157
0001b0 7b 4d 2f be 4a 88 05 bb c7 32 ad be 64 c7 bd bd
       -0.171194 -0.0020375424 -0.33827803 -0.09266546
0001c0 81 26 95 3e 87 c8 ad be 8c 74 63 be 2b 04 39 3e
       0.2913094 -0.33942053 -0.22212428 0.18067996
0001d0 54 f7 94 be 4e be 1a be 8d de ea bd 83 33 86 bc
       -0.29094946 -0.15111658 -0.114682294 -0.016381985
0001e0 e1 42 33 3e 13 d7 d5 be f6 93 c6 be 38 ec cf be
       0.17505981 -0.4176565 -0.3878476 -0.40609908
0001f0 61 12 28 3e e7 7b 98 be 20 9b 82 3c 60 f4 ae be
       0.16413261 -0.2978203 0.01594311 -0.34170818

arith.constant1 f4 [32, 64]
000000 87 83 57 3e 93 ae 35 3e 3f c0 1c 3e 1d 25 88 be
       0.21046267 0.17742376 0.15307711 -0.26590815
000010 d1 f2 3c be 13 64 95 3d 34 89 1a be cc 0e 80 3d
       -0.18452002 0.07294478 -0.15091401 0.06252822
000020 6b b1 0f bd 09 4b 92 bd 11 68 6b bd 8a 76 3c 3e
       -0.03508131 -0.07143218 -0.057472292 0.18404594
000030 d8 a6 0e be 34 43 77 be 72 8e b7 bc 3a 91 82 3c
       -0.13930833 -0.2414673 -0.02240679 0.01593839
000040 f4 5f c5 bd 79 c6 d2 3d c7 c5 8d 3e 75 33 26 3e
       -0.09637442 0.10291762 0.27689955 0.16230567
000050 d3 60 c2 bc b3 e6 8b bd a6 f4 47 be ac ec 94 bd
       -0.02372781 -0.06831112 -0.1952692 -0.07271704
000060 e7 2a 23 be 09 01 82 3e e8 86 b1 bc a4 c1 3f be
       -0.15934335 0.25391415 -0.021670774 -0.18726212
000070 01 10 9e 3d ca 2d bb 3c b4 72 69 be 14 92 55 3e
       0.07717896 0.022848982 -0.22797662 0.20856506
000080 76 93 8b 3e cc 2f 1f bd 5b b1 3c 3e 37 0a 2c be
       0.2726094 -0.038863942 0.1842703 -0.16800772
000090 d5 80 7c bd 30 99 48 3e b0 a7 03 be ca 8b 25 3e
       -0.0616463 0.19589686 -0.12856936 0.16166607
0000a0 9b cb 32 3e ed f3 c6 3d 35 34 90 3d ef 58 b0 3c
       0.17460482 0.09714494 0.07041208 0.021526782
0000b0 0b 2d 15 be 61 86 36 3e 74 39 cc 3d 63 12 d0 3c
       -0.14567964 0.17824699 0.09971896 0.025399392
0000c0 0c 4d 01 be 8d 42 ed 3d 8e 9b 18 3e 72 4c 89 be
       -0.12627047 0.11584959 0.1490309 -0.26816136
0000d0 9d 4e b9 bc a0 b5 36 be ff a6 f9 3c 6f 51 ac 39
       -0.022620494 -0.17842722 0.030475138 0.0003286707
0000e0 da f4 48 be c5 92 9d 3d 44 9e 5e bc 40 68 4d be
       -0.19624653 0.0769401 -0.013587538 -0.200593
0000f0 99 37 01 3e 69 d2 16 bd 8e b7 95 3d a5 49 17 3c
       0.12618865 -0.036821757 0.07310401 0.009233867
000100 32 9c 2c 3e 60 6e ba 3d fb 48 38 be fe 7d d0 3b
       0.16856459 0.091030836 -0.1799659 0.0063626757
000110 bf 40 78 3d 03 de 00 be 38 e4 11 be d4 bb be bd
       0.06060862 -0.12584691 -0.14247215 -0.09313169
000120 51 50 9a bd 69 89 fa 3d d7 24 7f 3e ec 6b 4f 3d
       -0.075348504 0.1223324 0.24916397 0.05064003
000130 30 00 93 3e 90 4c 2e be 5a be ff bc 1a 59 d8 3d
       0.2871108 -0.17021394 -0.031218696 0.1056387
000140 d8 e7 2f 3e 09 17 92 3d 78 47 3c be e8 f5 81 bd
       0.17178285 0.071333 -0.18386638 -0.06345731
000150 d0 1b 0e bd 8f 15 ef bd d5 69 d5 3d 37 7b bc bd
       -0.034694493 -0.11674034 0.104205765 -0.09203189
000160 9b af 3b 3d 75 f6 63 3d ed 3f 63 be 5b 83 61 be
       0.045821767 0.05565496 -0.22192355 -0.22022764
000170 d6 fc 91 3e 67 0f 1d bd 8b 9b 1b be 01 78 3d bd
       0.2851321 -0.038344767 -0.15196054 -0.046257023
000180 89 44 2b be 35 74 15 3e a7 b4 61 3d ef 2c 49 3e
       -0.16725363 0.1459511 0.055103924 0.19646047
000190 09 a7 8b 3e 73 30 40 3d ce 2e 64 be fb 5c cb bd
       0.27275875 0.046921205 -0.2228348 -0.09929844
0001a0 33 f8 77 3e d9 bf 76 be 93 35 5c bd 05 f7 89 be
       0.24215774 -0.24096622 -0.05376203 -0.26946273
0001b0 9f 7c 3f bd 21 4b 29 be 30 4c a4 3d 20 de 51 3e
       -0.046749707 -0.16532566 0.08022344 0.2049489
0001c0 04 85 7e 3d 61 db 69 be 5a 1f 66 3e ca ba 68 be
       0.062138572 -0.22837593 0.22472897 -0.22727504
0001d0 f9 c5 8a bc 2d b2 af bd 99 f6 cf 3c 19 db 47 3e
       -0.016940104 -0.08578906 0.025386142 0.19517173
0001e0 75 69 18 be ec 30 57 be 45 f7 71 3e 5e e9 0b ba
       -0.14883979 -0.21014756 0.23629482 -0.00053372036
0001f0 ef ce 73 3e 43 aa 93 3e 01 91 b7 bc 85 a1 2f 3e
       0.23809408 0.28840837 -0.02240801 0.17151459
000200 50 eb 6b bd db 73 2c be 9c e5 54 be c0 06 6c bd
       -0.05759746 -0.1684107 -0.20790714 -0.057623625
000210 00 27 d9 bd 78 ef 96 bd 5b 6f b3 bc a1 ee 07 bd
       -0.10603142 -0.07369894 -0.021903684 -0.03318656
000220 ce d9 5d 3e 0c 05 63 be 65 b6 5e bd 68 bd 81 bd
       0.21665117 -0.22169894 -0.054373164 -0.063349545
000230 fd 92 37 be 72 7f 09 be f2 47 08 3e 20 70 56 be
       -0.17927165 -0.13427523 0.13308695 -0.2094121
000240 98 40 7f be 38 4e 1b 3d 22 b1 3c 3e b4 e3 3b 3e
       -0.24926984 0.037916392 0.18426946 0.1834858
000250 1e a7 3b be 20 79 f1 3d 80 b3 b5 bc 44 88 14 3e
       -0.18325469 0.11790681 -0.022180319 0.14505106
000260 40 db 26 3d 95 c4 92 bc 61 bc 1f bd d5 0f 78 be
       0.040736437 -0.017916003 -0.03899801 -0.2422479
000270 c0 f6 6e 3e c5 fb 9c bd b0 d6 e0 bd 61 31 43 be
       0.23336315 -0.07665209 -0.109784484 -0.19061805
000280 75 96 5e be 3e 3a 45 be 8d b1 5b be 6b e8 12 3d
       -0.21737082 -0.19260499 -0.21454449 0.035866182
000290 a0 38 d6 bc a4 1a 5b 3d 28 99 17 be 3c 70 6b be
       -0.026150048 0.053492203 -0.14804518 -0.22992033
0002a0 a0 62 3a 3e c7 d6 60 3e 5d 2c 56 3e c4 a4 3d 3e
       0.18201685 0.21956931 0.20915361 0.18519884
0002b0 20 90 3f be 2c dc 87 3d d0 2e 43 bd e2 61 16 3d
       -0.18707323 0.06633791 -0.047652066 0.036714442
0002c0 22 cc ea bd 28 c7 dc bd 30 4b 57 3d 38 81 15 be
       -0.114647165 -0.107801735 0.05256194 -0.14600074
0002d0 d3 09 29 be d8 9d 8c 3d c0 f7 6b bd 2b 9d 44 be
       -0.16507654 0.06866044 -0.05760932 -0.1920058
0002e0 88 be 21 be b0 e5 1c be 10 54 3a 3d d0 ec d2 3d
       -0.15795338 -0.15321994 0.045490324 0.10299075
0002f0 4b 6e da 3b 01 0e ec 3c 5c cb 2d be c1 b3 1d 3e
       0.00666598 0.028815271 -0.16972107 0.15400602
000300 02 e0 31 be 94 fb 93 be ad e9 97 3d b7 21 f5 bb
       -0.17370608 -0.28902876 0.07417617 -0.0074808258
000310 0d 01 8a 3d ca 94 47 be fc ab 54 be da f0 4e 3e
       0.06738482 -0.19490352 -0.20768732 0.20209065
000320 08 f6 88 be 03 af df 3d 9b c5 22 be 07 47 83 3e
       -0.26750207 0.10922053 -0.15895693 0.25640127
000330 82 36 3b 3e 9a ef 20 3e b5 2a 7d bc c0 e4 14 be
       0.18282512 0.157164 -0.015452077 -0.14540386
000340 a2 e1 8c 3e 69 a8 1a be 5d bf f8 3d 77 35 c4 3c
       0.27515894 -0.15103306 0.12145875 0.023951275
000350 77 af 7a be 24 7a 43 3d d2 47 cb 3c 97 41 c5 bc
       -0.24480997 0.047723904 0.02481452 -0.024079127
000360 b6 1d 9b bc 75 c5 41 3e c1 c9 0b bc 4f 8b 94 ba
       -0.018935066 0.1892298 -0.008531989 -0.0011333021
000370 57 85 1e 3e cb bb 34 bd 84 c4 19 3d ac 29 dd bd
       0.15480553 -0.044124406 0.037540928 -0.10798964
000380 0d 6c 04 be 43 0f a5 3d b8 46 23 3e 33 19 3e be
       -0.12931843 0.080595516 0.15944946 -0.185643
000390 a8 13 70 bc 54 73 9e bd 97 c3 d1 bd 7a f7 cd 3b
       -0.014653124 -0.07736841 -0.10242384 0.006285605
0003a0 c8 f9 77 3e 5c da 78 3d 92 16 5c 3d 71 5f 88 bd
       0.24216378 0.06075512 0.053732462 -0.06658829
0003b0 d7 50 6a be e5 c0 97 bd db 14 6b be ce 70 eb 3c
       -0.228824 -0.074098386 -0.22957174 0.028740313
0003c0 f9 72 46 be dd e2 7b 3e 0e 2c b7 bd 99 b8 91 3e
       -0.19379796 0.2459826 -0.0894395 0.2846115
0003d0 73 1c b2 3d 50 a3 85 3e 3d f5 e5 3c 66 62 4e be
       0.086968325 0.2610116 0.02807104 -0.20154724
0003e0 63 3a 61 3e 5a 42 8a 3e 3b b9 89 bd 19 1c 8e 3d
       0.21994929 0.27003747 -0.06724783 0.06938953
0003f0 f2 57 07 3e a4 8c 23 be 47 b0 50 3e ce 35 3b bd
       0.13217142 -0.15971619 0.20379744 -0.04570561

arith.constant2 f4 [64, 5]
000000 c2 fe 2e be 76 77 10 bd 0d ab 9a 3e ee f2 61 3e
       -0.1708937 -0.035270177 0.30208626 0.22065327
000010 f4 6a 92 be ea d6 54 3e 16 f8 5e 3e 8e b4 3a 3e
       -0.28597224 0.20785108 0.21774325 0.18232939
000020 bd cc 3c 3e e1 3d f5 3d 9b 77 aa be 25 3a 91 3e
       0.18437476 0.11974693 -0.33294377 0.28364673
000030 e0 a7 4f 3e cc e3 2e 3d 12 09 9a be 1e 04 39 3d
       0.20278883 0.042697713 -0.30085045 0.045169942
000040 c7 54 82 3e 5d 4f 90 3b 5d 91 f3 bd 66 c3 8c be
       0.25455305 0.004403992 -0.1189296 -0.27492827
000050 03 35 47 be 46 16 a9 bd fa e2 8a 3c d3 68 93 bd
       -0.19453816 -0.082562014 0.016953934 -0.07197728
000060 a3 dc 97 3d e4 5b 11 3e ef 35 55 3d af 97 5a 3e
       0.0741513 0.1419521 0.05205339 0.21346925
000070 31 5d 00 3d c1 2b 25 bd d5 1b 06 3e 89 a8 3a bd
       0.031338874 -0.04032493 0.13096555 -0.045570884
000080 79 da d1 3d 85 f0 88 3e c7 fd 93 be ba 73 b5 bc
       0.102467485 0.26746002 -0.28904554 -0.02214991
000090 8e 91 5d be 77 b5 5a 3e 40 33 70 3e b0 40 af ba
       -0.21637556 0.21358286 0.2345705 -0.0013370719
0000a0 c2 55 27 3d ff 59 a9 3d 7e 4c 0c 3e a0 66 a2 3d
       0.04085327 0.082691185 0.13701054 0.079297304
0000b0 e4 f5 7e 3d 48 d5 43 be b4 17 96 be a9 0f 91 3c
       0.06224622 -0.19124329 -0.2931496 0.017707663
0000c0 36 42 b5 bd c1 c6 92 bd bd b1 18 3c b9 62 1b be
       -0.08850519 -0.071668155 0.00931972 -0.15174378
0000d0 7a ee 46 3e eb 55 60 3e 96 b6 cb bc 64 cd 89 bd
       0.19426909 0.21907775 -0.024867337 -0.06728628
0000e0 fc d8 8b be b4 0a 6c bc d8 09 89 be e7 85 3f be
       -0.27313983 -0.014406849 -0.26765323 -0.18703423
0000f0 2f e0 bf bb ae 11 98 3e 58 e5 89 bd cf 85 fd bd
       -0.005855582 0.2970099 -0.06733197 -0.123790376
000100 9d 3b 82 3e f8 e7 89 3e 2f 61 8b 3d 7c 45 ae 3d
       0.25436106 0.2693479 0.06805646 0.08509347
000110 52 58 57 3d 18 fa 7d be d3 5a 95 be 51 3e 8d bd
       0.052574463 -0.24802434 -0.29170856 -0.068966515
000120 e4 f1 92 3d 1d e7 51 3e 39 36 9d 3e b0 90 d9 3c
       0.07175043 0.20498319 0.3070543 0.02655825
000130 2e 59 85 be 94 35 4e 3e bb c4 93 be 2b ee 3c be
       -0.260446 0.20137626 -0.2886103 -0.18450229
000140 7f 90 aa be 3d 2f 60 bc 15 15 1b 3e eb 99 89 be
       -0.33313367 -0.0136831375 0.15144761 -0.26875243
000150 34 62 92 be d0 a3 e0 bd 70 2d ea bd 54 b9 c3 bd
       -0.28590548 -0.10968745 -0.11434448 -0.09556833
000160 a8 62 6e be c5 ca 3d 3e 9c d5 86 3e 2c 17 62 be
       -0.23279822 0.18534382 0.26334846 -0.22079152
000170 87 a7 0f 3d d6 6d a8 bd f7 88 5e 3e 59 d5 68 be
       0.035071876 -0.082240745 0.21731935 -0.22737636
000180 1f 7d 3e bd 5b 37 50 be dc 0e 00 be eb a9 fa 3c
       -0.046506044 -0.20333616 -0.12505668 0.030598601
000190 ef d1 f7 3d 79 a7 64 3e a1 2d d2 bc da e5 e4 3d
       0.121005885 0.22329511 -0.025656523 0.11176653
0001a0 c9 30 33 3e 4c d4 53 be e1 0e 02 be 2b 8e 35 be
       0.17499079 -0.20686454 -0.12700988 -0.17730014
0001b0 3f 49 95 3c ab 6d 7a be 58 61 e0 bd a7 33 8e 3d
       0.018223403 -0.24455898 -0.10956067 0.06943446
0001c0 ec 0a 9e be cf 43 a0 be 42 90 4b bc 76 c4 89 be
       -0.30867708 -0.31301734 -0.01242453 -0.269077
0001d0 18 44 80 be f8 e7 4d bd 0f ac de 3d 13 87 ca bd
       -0.2505195 -0.05027005 0.10872661 -0.098890446
0001e0 68 88 88 be 06 e2 f7 bd fc 16 63 3e ec a6 7e 3e
       -0.2666657 -0.121036574 0.22176737 0.24868363
0001f0 90 3e 10 3d e2 cb 88 3e 2d f7 10 3d 65 a7 df 3d
       0.035215914 0.2671805 0.035391975 0.109206
000200 61 94 2b 3e e6 b1 ac 3e 49 d0 2b 3c cc 59 94 be
       0.16755821 0.33729476 0.010486671 -0.2897476
000210 5f f2 02 3d a1 7f 9e 3d 72 e7 97 3e d4 db 3f 3e
       0.031969424 0.07739187 0.29668766 0.18736202
000220 5b 1d 8c be 82 64 53 be 45 fd 58 3c 8d 93 52 be
       -0.27366146 -0.2064381 0.013243978 -0.20564099
000230 fa af 95 3e dc 26 93 3d f8 b9 68 3e f8 4d 56 3e
       0.29235822 0.07185146 0.22727191 0.2092818
000240 1c 20 a5 3c 6c 52 c4 3d 1e 39 04 3e 14 3f e7 bd
       0.020156913 0.09586033 0.12912413 -0.11291328
000250 9c 71 88 be c6 91 79 3e 0c ff 05 3d c5 77 90 be
       -0.26649177 0.24372014 0.032713935 -0.28216377
000260 33 40 6f 3e 5f 9e 9e be 75 0f fc 3d c6 f4 70 3e
       0.23364334 -0.30980203 0.12307636 0.23530874
000270 af be 41 be 29 cf 45 3e dd a6 07 be e8 7f 41 3e
       -0.18920396 0.19317307 -0.13247247 0.18896449
000280 46 b4 9c 3e 72 3c 7f 3d 1e 95 0f be 95 88 a0 3d
       0.30606288 0.062313505 -0.14021727 0.07838551
000290 88 0a ab bd 7f d5 5b be 77 c1 24 3e 8d 74 86 be
       -0.08351618 -0.21468161 0.16089426 -0.26260796
0002a0 d0 a2 1b 3e 41 4d 88 3d a4 6f 67 3e 5e be 96 3e
       0.15198827 0.0665536 0.22601181 0.29442114
0002b0 80 f8 0b 3d 7e 15 49 3c a6 ae 57 3e 1c e3 58 3d
       0.034172535 0.012273191 0.21062717 0.052950963
0002c0 fb 44 8e 3d a7 77 26 3e 0c 2d 75 3e ac 45 1e 3e
       0.06946751 0.16256581 0.23942965 0.15456265
0002d0 35 47 6e bc 5e 1d ab 3e 13 11 49 3e 74 25 b8 3d
       -0.014543344 0.33420843 0.1963542 0.089915186
0002e0 8a f6 1c bd b0 65 5d 3d 98 8a 66 3e ee e4 9a be
       -0.038321055 0.054052055 0.22513807 -0.30252784
0002f0 22 87 91 3d a9 87 e9 3c f5 a0 58 be 5b 63 45 bd
       0.07105853 0.02850707 -0.2115515 -0.048190456
000300 33 65 69 3e 09 8f 32 be 37 89 f3 3d 4d e7 f8 bd
       0.2279251 -0.17437376 0.11891406 -0.12153492
000310 50 c6 3e 3d a7 ef 48 3e 70 ce 33 3e c8 91 77 3d
       0.046575844 0.1962267 0.17559218 0.060441762
000320 93 46 33 3e 78 ba 7b 3e 25 4f 20 3e 05 96 9c be
       0.1750739 0.24582851 0.15655191 -0.30583206
000330 91 ca 51 be b9 f6 d8 3d 17 8a 98 be 6c 9a 30 be
       -0.20487429 0.105939336 -0.29792854 -0.17246407
000340 ab ac b7 bd 3a f0 fd 3a e4 8b 80 3e 34 be 48 be
       -0.08968481 0.0019373961 0.25106728 -0.19603807
000350 c8 16 15 3e a8 75 db 3d e0 67 09 3e 16 aa 10 3d
       0.14559472 0.107158005 0.13418531 0.035318457
000360 82 e5 ba bd ba ee 40 bd e8 cd 7b be 51 c6 ff bd
       -0.091258064 -0.047102667 -0.24590266 -0.12488998
000370 8d 46 62 3e ce 2c a4 3e f1 05 a5 3c 8f ad ea bc
       0.22097225 0.32065433 0.020144435 -0.028647212
000380 14 1b cd bd 39 27 9e bc 13 66 d7 bd f3 4b 0c be
       -0.1001493 -0.019305812 -0.10517516 -0.13700847
000390 fb ed a4 be 55 9e 99 3e 7c f4 cb 3c cb c9 49 3e
       -0.32212815 0.3000361 0.024896853 0.19705884
0003a0 a9 76 a4 3e 6b 55 d8 3c a8 52 5e bd 75 c2 a4 3e
       0.3212178 0.026407918 -0.054278046 0.3217961
0003b0 88 12 ea 3b 1d 4a c6 3c 19 72 20 be 2c fd 56 bd
       0.0071433224 0.024205262 -0.15668525 -0.052487537
0003c0 12 ac 6e be e3 dd 31 be 3e 84 87 be 66 4e 06 3e
       -0.23307827 -0.173698 -0.2646808 0.13115844
0003d0 63 d1 1e be 92 e0 29 be 82 09 a9 be 1d 41 e0 bc
       -0.15509562 -0.16589573 -0.33015066 -0.027374798
0003e0 1d fc 6d be c1 3a c7 bd 6a 69 26 be ef 7d 90 3e
       -0.23240705 -0.09728003 -0.1625115 0.2822108
0003f0 26 cc 37 3d 67 7f 04 be 0e 31 4b bd 15 01 92 be
       0.044872425 -0.12939225 -0.04960733 -0.2851645

arith.constant3 f4 [1, 5]
000000 05 d8 8d 39 eb e6 12 3a ce ee 12 3a 1d 63 91 39
       0.00027054563 0.00056038675 0.00056050427 0.000277304
000010 a8 39 1c 3b
       0.0023838077

Const_1 f4 [1, 5]
000000 0e 34 7a 45 90 b4 ac 45 97 c6 ac 45 22 27 9c 45
       4003.2534 5526.5703 5528.8237 4996.8916
000010 8b c0 f3 45
       7800.068

sequential_1/dense_1_2/Add/ReadVariableOp f4 [32]
000000 c4 16 be 3c ef 2b 17 3d a7 85 c0 bb 4c 13 24 3d
       0.023204215 0.036907133 -0.0058753076 0.040057465
000010 f1 a5 2f 3d 4a e7 40 3d 5c 1f e2 3c 00 00 00 00
       0.042882863 0.047095574 0.027602844 0.0
000020 2c 94 01 3d db 31 0a 3d 88 f0 e3 3c 99 8a 35 3d
       0.03163545 0.033738952 0.027824655 0.04432163
000030 ca 60 aa bc b4 b6 1a 3d 5a b9 87 bc 00 00 00 00
       -0.020798106 0.037771896 -0.016567875 0.0
000040 93 35 21 3d c3 1a 55 3d 4a 71 39 3d bb ae 57 3d
       0.039357733 0.052027475 0.045274056 0.05265687
000050 f8 4e 24 3d 54 b6 08 bd 92 dc 30 3d e7 ca 05 bd
       0.040114373 -0.033377007 0.043179102 -0.032664206
000060 90 ab 9c bc d6 90 80 bc 00 00 00 00 1d c1 36 3d
       -0.019124776 -0.015694063 0.0 0.04461776
000070 16 36 46 3d f6 f1 94 bc 00 00 00 00 ff 9a b6 bc
       0.048391424 -0.018181782 0.0 -0.022290705

sequential_1/dense_1/Add/ReadVariableOp f4 [64]
000000 1e 00 0c 3d c8 50 8b bc 5d 94 33 3d 7a 82 bc 3c
       0.0341798 -0.017006293 0.043842662 0.023011435
000010 f5 f9 0a bd 37 0b 62 bb ad 39 b2 3c 85 08 81 bc
       -0.033929784 -0.0034491548 0.021756018 -0.015751133
000020 53 5d e8 3c ff d6 e4 bb 61 c4 da bc 8b 37 38 3d
       0.028364813 -0.0069836373 -0.026704969 0.044974845
000030 bc 53 aa 3c b3 bd 23 bd a1 a1 3c 3d d0 25 47 3d
       0.02079188 -0.039975833 0.04605258 0.048620045
000040 25 e3 46 3d f4 79 20 3d f7 54 e1 3c b6 17 07 bd
       0.048556466 0.039178804 0.027506335 -0.032981597
000050 94 89 58 3c 8e dc 36 3d 52 c8 3c 3d ca 7d cd 3c
       0.013216395 0.04464393 0.046089478 0.025084395
000060 7a 7b 84 3c be bf 35 3d 8a a6 e4 3c 4d 83 30 3d
       0.01617216 0.044372313 0.027911443 0.04309397
000070 dc 93 00 3d 39 b8 38 3d af b8 3a 3d b6 5a 0a 3d
       0.03139101 0.045097563 0.045586284 0.033777915
000080 d0 7d a1 3c d3 a8 53 3d 8d 4a b1 bc 48 ed 14 bd
       0.019713312 0.051674675 -0.021641994 -0.0363591
000090 be 23 52 3d 6e 63 20 ba 97 fc 12 bd 49 ee bf bc
       0.051303618 -0.0006118332 -0.03588542 -0.023429053
0000a0 9a b8 4e 3d 4a a4 42 3d dd 92 31 3c de dc 46 3c
       0.05046902 0.04751996 0.010838238 0.01213762
0000b0 ad 7e 55 3d cc 14 37 3d 80 32 ad bc 36 11 ca 3a
       0.05212276 0.044697568 -0.021142244 0.0015416506
0000c0 54 1f bc 3b 97 5c 40 3d 59 c2 01 bd e7 1b 40 3d
       0.0057410393 0.0469633 -0.031679485 0.04690161
0000d0 56 92 d7 3c 3a 64 46 3d ee 0e d2 3c da 35 47 3d
       0.026314896 0.048435427 0.025641885 0.04863534
0000e0 98 8f 46 3d 0d ff 2c bd c2 55 5a 3d 62 ef 35 bc
       0.048476785 -0.042235423 0.05330444 -0.011104437
0000f0 85 0e 40 3d 85 78 28 3d 5e 59 cb 3b 85 16 d8 ba
       0.046888847 0.04113056 0.0062057218 -0.0016486204

sequential_1/dense_2_1/Add/ReadVariableOp f4 [4]
000000 4b 3c cd 3c c8 ef 27 3c 7c 96 16 bd 88 c5 94 ba
       0.025053164 0.010250039 -0.036764607 -0.0011350373
