tensorflow/model_quantized.tflite (tflite, 9272 bytes, 10 tensors)

arith.constant f4 [4]
00000000: fbe8 f33c d872 c3bb fd84 2ebd 9086 e0bc
0.02977418 -0.005964618 -0.042607296 -0.027407914

arith.constant1 f4 [32]
00000000: a778 ec3c 0000 0000 4eed ceba 0502 c83c
00000010: e896 89bb a6c9 d93c dc2f 53bb 88ad 553d
00000020: 24cd c6bc 40c6 6f3d 01c9 283d 2727 03bc
00000030: 6882 233d 0d52 f83c 876e b6bb 76ca c9bc
00000040: 2682 85bc 83ec 3b3d f836 413d 45ee 183d
00000050: 5001 5a3a 7622 af3c ba1e eb3c 35e4 1d3d
00000060: 2a42 f7bc 1456 333d 26d2 f23c 4bdb ca3c
00000070: 799a 533c 0c3a 623d c6a1 3c3d 9f6c 353d
0.028866125 0.0 -0.0015787275 0.024415025 -0.0041988976 0.026585411 -0.0032224571 0.052167445
-0.02426774 0.058538675 0.041207317 -0.00800494 0.039919287 0.030312562 -0.005567375 -0.024632674
-0.016297411 0.045879852 0.047171563 0.037336607 0.00083162356 0.021378737 0.028701175 0.038547713
-0.030182917 0.043783262 0.029641222 0.02476277 0.012915247 0.05523114 0.046052717 0.044293042

arith.constant2 f4 [64]
00000000: 0b93 283c 12e6 733c 5b57 7e3d 14a3 0c3d
00000010: 73c2 e53c c2b2 97bc 33e7 d03c 0036 6e3d
00000020: a78f 793d 5f85 093b 51a7 6f3c 2fb7 a33b
00000030: 49a0 623d ef54 323d 0159 633d ff58 273d
00000040: 2af3 f83b 03e4 703d 3d9d 413d 543c 833d
00000050: 8ccd 593d af6b 723d a60e 263d 459a 7ebc
00000060: 9881 5bbc 7d63 7fbb 7052 183d 20dc 633d
00000070: 1dc3 393d 3ba5 5c3d fe18 a53b 3386 443d
00000080: a35c 4a3d 6a97 443d ece8 933d 2a45 563d
00000090: 5d85 643d 0442 b3bc 1121 373d eea5 023d
000000a0: 3f27 19bc 5c33 8cbc c209 783c a3fb 643d
000000b0: 6a7f cdbc 0dd0 573d 709c 623d ddb2 2a3b
000000c0: 398f 4f3d 334c 7e3d f462 143d 8f6d 5c3d
000000d0: 5eb2 543c dd08 233c deb6 943d 2886 663d
000000e0: 650d 873d fba3 203d 7fba 6c3d 88d7 613d
000000f0: fcfa 933c bea7 24bc 173e 673d b3a0 393d
0.010288964 0.014886396 0.062095027 0.03433521 0.028046822 -0.018517856 0.02550087 0.058156967
0.060928013 0.0020984036 0.014627294 0.0049962024 0.05532864 0.04353803 0.055504803 0.040856358
0.007597347 0.0588112 0.047269095 0.06407991 0.05317454 0.059184726 0.040541314 -0.01553971
-0.013397597 -0.0038969212 0.037187994 0.05562985 0.04535209 0.053868514 0.0050383797 0.047979545
0.04940475 0.047995962 0.07222161 0.052312054 0.055791248 -0.021882065 0.04470927 0.031896524
-0.009347736 -0.017114334 0.015139045 0.055904042 -0.02508517 0.052688647 0.05532497 0.0026046552
0.050673697 0.062084388 0.03622718 0.05381542 0.012981979 0.009950844 0.07261442 0.056280285
0.06594352 0.039218884 0.057795044 0.055137187 0.018064015 -0.0100497585 0.056455698 0.04531927

arith.constant3 f4 [32]
00000000: ca02 fdbc 80e9 813c 0a2e 73bb 1297 0a3d
00000010: 84ed ab3c cc49 1f3d d2bc 3d3d 8a7b 953b
00000020: 7881 f73b 38ba ce3c 953a 80bc 882b d4bc
00000030: cd02 fe3c 0000 0000 fe56 453d 6b60 523d
00000040: 26ce 7b3d b7d5 ff3c 3fb2 ae3b 3dde 843d
00000050: 88ad 443d 75cc 283d f9ae 393d cbf2 e83b
00000060: d428 c4bc 96e9 483d 83a4 4c3c eef5 043c
00000070: 1728 393d 595b 333d 5b64 c53c 4571 683d
-0.030885119 0.015858412 -0.00371063 0.033835478 0.02098728 0.038888738 0.04632265 0.004561846
0.0075532757 0.02523528 -0.015652934 -0.025899664 0.031007195 0.0 0.048178665 0.051361483
0.061475895 0.031229837 0.005331307 0.06487701 0.048017055 0.04121061 0.045332883 0.0071090213
-0.02394525 0.04905089 0.0124903945 0.008115275 0.04520425 0.043788288 0.024095705 0.056748647

arith.constant4 f4 [1, 5]
00000000: 3c1d 1145 00d0 7645 4dde ff44 3d88 4445
00000010: 808d eb44
2321.8271 3949.0 2046.9469 3144.515 1884.4219

arith.constant5 f4 [1, 5]
00000000: 6c6b d53a ee37 253b f0d2 4a3a 563b 523a
00000010: 6bbf 503a
0.0016282625 0.0025210339 0.00077371206 0.0008019706 0.0007963094

arith.constant6 f4 [64, 5]
00000000: 8f20 333e 432f 94bc 24ce 8e3e c41a 34be
00000010: 3393 2a3d 9a08 03bd 1b1e 3fbe 717b 07bd
00000020: 3e14 53be 0fd6 b4bd 30d8 673e 9070 833e
00000030: 3101 a0bd 8716 84be 26c3 80bb 0a1e 263e
00000040: 7576 303e a645 a43e 71e4 7e3e c25a 7c3e
00000050: 1770 e03d d48e 5fbc b4a7 e4bd 4d39 abbe
00000060: 8eba 343e e572 df3c 3336 a7bd 09c8 3fbe
00000070: a377 2dbe 7a3e 34be b455 d6bd f46c 37be
00000080: eb98 8d3e 43ef a03d 3709 043e c305 44bc
00000090: 3097 5a3b 35da 663e 60d3 553e 5a3e 203e
000000a0: fc93 97be 25bc 8a3e 7de8 6d3e b805 3cbe
000000b0: 4f8e d9bc 1eaf 9abe 7cf1 273e fd5d 62bd
000000c0: dc96 383e 7462 c6bd 8402 953e 3af9 3b3e
000000d0: 5b46 45be 928f 853e 17b5 12be 158e d23d
000000e0: 7b1a 2abe 16ef 06be 818c d03d 0f1e ca3d
000000f0: 1e9e 8bbe b062 903e 898d 03be 986d 01bd
00000100: 9e5e 85be 91d6 1f3e e96c 2f3e 2dea 17be
00000110: 46e6 463e 0fc2 6f3e 78a7 3b3e 0a17 acbe
00000120: 204b 443e ae1d f2bd 4872 473e f797 46be
00000130: 2b8a 3fbe b5b0 ea3c d86b 803e 060f 8fbe
00000140: fab5 333d 6ba4 7c3e 1179 82be 3e6d 903d
00000150: ef40 eb3c 6b9b 82bc d980 25bd aa7d 963d
00000160: 2158 8c3e 8926 21bd fff7 fa3d 561e 88be
00000170: d4b6 563e 59fb 993e 0ccf c43d 1fb7 953e
00000180: 7c52 1d3e 5624 bf3d 7b27 2b3d 27f6 ec3d
00000190: e5f8 8d3e c7d2 373d 917e 8abe b800 35be
000001a0: a87a 90be 3c28 563e 3702 94be 03f2 543e
000001b0: dcce b63d a7bc a3be 58c1 893e e088 9fbe
000001c0: 43a8 413e 8c18 0f3e 874a 433e b9d0 9bbd
000001d0: c8bf a53b 0fbd 5dbe 6340 673e a942 89be
000001e0: 4af8 d3bd a411 6d3e 7e95 963d bc9b 433e
000001f0: 2750 85bd e8f2 56be 641a 663e dddf 13be
00000200: e5f9 17be 0496 85be 8754 243e b628 063c
00000210: 9c30 a63e b1d9 5dbe fe5d 713e d2da 8bbd
00000220: c5af 66be 32e2 923e bbd6 9e3e 5bf1 f93d
00000230: a6b9 efba 8922 5cbe 7ebf 333e 7705 3d3e
00000240: deaf 993d 6b4c 93be f4c6 943e 627c d4bd
00000250: 77f1 93be 96af 5bbc 7fae 9e3d caa2 7f3e
00000260: d98e c4bd a92e 5dbd 856f 8cbe 3eff 703e
00000270: 4605 723e 6d71 c03d 97dd 6cbe bcf4 2fbe
00000280: 9851 2cbe 9e4d 0abe f91e 233e 565e 2b3e
00000290: b42f 753e d795 61bd 951b f73d 34a9 993a
000002a0: 2e37 c3bc c5bf 933e db39 413e 4f06 213d
000002b0: cc8b 923e 477a 5dbd 9a58 03be 3e81 a83d
000002c0: cd3f 313e 6996 8e3e a02d 8c3d 1a11 083e
000002d0: 8ca1 1ebe 8cf1 90be 361f 8c3e 76a2 debc
000002e0: 027a 89bd a2f1 373e 6e37 353e 7b0b 9bbd
000002f0: 669f 4cbe 8b6a 2d3e 3fd0 84be a9d8 73bc
00000300: ae8e 6e3e 0454 d5bd 2733 523e 72b9 94bd
00000310: 81c6 97be c361 49be 7151 803c 674e 00bc
00000320: bd97 5bbe 3570 793d 323c 29be 7ad9 b93d
00000330: ec48 3ebd 59e0 583e 333f 263e e03f 1d3e
00000340: db49 243e c60d 6d3e 5150 91be 5527 4dbe
00000350: daa4 e8bd 1f45 91bd 775b 97be b91e aebd
00000360: e0a1 95be f671 923e 364a 483e 41de 0e3e
00000370: b5ae 4fbe f6a6 34be bd35 803e 8891 97be
00000380: 3342 ebbd afd2 abbe c75e 11be 4fc5 66be
00000390: 4e15 1b3c f0c1 1bbe a447 16be 711d 8d3e
000003a0: 0d9d 143e 8947 e2bd 0f0a 9abd ca96 233e
000003b0: e8fe 873c a2af 54be 2a1c 153e 13f0 14be
000003c0: 4a49 a33e c728 c43d 8a77 273e 540b 373d
000003d0: a6de 9abe d726 e03d 72a9 a13e d84b d03d
000003e0: 3a9f 33be a713 a8be 005c 663e a086 57bd
000003f0: 30c9 9fbe 0edb 163d e37b 9bbd c35f 8d3e
0.17492889 -0.018088942 0.27891648 -0.17588335 0.041644286 -0.031990625 -0.18663828 -0.033076707
-0.2061319 -0.08829891 0.22641063 0.25671816 -0.07812727 -0.25798437 -0.0039295135 0.16222396
0.17232688 0.32084388 0.24891831 0.24643996 0.109588794 -0.013644893 -0.11164799 -0.33442155
0.1764929 0.027276466 -0.081646346 -0.18728651 -0.16940169 -0.17601958 -0.10465565 -0.17912656
0.2765573 0.078581356 0.1289414 -0.011964264 0.0033354275 0.22544177 0.20881414 0.15648785
-0.2960509 0.27096668 0.23233218 -0.18361557 -0.026557116 -0.3021173 0.16400713 -0.055265415
0.18026298 -0.09686747 0.29103482 0.18356791 -0.1926512 0.26086098 -0.14326893 0.10281006
-0.16611664 -0.13177142 0.10183049 0.098690145 -0.2726907 0.28200293 -0.1284696 -0.031598657
-0.2604875 0.15609194 0.1713139 -0.14835425 0.1942378 0.23413871 0.18325603 -0.33611327
0.19169283 -0.11822067 0.19477189 -0.19393907 -0.1870505 0.028648714 0.25082278 -0.2794115
0.04387472 0.24672095 -0.2548299 0.07052086 0.028717486 -0.01594325 -0.04040608 0.07348187
0.27410987 -0.03934339 0.12254333 -0.26585644 0.20968181 0.30074576 0.096098036 0.29241273
0.15363497 0.093331024 0.0417857 0.11570387 0.27728954 0.044878747 -0.27049688 -0.17676055
-0.2821858 0.20913786 -0.2890794 0.20795445 0.08926174 -0.31979868 0.26905322 -0.31159115
0.18911843 0.13974208 0.19071399 -0.0760817 0.0050582625 -0.21654151 0.22583155 -0.2680867
-0.10350092 0.2315126 0.07352732 0.19102377 -0.065094285 -0.20991099 0.22471005 -0.14440866
-0.14841421 -0.26091015 0.1604787 0.008188417 0.3245896 -0.21665074 0.23571011 -0.06828846
-0.22527988 0.28688198 0.310232 0.12204238 -0.001828958 -0.21497549 0.17553517 0.18459116
0.07504247 -0.2876924 0.2905804 -0.10375287 -0.2889516 -0.013408562 0.07748126 0.24964443
-0.095975585 -0.053999577 -0.27428833 0.23534867 0.23634824 0.09396634 -0.23131405 -0.17183203
-0.16828 -0.13506171 0.15929784 0.16735205 0.23943979 -0.05507454 0.12065808 0.00117234
-0.023830023 0.28857246 0.18869726 0.039312657 0.28622282 -0.05407169 -0.12826768 0.08227776
0.17309494 0.2784913 0.0684464 0.13287774 -0.15491313 -0.28309286 0.27367562 -0.027177077
-0.06712724 0.1796327 0.17696926 -0.07570549 -0.1998268 0.16935174 -0.2594013 -0.014883199
0.23296615 -0.10416415 0.20527326 -0.072619334 -0.29643634 -0.196662 0.015663834 -0.007831193
-0.21444602 0.060898025 -0.16526869 0.090746835 -0.046456262 0.21179332 0.16235046 0.15356398
0.16043799 0.23149785 -0.2838159 -0.20034535 -0.11359568 -0.07093262 -0.2956197 -0.08501954
-0.29225063 0.2860257 0.19559559 0.1395197 -0.20281489 -0.17641816 0.25041 -0.2960322
-0.11487236 -0.33559176 -0.14196311 -0.22536205 0.009465529 -0.152107 -0.14675766 0.27561525
0.14513035 -0.110488005 -0.0752145 0.1597549 0.016601041 -0.20770124 0.14561525 -0.14544706
0.31891853 0.0957809 0.16354194 0.044688538 -0.30247992 0.10944908 0.3157459 0.10170716
-0.17541209 -0.32827494 0.22496033 -0.052618623 -0.3120818 0.03683 -0.07591989 0.27612123

arith.constant7 f4 [4, 32]
00000000: 281d c83e d1b0 a2be bb68 883e 6bb3 bebe
00000010: 7e3e 273e 5b6d b43e e8e7 6d3e 9cc5 813e
00000020: fb0b c3be 55bb 5f3d cbec 863e 02e3 d6be
00000030: 830c cf3e bdf4 9d3e be1c 8f3e 73aa a8bd
00000040: 087a b8be f5ef e2be 4216 dabd 147a 78be
00000050: e787 a1be e8ae 90bd a789 de3e ee0c db3c
00000060: fc92 06bd 7a57 a63d 3c36 80be fc96 bd3c
00000070: c832 35be 1f3a ba3e ad73 253e 53f9 c33e
00000080: ea62 30be 10bc ae3e 8d0c c9be adc4 273e
00000090: 2298 2b3e 8032 67be e86d 4f3d f105 513e
000000a0: 6da0 d1be 9620 0b3e 99ba 443e 1afd 823e
000000b0: 6539 5b3d 9648 b2be 4b86 dabe ff10 513e
000000c0: 7658 3b3e 87b5 1fbe e576 87be 09a3 e03e
000000d0: 9bb4 8abd b4fb 153e 3ce1 cabe 0b88 9cbe
000000e0: 782c 833e edb1 a5bd 14e4 86be 2354 44be
000000f0: 3486 2c3e 5917 d13d ded5 803e eeea 933e
00000100: 84cd dc3e 45bc 55be 5235 48be d385 aabe
00000110: 6734 c5be 0012 d5bc 1b8f 1a3e b187 70be
00000120: 99ba c7be a154 b2be 37e9 eb3e 2def 613e
00000130: f973 c2be 7536 983e 175a b13e 9caf e13e
00000140: b35e d5bd ee29 c4be 14a0 f0be 131f 85bd
00000150: 8653 90be cf8a 2d3e e2ca d4be 6f7f a93d
00000160: 5c88 b73e 2627 ccbe 92a2 3a3e 1a97 63bc
00000170: e666 0fbd a6a8 943e 5532 12be 95fb 763e
00000180: d2b2 e1bd d08c 173e 63f1 ed3c b51d 1fbe
00000190: fa2f f33d 4820 9e3d 90c8 313e 4ea9 c4be
000001a0: 1788 d1bd 86f4 d5be 13c5 a4be cb08 473e
000001b0: 14de ddbe 07e6 61be 78bb 4d3e 0736 d5bb
000001c0: fe8e 2a3e f93c 7b3e 19df 8fbd f0d8 993e
000001d0: 9d10 0a3d 5c44 e3be be54 993e a4f5 babe
000001e0: 03e5 4d3e 67fc 8f3e b01e 683e 7f9b dcbe
000001f0: f170 b73e 7464 373d e07d 50be ed75 153e
0.39084744 -0.31775525 0.26642403 -0.3724626 0.16332433 0.35239682 0.23232996 0.25346076
-0.38095078 0.054622013 0.26352534 -0.41970068 0.40439233 0.30850783 0.27951616 -0.082356356
-0.36030602 -0.44323698 -0.106487766 -0.24265319 -0.31548998 -0.07064611 0.43464395 0.026739564
-0.03285502 0.081221536 -0.25041378 0.023143284 -0.17695153 0.36372468 0.16157408 0.38276157
-0.17225233 0.34127855 -0.39267388 0.1638362 0.16757253 -0.22577858 0.050641924 0.20412423
-0.40942708 0.1358665 0.19211806 0.25583726 0.053521533 -0.34821004 -0.42680582 0.2041664
0.18295464 -0.15596591 -0.26457897 0.43874386 -0.06772729 0.14646798 -0.39624965 -0.30572543
0.25619864 -0.08090577 -0.26345885 -0.1917272 0.1684807 0.10209531 0.25163168 0.28890175
0.43125546 -0.208726 -0.1955159 -0.33305225 -0.38516542 -0.02600956 0.15093653 -0.23489262
-0.3900955 -0.34830192 0.46076366 0.22063895 -0.37979105 0.29729047 0.34639046 0.44079292
-0.10418453 -0.3831324 -0.4699713 -0.065000676 -0.28188723 0.16947483 -0.41561037 0.08276259
0.3584622 -0.39873618 0.18226078 -0.013891006 -0.03501024 0.2903492 -0.14277013 0.24119408
-0.110204354 0.1479981 0.029045766 -0.15538676 0.11874385 0.07721001 0.17361665 -0.3841042
-0.10231035 -0.4178812 -0.32181606 0.19436948 -0.43333495 -0.22060405 0.20091045 -0.0065066847
0.1665611 0.24534978 -0.070249744 0.30048323 0.03370725 -0.44388092 0.29947466 -0.36515534
0.20106892 0.28122255 0.22667956 -0.43087384 0.35828355 0.044773534 -0.20360518 0.14595766

tfl.pseudo_qconst i1 [32, 32]
00000000: fed6 36f0 3b23 fa5f d267 e617 96e8 4af3
00000010: f17f 5560 7c40 a600 ba79 e9f3 2dac f5bb
00000020: 8306 e7a7 1184 0657 b19f 6701 d391 ecea
00000030: 3eee 5081 89e5 6584 f7d4 d00b cc2f 1076
00000040: 8fc3 6e07 2bcf c66a d5f0 73e6 35a3 7faf
00000050: 2b85 725f 3b75 d8d2 a717 10b1 92f4 f5dc
00000060: ce0b dd40 7f60 2a49 bf00 3a27 305d edf4
00000070: 4edc 3e24 b48b 311e 185f dc57 399e cd8c
00000080: 0455 e91c 4207 e4c1 ff8c 51b4 7be4 1ed4
00000090: 7410 356d c67f 06ea d6c0 ec51 cefd 5a51
000000a0: 8f03 b4a7 38b8 86b9 89a0 f7fb 4f4e d591
000000b0: cc10 f9bb f1e0 2e2f 1a24 8d41 7f43 3120
000000c0: 4b81 ae4e e01d 0634 20f7 c238 b7d8 7038
000000d0: 412d a3ef b0d0 fd15 4768 96a2 f046 e262
000000e0: eea3 a6d7 b003 37a5 b3a6 1165 eb9e 5d72
000000f0: 5829 2ff5 5d73 03e8 f8f8 fd17 7d7f f272
-2 -42 54 -16 59 35 -6 95
-46 103 -26 23 -106 -24 74 -13
-15 127 85 96 124 64 -90 0
-70 121 -23 -13 45 -84 -11 -69
-125 6 -25 -89 17 -124 6 87
-79 -97 103 1 -45 -111 -20 -22
62 -18 80 -127 -119 -27 101 -124
-9 -44 -48 11 -52 47 16 118
-113 -61 110 7 43 -49 -58 106
-43 -16 115 -26 53 -93 127 -81
43 -123 114 95 59 117 -40 -46
-89 23 16 -79 -110 -12 -11 -36
-50 11 -35 64 127 96 42 73
-65 0 58 39 48 93 -19 -12
78 -36 62 36 -76 -117 49 30
24 95 -36 87 57 -98 -51 -116
4 85 -23 28 66 7 -28 -63
-1 -116 81 -76 123 -28 30 -44
116 16 53 109 -58 127 6 -22
-42 -64 -20 81 -50 -3 90 81
-113 3 -76 -89 56 -72 -122 -71
-119 -96 -9 -5 79 78 -43 -111
-52 16 -7 -69 -15 -32 46 47
26 36 -115 65 127 67 49 32
75 -127 -82 78 -32 29 6 52
32 -9 -62 56 -73 -40 112 56
65 45 -93 -17 -80 -48 -3 21
71 104 -106 -94 -16 70 -30 98
-18 -93 -90 -41 -80 3 55 -91
-77 -90 17 101 -21 -98 93 114
88 41 47 -11 93 115 3 -24
-8 -8 -3 23 125 127 -14 114

tfl.pseudo_qconst1 i1 [32, 64]
00000000: f0d0 09d1 bac4 160f 5a1c 43b7 612e 0a50
00000010: a22a df1f 5fd6 38e4 0f81 f558 5b97 b297
00000020: 3349 1c69 ce33 67cc 69dc 54a8 030a dafb
00000030: 0f16 64ca 5cb1 c99e 2a43 76ae f7eb 0204
00000040: c7db 7cb8 7f53 eb90 4130 db2c 6339 ecaa
00000050: 4d30 cbfc 03b5 541e d630 df0a 9c12 f56b
00000060: b5fd 3acf 92f2 f429 3d1b 2761 6bcb 5bad
00000070: 4072 73f3 113f cf11 5d4e f5a8 4221 9c0f
00000080: 0367 13e8 7ffa 19d6 32c3 b7e0 6d58 d339
00000090: 2f3f 331f 672a d5f4 ad3c af34 b4ac f52e
000000a0: 56e7 0033 d17b 403e 04fc 56b7 5750 ca47
000000b0: 9715 3e26 45dd b93a f968 3d27 053f d75c
000000c0: 01dd c166 8137 be25 6640 1826 6e25 2b6d
000000d0: 2b48 fab8 2be9 4ff3 a5e0 bb36 f449 3f46
000000e0: 2769 f404 50e7 6db7 3d0b c51b 6135 47e7
000000f0: 8cf0 abfa 39a0 6617 1583 210b 31c7 adcc
-16 -48 9 -47 -70 -60 22 15
90 28 67 -73 97 46 10 80
-94 42 -33 31 95 -42 56 -28
15 -127 -11 88 91 -105 -78 -105
51 73 28 105 -50 51 103 -52
105 -36 84 -88 3 10 -38 -5
15 22 100 -54 92 -79 -55 -98
42 67 118 -82 -9 -21 2 4
-57 -37 124 -72 127 83 -21 -112
65 48 -37 44 99 57 -20 -86
77 48 -53 -4 3 -75 84 30
-42 48 -33 10 -100 18 -11 107
-75 -3 58 -49 -110 -14 -12 41
61 27 39 97 107 -53 91 -83
64 114 115 -13 17 63 -49 17
93 78 -11 -88 66 33 -100 15
3 103 19 -24 127 -6 25 -42
50 -61 -73 -32 109 88 -45 57
47 63 51 31 103 42 -43 -12
-83 60 -81 52 -76 -84 -11 46
86 -25 0 51 -47 123 64 62
4 -4 86 -73 87 80 -54 71
-105 21 62 38 69 -35 -71 58
-7 104 61 39 5 63 -41 92
1 -35 -63 102 -127 55 -66 37
102 64 24 38 110 37 43 109
43 72 -6 -72 43 -23 79 -13
-91 -32 -69 54 -12 73 63 70
39 105 -12 4 80 -25 109 -73
61 11 -59 27 97 53 71 -25
-116 -16 -85 -6 57 -96 102 23
21 -125 33 11 49 -57 -83 -52
