tensorflow/model_quantized.tflite (tflite, 3016 bytes, 5 tensors)

arith.constant f4 [1, 8]
0	0x3ec36d47	0.3816931
1	0x3e4e9a82	0.20176128
2	0xbf42d490	-0.76105595
3	0x3e21a135	0.15784152
4	0xbeceba39	-0.40376452
5	0x397b688a	0.00023976169
6	0x3e4431de	0.19159648
7	0x3f43cb71	0.764823

arith.constant1 f4 [8, 16]
0	0xbe417036	-0.18890461
1	0x3e50f898	0.20407331
2	0x3ed8aa21	0.42317298
3	0xbe839350	-0.25698328
4	0xbec5d35e	-0.38637823
5	0xbed9bd58	-0.4252727
6	0x3d068d89	0.032849822
7	0xbe94cc15	-0.29061952
8	0x3ead318f	0.33826873
9	0x3dba2b1c	0.09090254
10	0xbe21eb2f	-0.15812372
11	0x3eb33b57	0.3500621
12	0x3f069cad	0.5258282
13	0xbeda62ee	-0.42653602
14	0x3daf368d	0.085553266
15	0xbeb7dd70	-0.3591113
16	0xbce16681	-0.027514698
17	0xbe2df9e0	-0.16989851
18	0x3ef6a07c	0.48169315
19	0xbca84400	-0.020540237
20	0x3eecea17	0.46272346
21	0xbe719b68	-0.23594439
22	0x3ec04b8a	0.37557632
23	0xbec92d2f	-0.39292285
24	0x3d08eed3	0.033430886
25	0x3ef1d740	0.47234535
26	0xbec53f8b	-0.38525042
27	0xbed485b6	-0.41508263
28	0x3e3eb2e1	0.18622924
29	0xbe608718	-0.21926534
30	0xbe425802	-0.18978885
31	0xbee15128	-0.4400723
32	0x3ea73103	0.3265458
33	0x3e9543ab	0.2915319
34	0x3d0f7086	0.03501942
35	0xbe80cee0	-0.25157833
36	0xbdddfb6c	-0.108389705
37	0x3e37ca70	0.17948318
38	0xbe6bc859	-0.23025645
39	0x3ece0d20	0.4024439
40	0xbe35520c	-0.1770708
41	0x3ed2973e	0.41131014
42	0x3e9ccd60	0.3062544
43	0xbebf854f	-0.37406394
44	0xbdf527d0	-0.11970484
45	0x3ccb8973	0.024845814
46	0xbe8a8dee	-0.2706141
47	0x3d0062de	0.031344287
48	0x3eb53165	0.35389248
49	0x3eee517a	0.46546537
50	0xbd574334	-0.052554324
51	0xbed38830	-0.4131484
52	0xbdc9ed44	-0.09859708
53	0xbe7e39d8	-0.24826753
54	0xbe8609ea	-0.2617944
55	0x3cc9cdba	0.02463423
56	0x3eba9057	0.36438248
57	0x3eb6f704	0.35735333
58	0xbdd2411f	-0.10266327
59	0x3df5ee66	0.120083615
60	0x3ead8e76	0.33897752
61	0xbd4c67bc	-0.049903616
62	0x3f035ec8	0.513165
63	0xbcca59ee	-0.024701085
64	0xbee78e74	-0.4522587
65	0xbeda66b4	-0.4265648
66	0xbe646bd0	-0.22306752
67	0xbed57854	-0.41693366
68	0x3ec9222c	0.39283884
69	0xbef35780	-0.47527695
70	0x3ec64c10	0.38729906
71	0xbe109798	-0.14120328
72	0xbe996ac0	-0.29964256
73	0xbe65a7d0	-0.22427297
74	0x3c1e3d00	0.009658098
75	0x3ead0154	0.33790076
76	0x3c3a0e00	0.011355877
77	0x3ec671d4	0.3875872
78	0xbe7dfaf0	-0.24802756
79	0xbdd91a40	-0.1060071
80	0x3ed2cecf	0.41173407
81	0xbe71e8a8	-0.23623908
82	0xbe0061fd	-0.1253738
83	0xbe4cba00	-0.19992828
84	0xbecc4143	-0.3989354
85	0x3eb745ac	0.35795343
86	0x3edd2a27	0.43196222
87	0x3ed080b1	0.40723184
88	0xbcda5c8b	-0.026655456
89	0x3ece5ab3	0.40303573
90	0x3d99fa73	0.075184725
91	0xbe2ea0ce	-0.1705353
92	0xbeb67554	-0.3563639
93	0xbef58a8e	-0.4795727
94	0xbce2a0f2	-0.027664635
95	0xbe79ac00	-0.24382019
96	0x3ea7e7ff	0.32794186
97	0x3ee1ab1a	0.44075853
98	0x3efbc00a	0.49169952
99	0x3e8d6348	0.27614808
100	0x3db98e13	0.09060302
101	0xbe620818	-0.220734
102	0x3f013755	0.50475055
103	0xbe32e086	-0.17468461
104	0x3efb79bd	0.49116316
105	0x3e4cc6ae	0.19997665
106	0xbeccfb0f	-0.40035293
107	0x3efee7a4	0.49786103
108	0x3db5222f	0.08844411
109	0xbe239976	-0.1597651
110	0xbd044955	-0.032296497
111	0xbedfe552	-0.43729645
112	0x3ee0abd6	0.438811
113	0xbe8bc782	-0.2730065
114	0xbd390a0a	-0.04517559
115	0xbeb3c658	-0.35112262
116	0x3e785d51	0.24254347
117	0x3e893134	0.26795352
118	0xbebdaf8f	-0.37048003
119	0xbc6f19f1	-0.014593587
120	0x3ecba332	0.39772946
121	0xbee0aaf3	-0.43880424
122	0x3e6337c1	0.22189237
123	0x3ef6ad9a	0.48179322
124	0xbd69337c	-0.056933865
125	0x3e362c25	0.17790277
126	0xbda5bce7	-0.08092671
127	0x3c85f577	0.016352398

sequential_1/dense_1_2/Add/ReadVariableOp f4 [8]
0	0x3d5e218c	0.05423121
1	0x3d5566b3	0.052099895
2	0xbcd4de82	-0.025985006
3	0x3d54160c	0.051778838
4	0x00000000	0.0
5	0xbd0428cc	-0.03226547
6	0x3d543e0c	0.051816985
7	0x3d4f3bc2	0.0505941

sequential_1/dense_1/Add/ReadVariableOp f4 [16]
0	0x3d5c4d4c	0.053784654
1	0xbcee6bb4	-0.029104091
2	0x3d601a5b	0.054712635
3	0x00000000	0.0
4	0x3d430985	0.0476165
5	0x00000000	0.0
6	0xbd489d33	-0.04897804
7	0xbd386c49	-0.045025144
8	0x3d5291e4	0.051408663
9	0xbd1d2621	-0.03836644
10	0xbd18f01c	-0.03733836
11	0x3d4dbb91	0.050227705
12	0x3d605df3	0.054777097
13	0xbceb2368	-0.028703406
14	0xbc9a702a	-0.018852312
15	0xbd215f31	-0.039397422

sequential_1/dense_1/MatMul f4 [16, 5]
0	0x3efea73e	0.4973697
1	0x3eb3f647	0.35148832
2	0x3ea1bdd0	0.31590128
3	0x3e195c30	0.14976573
4	0x3ef0a834	0.4700333
5	0xbe17a7e8	-0.14810145
6	0xbee317f8	-0.44354224
7	0x3e8f6ee1	0.2801428
8	0xbe275cda	-0.16344014
9	0xbe0e9ca8	-0.13926947
10	0xbf087a31	-0.5331145
11	0xbe8fcfd6	-0.28088254
12	0xbd91c8d4	-0.07118383
13	0x3eb6c3c2	0.35696226
14	0x3f09ce50	0.5383043
15	0xbed88242	-0.4228688
16	0xbeb478d0	-0.35248423
17	0xbe8458ac	-0.258489
18	0xbe77080e	-0.24124166
19	0xbed16be7	-0.40902635
20	0xbeac6197	-0.33668205
21	0xbe87c976	-0.2652089
22	0x3ef2abd1	0.4739671
23	0x3e0e7f38	0.13915718
24	0x3ec22360	0.37917614
25	0xbe0dace2	-0.13835481
26	0xbedd3c6e	-0.43210167
27	0xbe9b8be7	-0.30380175
28	0xbe23a644	-0.15981394
29	0xbee8a398	-0.45437312
30	0x3ef5cef2	0.4800945
31	0x3e50cb3e	0.2039003
32	0x3dbc6e87	0.09200769
33	0xbe792ec0	-0.2433424
34	0x3ebf86dc	0.37407577
35	0xbdb26020	-0.08709741
36	0x3c38b013	0.011272448
37	0xbed8351e	-0.42228025
38	0x3e0b7206	0.13617715
39	0xbe69f5fa	-0.22847739
40	0x3d9071f0	0.07052982
41	0x3eeb2adf	0.45931146
42	0x3ea13a41	0.31489757
43	0xbda0846c	-0.078377575
44	0x3e8ea59d	0.27860728
45	0xbd846298	-0.06464118
46	0xbc64c3f3	-0.013962734
47	0x3e829bd0	0.255095
48	0xbe4019d6	-0.18759856
49	0x3ed587ba	0.41705114
50	0xbe8dd04c	-0.2769798
51	0x3e4af782	0.19820979
52	0xbe9e15aa	-0.30875903
53	0x3b5d442e	0.0033762562
54	0x3ee0d707	0.43914053
55	0x3ea81d60	0.3283491
56	0x3ed4c765	0.41558376
57	0x3e49323d	0.1964807
58	0xbf07def0	-0.5307455
59	0x3eca9626	0.3956768
60	0xbefd8b08	-0.49520135
61	0x3eeebbef	0.46627757
62	0x3f007940	0.5018501
63	0x3ef89cf6	0.48557252
64	0x3e23db97	0.16001736
65	0xbd04eca0	-0.032452226
66	0xbf03df30	-0.5151243
67	0x3ee6c11d	0.4506921
68	0xbe7b622a	-0.24549165
69	0x3e430be9	0.19047512
70	0x3ecb693a	0.3972872
71	0x3cefa688	0.029254213
72	0x3eb15623	0.3463603
73	0x3e82b079	0.25525263
74	0xbddc6350	-0.1076113
75	0xbeb37396	-0.35049123
76	0xbd657808	-0.056022674
77	0xbbf20610	-0.0073859766
78	0x3ea12f73	0.31481513
79	0x3e8e1a9b	0.27754673
