tensorflow/model.tflite (tflite, 17704 bytes, 10 tensors)

arith.constant f4 [4, 32]
00000000: 281d c83e d1b0 a2be bb68 883e 6bb3 bebe
00000010: 7e3e 273e 5b6d b43e e8e7 6d3e 9cc5 813e
00000020: fb0b c3be 55bb 5f3d cbec 863e 02e3 d6be
00000030: 830c cf3e bdf4 9d3e be1c 8f3e 73aa a8bd
00000040: 087a b8be f5ef e2be 4216 dabd 147a 78be
00000050: e787 a1be e8ae 90bd a789 de3e ee0c db3c
00000060: fc92 06bd 7a57 a63d 3c36 80be fc96 bd3c
00000070: c832 35be 1f3a ba3e ad73 253e 53f9 c33e
00000080: ea62 30be 10bc ae3e 8d0c c9be adc4 273e
00000090: 2298 2b3e 8032 67be e86d 4f3d f105 513e
000000a0: 6da0 d1be 9620 0b3e 99ba 443e 1afd 823e
000000b0: 6539 5b3d 9648 b2be 4b86 dabe ff10 513e
000000c0: 7658 3b3e 87b5 1fbe e576 87be 09a3 e03e
000000d0: 9bb4 8abd b4fb 153e 3ce1 cabe 0b88 9cbe
000000e0: 782c 833e edb1 a5bd 14e4 86be 2354 44be
000000f0: 3486 2c3e 5917 d13d ded5 803e eeea 933e
00000100: 84cd dc3e 45bc 55be 5235 48be d385 aabe
00000110: 6734 c5be 0012 d5bc 1b8f 1a3e b187 70be
00000120: 99ba c7be a154 b2be 37e9 eb3e 2def 613e
00000130: f973 c2be 7536 983e 175a b13e 9caf e13e
00000140: b35e d5bd ee29 c4be 14a0 f0be 131f 85bd
00000150: 8653 90be cf8a 2d3e e2ca d4be 6f7f a93d
00000160: 5c88 b73e 2627 ccbe 92a2 3a3e 1a97 63bc
00000170: e666 0fbd a6a8 943e 5532 12be 95fb 763e
00000180: d2b2 e1bd d08c 173e 63f1 ed3c b51d 1fbe
00000190: fa2f f33d 4820 9e3d 90c8 313e 4ea9 c4be
000001a0: 1788 d1bd 86f4 d5be 13c5 a4be cb08 473e
000001b0: 14de ddbe 07e6 61be 78bb 4d3e 0736 d5bb
000001c0: fe8e 2a3e f93c 7b3e 19df 8fbd f0d8 993e
000001d0: 9d10 0a3d 5c44 e3be be54 993e a4f5 babe
000001e0: 03e5 4d3e 67fc 8f3e b01e 683e 7f9b dcbe
000001f0: f170 b73e 7464 373d e07d 50be ed75 153e
0.39084744 -0.31775525 0.26642403 -0.3724626 0.16332433 0.35239682 0.23232996 0.25346076
-0.38095078 0.054622013 0.26352534 -0.41970068 0.40439233 0.30850783 0.27951616 -0.082356356
-0.36030602 -0.44323698 -0.106487766 -0.24265319 -0.31548998 -0.07064611 0.43464395 0.026739564
-0.03285502 0.081221536 -0.25041378 0.023143284 -0.17695153 0.36372468 0.16157408 0.38276157
-0.17225233 0.34127855 -0.39267388 0.1638362 0.16757253 -0.22577858 0.050641924 0.20412423
-0.40942708 0.1358665 0.19211806 0.25583726 0.053521533 -0.34821004 -0.42680582 0.2041664
0.18295464 -0.15596591 -0.26457897 0.43874386 -0.06772729 0.14646798 -0.39624965 -0.30572543
0.25619864 -0.08090577 -0.26345885 -0.1917272 0.1684807 0.10209531 0.25163168 0.28890175
0.43125546 -0.208726 -0.1955159 -0.33305225 -0.38516542 -0.02600956 0.15093653 -0.23489262
-0.3900955 -0.34830192 0.46076366 0.22063895 -0.37979105 0.29729047 0.34639046 0.44079292
-0.10418453 -0.3831324 -0.4699713 -0.065000676 -0.28188723 0.16947483 -0.41561037 0.08276259
0.3584622 -0.39873618 0.18226078 -0.013891006 -0.03501024 0.2903492 -0.14277013 0.24119408
-0.110204354 0.1479981 0.029045766 -0.15538676 0.11874385 0.07721001 0.17361665 -0.3841042
-0.10231035 -0.4178812 -0.32181606 0.19436948 -0.43333495 -0.22060405 0.20091045 -0.0065066847
0.1665611 0.24534978 -0.070249744 0.30048323 0.03370725 -0.44388092 0.29947466 -0.36515534
0.20106892 0.28122255 0.22667956 -0.43087384 0.35828355 0.044773534 -0.20360518 0.14595766

arith.constant1 f4 [32, 32]
00000000: 4b92 c7bb 6404 f5bd 0b67 1d3e 6fb5 3cbd
00000010: 05e5 2b3e 8598 cb3d 59a7 8abc 6869 8b3e
00000020: 950e 06be dc82 963e b3f9 99bd d338 843d
00000030: 9420 9bbe 4c94 8dbd 9c07 573e 7d64 13bd
00000040: dad7 2fbd 0b8c b93e 9f1e 783e e5d7 8b3e
00000050: 32b2 b43e 127a 3a3e 7cf9 82be 2656 f639
00000060: f305 4cbe 3d29 b13e 83d3 86bd d111 16bd
00000070: c27e 033e 0920 76be 507d f7bc 9591 48be
00000080: a2aa 93be 40a6 583c d051 6cbd 57dd 52be
00000090: 1003 223d 8ab1 92be 800f 663c 12cb 4e3e
000000a0: 8030 3bbe d612 67be 2a14 743e 00b7 1e3b
000000b0: 1cac d7bd f83d 83be 58d8 3cbd 5030 52bd
000000c0: be30 123e f078 2abd d0e5 3c3e b698 96be
000000d0: feb0 8cbe 741a 7fbd f234 6f3e a493 92be
000000e0: 4084 b3bc 5005 cfbd fa34 e3bd f018 d93c
000000f0: aacf f5bd d00d df3d 183f 143d d374 8b3e
00000100: 4ea8 83be 81df 0dbe 020b 803e 035e 833c
00000110: 0a2f ca3d f1c7 e5bd 6037 06be 0196 763e
00000120: f0a3 cabd a925 14bd 0ba0 863e 8b0c 77bd
00000130: 4b3f f83d ea3b 59be 7518 943e bc38 3dbe
00000140: 2a13 c93d c62f 8fbe 6e22 853e 08db 5c3e
00000150: ee84 093e 1bdc 873e fbe2 b9bd 3841 d8bd
00000160: f2ad 50be 90ea 5a3d 7b41 123d 032a 37be
00000170: 6688 7fbe 8d1e d8bc 69eb c7bc 5851 a8bd
00000180: a611 0cbe fdf7 013d f253 c6bd ebf9 343e
00000190: 7e6e b33e db7b 873e 56c7 ef3d d515 4f3e
000001a0: a91d 38be 73ee a4b9 3441 243e 4252 dc3d
000001b0: 5bdd 073e 0588 833e 438d 5bbd ebc1 07bd
000001c0: e048 5d3e f12e cbbd 2030 2f3e 7abb c93d
000001d0: 1618 57be 5c5c a5be dec8 0a3e e60b ac3d
000001e0: e06b 893d 29b3 863e 9e22 c9bd 1ea9 743e
000001f0: 6210 223e 55c0 8abe 4305 11be 0e7e a4be
00000200: f330 453c 2b04 733e 26bb 83bd cb75 a03d
00000210: 5b47 3c3e 9269 993c a42c a2bd d778 35be
00000220: 2b2f 0abb 23f9 a5be 3ba0 673e d59e 5abe
00000230: 2cce af3e b6b2 9fbd b981 ae3d 138e f9bd
00000240: dc72 a63e 79b5 333d ec00 193e 68d9 9b3e
00000250: 5845 25be e909 b63e 2ebf 943c 80d5 7dbd
00000260: f365 efbd 9a6c 38be f11a 68bd 2e4b 693e
00000270: 19d8 0ebe 7b7f 0cbc ce6f 803e 5855 683e
00000280: df22 88be 5195 ec3b 44b3 36be 8fbc 57be
00000290: 527a 073e 0400 2fbe a5bb 93be f396 2bbe
000002a0: 6eff 8fbe 246b 68be 5ad2 a5bc 20d7 52bc
000002b0: 2436 3f3e dc14 3c3e 2281 d1bd b49d 85be
000002c0: 8b2f fcbd fee1 1d3d a0b3 8cbc 4e20 26be
000002d0: 6004 0ebd 0d18 9bbd cb7c df3d d226 e23d
000002e0: aff0 793d 3913 ac3d f9d8 8abe c92b 1c3e
000002f0: 2f88 993e 5e51 213e 733c eb3d 86d3 983d
00000300: 6b69 453e 7025 a8be 3dc8 58be e7b8 4e3e
00000310: 2091 a7bd c8d1 993d f4a2 743c e8b4 0a3e
00000320: a093 a93d 656c babc cd0c 25be c995 143e
00000330: a1fb 40be 021d d3bd c265 943e 352b 133e
00000340: def5 2b3e 704c f03d da57 75be 62a5 31bd
00000350: 7c3d 54be b1af febd 6657 d8bb 8993 5b3d
00000360: cfb0 3a3e e0fa 893e d6bf 8cbe b50e 7abe
00000370: da35 2bbd d282 3a3e ffb5 9fbd 15fa 813e
00000380: 8a64 4ebd 9121 85be 2621 81be 2569 edbd
00000390: 95ad 65be df5f 203c b5b1 1c3e e0a7 82be
000003a0: 82d0 5dbe 38aa 80be 33af 3f3d ea36 903e
000003b0: 36c3 72bd fc75 8cbe d2e6 853e ba6f a33e
000003c0: e1e6 7c3e 8aba ec3d 77e0 053e 10ae 02bd
000003d0: 2f49 853e 2340 a53e 9449 1b3c f75c 88bd
000003e0: 09d8 b6bc 2a53 b2bc a694 efbb a2b8 863d
000003f0: 08ef b23e de0a b63e 139e 21bd d3ff a33e
-0.0060904375 -0.11963728 0.15371339 -0.046071466 0.16786583 0.099412 -0.0169255 0.27228856
-0.130915 0.29396713 -0.075183295 0.06456151 -0.30298293 -0.06913051 0.20998996 -0.035984505
-0.04293046 0.36239657 0.24230431 0.27313152 0.35292202 0.18210629 -0.25580966 0.00046984962
-0.19924144 0.34601775 -0.065833114 -0.036638085 0.12841323 -0.24035658 -0.03021112 -0.19586785
-0.2884112 0.013223231 -0.05769521 -0.20592247 0.039553702 -0.28651077 0.014041781 0.20194653
-0.1828022 -0.22565779 0.23835817 0.0024217963 -0.10530874 -0.25633216 -0.04610476 -0.051315606
0.14276406 -0.04161924 0.18447042 -0.29413384 -0.27478784 -0.062281087 0.23360041 -0.28628266
-0.021913648 -0.10108435 -0.11094089 0.026501149 -0.120024994 0.108913064 0.036192983 0.27237567
-0.25714344 -0.13854791 0.25008398 0.01603604 0.09872253 -0.112197764 -0.13107061 0.2408066
-0.0989455 -0.036168728 0.26293978 -0.060314696 0.12121447 -0.21214262 0.2892491 -0.18478674
0.098181084 -0.27966136 0.2600283 0.21567929 0.13429615 0.26535115 -0.09076496 -0.105593145
-0.20378855 0.053446352 0.03570698 -0.1788712 -0.24954376 -0.026381755 -0.024404244 -0.0821864
-0.13678607 0.03173064 -0.0968398 0.17673461 0.35045236 0.26461682 0.11707942 0.20223172
-0.17980064 -0.00031458176 0.16040498 0.10757877 0.13268034 0.25689712 -0.053601515 -0.03314392
0.21609831 -0.09921063 0.17108202 0.098502114 -0.21005282 -0.32297027 0.13553187 0.08400707
0.06710029 0.26308563 -0.09821056 0.23892638 0.15826562 -0.27099863 -0.14162163 -0.32127422
0.012035596 0.23732059 -0.0643218 0.07834967 0.18386595 0.018727098 -0.07918671 -0.17721878
-0.0021085243 -0.3241664 0.22619717 -0.21349652 0.34336984 -0.07797758 0.085208364 -0.12185302
0.32509506 0.043874238 0.14941758 0.30439305 -0.16139734 0.35554436 0.018157568 -0.061971188
-0.11689367 -0.18010178 -0.05666632 0.22782585 -0.13949622 -0.008575316 0.250853 0.22688806
-0.26589105 0.0072199483 -0.17841822 -0.21068023 0.13230255 -0.1708985 -0.288541 -0.16756801
-0.28124565 -0.22697121 -0.020241905 -0.012868673 0.18672997 0.18367332 -0.10229708 -0.2609688
-0.123137556 0.0385456 -0.017175496 -0.16223261 -0.03467214 -0.07572947 0.10912474 0.11042561
0.06102055 0.08402104 -0.27118662 0.15251078 0.29986712 0.15753695 0.11486139 0.0746222
0.19278495 -0.32841063 -0.21170135 0.20187722 -0.08181977 0.07510716 0.014931429 0.13545573
0.0828011 -0.022756765 -0.16118164 0.14510264 -0.18845989 -0.10308267 0.28983885 0.14371951
0.1679301 0.11733329 -0.23959294 -0.043370612 -0.2072658 -0.12435854 -0.0066022156 0.053607497
0.1823151 0.26949215 -0.2749011 -0.24419673 -0.041799404 0.18213966 -0.07798385 0.2538611
-0.05038885 -0.26002172 -0.25220603 -0.1159232 -0.22429498 0.009788482 0.15302165 -0.25518703
-0.2166157 -0.25129867 0.046797942 0.28166896 -0.0592682 -0.27433765 0.26152664 0.31921178
0.24697448 0.11559017 0.13073908 -0.03190428 0.26032397 0.32275495 0.009477992 -0.06658357
-0.02231981 -0.021768171 -0.0073114214 0.06578185 0.3494799 0.35555166 -0.039457392 0.32031116

arith.constant2 f4 [32, 64]
00000000: 19f6 0ebd ad03 d5bd 2232 a53c 2a08 d2bd
00000010: 1eaa 1abe 170e 05be 96bb 453d 1782 013d
00000020: dddb 483e 2201 7d3d f8ac 143e 6b22 23be
00000030: 74e9 573e 7d3a cd3d 049f aa3c 0eb3 313e
00000040: f954 51be c638 bc3d b67b 93bd 1ae8 893d
00000050: deeb 523e 8963 bcbd 03b0 fa3d 3a55 77bd
00000060: 5058 093d 6209 8dbe 64e9 cbbc 093f 433e
00000070: 80ca 4a3e 8e11 69be 6d4b 2ebe 2bb7 69be
00000080: d43d e13d 261c 233e fee7 7b3d 8c3b 683e
00000090: 92d5 dfbd 5362 e23d 8e39 643e d699 e7bd
000000a0: 084e 683e ba88 9fbd 3f6b 3a3e 4a67 43be
000000b0: e699 f23b 22da b03c 9f2b a8bd 9bd1 2bbc
000000c0: 1a9c 023d 1b89 433d 74d7 5d3e eaa9 efbd
000000d0: 9e38 4d3e 2f87 2fbe 95db f3bd 8b8d 58be
000000e0: bc6e bc3d 85e3 143e 8265 833e 3b09 36be
000000f0: 2c68 a7bc 7101 38bd e890 903b a38f 1d3c
00000100: 87ba fabd 38a2 a3bd a168 873e 7611 1dbe
00000110: 6197 8a3e 020c 353e 6675 34bd f95d 74be
00000120: de59 0e3e 4dbb d13d 2323 a1bd 11a4 bf3d
00000130: 61ab 573e fdd8 f93d 80d0 2dbd 2bb6 3cbe
00000140: 62b2 283e c0e7 d23d 2318 e7bd 42d9 08bc
00000150: b6b8 e83b af06 24be f522 383e be77 833d
00000160: b1a7 b6bd 8af6 d23d 14da 8fbd b134 ac3c
00000170: 36a2 59be 1bb0 1b3d 3a5f b8bc 63d6 693e
00000180: a2ea 23be c0f2 e5bb 0522 fe3d c674 d4bd
00000190: 9db4 6fbe baf8 f0bc 2771 d1bc 4b71 b23d
000001a0: eb6d 053e 4e81 673d 1d4f aa3d b6bb 543e
000001b0: 3030 6a3e c3f4 e8bd 1104 463e c85d 35be
000001c0: ce89 0b3e 2378 783e f202 7b3e 092f dfbc
000001d0: b2b9 183d e413 0a3e d31b d7bd 219a 153d
000001e0: afdf 4b3e be92 293e a689 c0bc 5936 40be
000001f0: 97a0 103e e87f 8f3d 05d6 59be 26d6 063d
00000200: 5bc3 df3b 1ec2 803e 6aad 413d 5e26 70bd
00000210: 4101 9e3e dfee 72bc b987 7d3d aeb0 d2bd
00000220: d62b f83d cc05 19be a643 35be 0829 9fbd
00000230: 0c33 873e 89ac 5b3e c757 e0bd be43 0e3e
00000240: 8e39 e83d 87ff 1b3e 24d9 fc3d 2bd1 973d
00000250: fc75 803e fd3e d23d 949e d7bd aadd efbc
00000260: 15b6 4ebe 4a3b 143e d620 49be 0b44 023e
00000270: e284 3dbe cc2e 52be 45c0 d1bc 9b01 e53d
00000280: 6db1 553e 367b 7abd 3834 133a 2d9d fb3d
00000290: 7fce e8bd 07f8 983e 2479 203e e770 1b3e
000002a0: 1e51 173c 7e9a 0dbc 45b5 553e e243 36be
000002b0: a550 573e 7563 463e 9869 07be 02a2 313e
000002c0: a117 82be df52 513d 1c61 193e 0932 be3d
000002d0: 4819 2b3e 01f1 aebd 8185 31be 6e10 103e
000002e0: a570 85bc e5c6 803e f1a4 163e 45ae c03d
000002f0: f600 543c 91f7 1d3e 539b cabd 8908 663e
00000300: 0eb6 b53a e57c 9cbd 761d 0dbe 0816 623e
00000310: 006d 8dbe d4e4 f23d 6dd8 13be 88cd a43d
00000320: 519f 633e 7876 0f3e 96b3 533d 60ad a93d
00000330: cdf2 733e fb74 a43d 317d be3d 3b64 733e
00000340: 0505 c03d 49c8 1f3e 4e36 53bc 8d4f 1fbe
00000350: 8aeb bd3d 232b 4fbd 934a 303e 6a28 e8bc
00000360: faee 4abe 48b2 8fbd f87d 1abe c056 f03d
00000370: 4ef0 dabc 61af 213e 9584 0b3e 7d8b 1c3e
00000380: 438e ae3d ced2 6a3e dadb cdbc e374 1e3c
00000390: b30f 333e 2330 62bd a9b9 723e d129 23be
000003a0: afd3 063e 0591 c53c cf4e 03be 0f29 6d3d
000003b0: b62e 573e 773b ea3d 82c0 1d3e da02 5cbd
000003c0: 13c1 80be 8836 0bbd ef66 3cbe 9c9b 50bc
000003d0: 5c38 fe3d d070 56be fdee 633e 1b26 4a3d
000003e0: 0ffc 3c3d 3d1b 8bbe a317 933d e607 c53c
000003f0: 0a69 d83d 03ea febd d5db 38be 3a83 e9bd
-0.034902666 -0.10401092 0.020165507 -0.102554634 -0.15103957 -0.12993656 0.0482746 0.031618204
0.19615121 0.06176866 0.14519107 -0.15931098 0.21085149 0.100209214 0.020827778 0.1735346
-0.20442571 0.09190516 -0.0720133 0.06733723 0.20597789 -0.09198672 0.12240603 -0.060384013
0.033531487 -0.2754622 -0.024891563 0.19067015 0.1980381 -0.22760603 -0.1702096 -0.2282378
0.10998121 0.15928707 0.061500542 0.22678965 -0.10929407 0.1105391 0.2228758 -0.11308639
0.22686017 -0.077897504 0.18204974 -0.1908237 0.0074036 0.021588389 -0.08211445 -0.010486986
0.03188715 0.047738176 0.2166422 -0.117023304 0.20041129 -0.17141412 -0.11907116 -0.21147744
0.092008084 0.14539917 0.25663382 -0.17776959 -0.020435415 -0.04492325 0.0044118054 0.009616765
-0.122426085 -0.07989925 0.26447013 -0.15338692 0.27068618 0.17680362 -0.044057272 -0.23863973
0.13901469 0.10240803 -0.0786803 0.09357465 0.2106147 0.1219959 -0.04243517 -0.18428867
0.16474298 0.10298109 -0.112839006 -0.00835258 0.0071020974 -0.16018175 0.17982085 0.064193234
-0.08918703 0.1030093 -0.07024017 0.021021219 -0.21253285 0.038009744 -0.022506345 0.22835688
-0.16007474 -0.0070174634 0.124088325 -0.10373835 -0.23408742 -0.029415477 -0.02556665 0.08713015
0.13030212 0.0565198 0.08315871 0.20774731 0.22869945 -0.113748096 0.19337489 -0.17711556
0.13626787 0.24264579 0.24512842 -0.027244108 0.037286468 0.1348415 -0.10503354 0.036523942
0.19909547 0.16559884 -0.023503136 -0.18770732 0.1412376 0.07006818 -0.21273048 0.03291907
0.006828708 0.251481 0.04728452 -0.05863034 0.30860332 -0.014827459 0.061897013 -0.10287605
0.12117736 -0.14943618 -0.17701587 -0.07771498 0.26406133 0.21452536 -0.10954242 0.13893029
0.11339103 0.15234195 0.12346104 0.074129425 0.25090015 0.1026592 -0.10528293 -0.029280502
-0.20186646 0.14475742 -0.19641432 0.12721269 -0.18507722 -0.20525664 -0.025604377 0.11181947
0.20868464 -0.06115266 0.0005615386 0.12285838 -0.11367511 0.2987673 0.15671211 0.15179788
0.009235648 -0.008642791 0.2086993 -0.17799333 0.21026857 0.19373877 -0.13223875 0.17346957
-0.25408652 0.051104423 0.1497845 0.09286887 0.16708863 -0.085420616 -0.17336084 0.14068767
-0.016289065 0.25151744 0.14711358 0.09408239 0.012939682 0.1542647 -0.09892907 0.22464193
0.0013863461 -0.07641009 -0.1378077 0.22078717 -0.27622223 0.11860052 -0.14438029 0.080470145
0.22228743 0.14010036 0.05168494 0.08285022 0.2382309 0.08030125 0.09301222 0.23768704
0.093759574 0.15603746 -0.012891365 -0.1555769 0.09273441 -0.050578248 0.17215948 -0.028339583
-0.19817725 -0.07016426 -0.15087116 0.11735296 -0.026725914 0.15789558 0.13624795 0.15287586
0.08523228 0.22931978 -0.025129247 0.009671423 0.17486458 -0.055221688 0.23703636 -0.1593392
0.13166688 0.024117002 -0.12823032 0.057900485 0.21013913 0.11437123 0.15405467 -0.053713657
-0.25147304 -0.033987552 -0.18398641 -0.012732413 0.124130934 -0.20941472 0.22259136 0.049352746
0.04613882 -0.2716922 0.07182243 0.024051618 0.105669096 -0.12446978 -0.1805261 -0.114019826

arith.constant3 f4 [64, 5]
00000000: 8f20 333e 432f 94bc 24ce 8e3e c41a 34be
00000010: 3393 2a3d 9a08 03bd 1b1e 3fbe 717b 07bd
00000020: 3e14 53be 0fd6 b4bd 30d8 673e 9070 833e
00000030: 3101 a0bd 8716 84be 26c3 80bb 0a1e 263e
00000040: 7576 303e a645 a43e 71e4 7e3e c25a 7c3e
00000050: 1770 e03d d48e 5fbc b4a7 e4bd 4d39 abbe
00000060: 8eba 343e e572 df3c 3336 a7bd 09c8 3fbe
00000070: a377 2dbe 7a3e 34be b455 d6bd f46c 37be
00000080: eb98 8d3e 43ef a03d 3709 043e c305 44bc
00000090: 3097 5a3b 35da 663e 60d3 553e 5a3e 203e
000000a0: fc93 97be 25bc 8a3e 7de8 6d3e b805 3cbe
000000b0: 4f8e d9bc 1eaf 9abe 7cf1 273e fd5d 62bd
000000c0: dc96 383e 7462 c6bd 8402 953e 3af9 3b3e
000000d0: 5b46 45be 928f 853e 17b5 12be 158e d23d
000000e0: 7b1a 2abe 16ef 06be 818c d03d 0f1e ca3d
000000f0: 1e9e 8bbe b062 903e 898d 03be 986d 01bd
00000100: 9e5e 85be 91d6 1f3e e96c 2f3e 2dea 17be
00000110: 46e6 463e 0fc2 6f3e 78a7 3b3e 0a17 acbe
00000120: 204b 443e ae1d f2bd 4872 473e f797 46be
00000130: 2b8a 3fbe b5b0 ea3c d86b 803e 060f 8fbe
00000140: fab5 333d 6ba4 7c3e 1179 82be 3e6d 903d
00000150: ef40 eb3c 6b9b 82bc d980 25bd aa7d 963d
00000160: 2158 8c3e 8926 21bd fff7 fa3d 561e 88be
00000170: d4b6 563e 59fb 993e 0ccf c43d 1fb7 953e
00000180: 7c52 1d3e 5624 bf3d 7b27 2b3d 27f6 ec3d
00000190: e5f8 8d3e c7d2 373d 917e 8abe b800 35be
000001a0: a87a 90be 3c28 563e 3702 94be 03f2 543e
000001b0: dcce b63d a7bc a3be 58c1 893e e088 9fbe
000001c0: 43a8 413e 8c18 0f3e 874a 433e b9d0 9bbd
000001d0: c8bf a53b 0fbd 5dbe 6340 673e a942 89be
000001e0: 4af8 d3bd a411 6d3e 7e95 963d bc9b 433e
000001f0: 2750 85bd e8f2 56be 641a 663e dddf 13be
00000200: e5f9 17be 0496 85be 8754 243e b628 063c
00000210: 9c30 a63e b1d9 5dbe fe5d 713e d2da 8bbd
00000220: c5af 66be 32e2 923e bbd6 9e3e 5bf1 f93d
00000230: a6b9 efba 8922 5cbe 7ebf 333e 7705 3d3e
00000240: deaf 993d 6b4c 93be f4c6 943e 627c d4bd
00000250: 77f1 93be 96af 5bbc 7fae 9e3d caa2 7f3e
00000260: d98e c4bd a92e 5dbd 856f 8cbe 3eff 703e
00000270: 4605 723e 6d71 c03d 97dd 6cbe bcf4 2fbe
00000280: 9851 2cbe 9e4d 0abe f91e 233e 565e 2b3e
00000290: b42f 753e d795 61bd 951b f73d 34a9 993a
000002a0: 2e37 c3bc c5bf 933e db39 413e 4f06 213d
000002b0: cc8b 923e 477a 5dbd 9a58 03be 3e81 a83d
000002c0: cd3f 313e 6996 8e3e a02d 8c3d 1a11 083e
000002d0: 8ca1 1ebe 8cf1 90be 361f 8c3e 76a2 debc
000002e0: 027a 89bd a2f1 373e 6e37 353e 7b0b 9bbd
000002f0: 669f 4cbe 8b6a 2d3e 3fd0 84be a9d8 73bc
00000300: ae8e 6e3e 0454 d5bd 2733 523e 72b9 94bd
00000310: 81c6 97be c361 49be 7151 803c 674e 00bc
00000320: bd97 5bbe 3570 793d 323c 29be 7ad9 b93d
00000330: ec48 3ebd 59e0 583e 333f 263e e03f 1d3e
00000340: db49 243e c60d 6d3e 5150 91be 5527 4dbe
00000350: daa4 e8bd 1f45 91bd 775b 97be b91e aebd
00000360: e0a1 95be f671 923e 364a 483e 41de 0e3e
00000370: b5ae 4fbe f6a6 34be bd35 803e 8891 97be
00000380: 3342 ebbd afd2 abbe c75e 11be 4fc5 66be
00000390: 4e15 1b3c f0c1 1bbe a447 16be 711d 8d3e
000003a0: 0d9d 143e 8947 e2bd 0f0a 9abd ca96 233e
000003b0: e8fe 873c a2af 54be 2a1c 153e 13f0 14be
000003c0: 4a49 a33e c728 c43d 8a77 273e 540b 373d
000003d0: a6de 9abe d726 e03d 72a9 a13e d84b d03d
000003e0: 3a9f 33be a713 a8be 005c 663e a086 57bd
000003f0: 30c9 9fbe 0edb 163d e37b 9bbd c35f 8d3e
0.17492889 -0.018088942 0.27891648 -0.17588335 0.041644286 -0.031990625 -0.18663828 -0.033076707
-0.2061319 -0.08829891 0.22641063 0.25671816 -0.07812727 -0.25798437 -0.0039295135 0.16222396
0.17232688 0.32084388 0.24891831 0.24643996 0.109588794 -0.013644893 -0.11164799 -0.33442155
0.1764929 0.027276466 -0.081646346 -0.18728651 -0.16940169 -0.17601958 -0.10465565 -0.17912656
0.2765573 0.078581356 0.1289414 -0.011964264 0.0033354275 0.22544177 0.20881414 0.15648785
-0.2960509 0.27096668 0.23233218 -0.18361557 -0.026557116 -0.3021173 0.16400713 -0.055265415
0.18026298 -0.09686747 0.29103482 0.18356791 -0.1926512 0.26086098 -0.14326893 0.10281006
-0.16611664 -0.13177142 0.10183049 0.098690145 -0.2726907 0.28200293 -0.1284696 -0.031598657
-0.2604875 0.15609194 0.1713139 -0.14835425 0.1942378 0.23413871 0.18325603 -0.33611327
0.19169283 -0.11822067 0.19477189 -0.19393907 -0.1870505 0.028648714 0.25082278 -0.2794115
0.04387472 0.24672095 -0.2548299 0.07052086 0.028717486 -0.01594325 -0.04040608 0.07348187
0.27410987 -0.03934339 0.12254333 -0.26585644 0.20968181 0.30074576 0.096098036 0.29241273
0.15363497 0.093331024 0.0417857 0.11570387 0.27728954 0.044878747 -0.27049688 -0.17676055
-0.2821858 0.20913786 -0.2890794 0.20795445 0.08926174 -0.31979868 0.26905322 -0.31159115
0.18911843 0.13974208 0.19071399 -0.0760817 0.0050582625 -0.21654151 0.22583155 -0.2680867
-0.10350092 0.2315126 0.07352732 0.19102377 -0.065094285 -0.20991099 0.22471005 -0.14440866
-0.14841421 -0.26091015 0.1604787 0.008188417 0.3245896 -0.21665074 0.23571011 -0.06828846
-0.22527988 0.28688198 0.310232 0.12204238 -0.001828958 -0.21497549 0.17553517 0.18459116
0.07504247 -0.2876924 0.2905804 -0.10375287 -0.2889516 -0.013408562 0.07748126 0.24964443
-0.095975585 -0.053999577 -0.27428833 0.23534867 0.23634824 0.09396634 -0.23131405 -0.17183203
-0.16828 -0.13506171 0.15929784 0.16735205 0.23943979 -0.05507454 0.12065808 0.00117234
-0.023830023 0.28857246 0.18869726 0.039312657 0.28622282 -0.05407169 -0.12826768 0.08227776
0.17309494 0.2784913 0.0684464 0.13287774 -0.15491313 -0.28309286 0.27367562 -0.027177077
-0.06712724 0.1796327 0.17696926 -0.07570549 -0.1998268 0.16935174 -0.2594013 -0.014883199
0.23296615 -0.10416415 0.20527326 -0.072619334 -0.29643634 -0.196662 0.015663834 -0.007831193
-0.21444602 0.060898025 -0.16526869 0.090746835 -0.046456262 0.21179332 0.16235046 0.15356398
0.16043799 0.23149785 -0.2838159 -0.20034535 -0.11359568 -0.07093262 -0.2956197 -0.08501954
-0.29225063 0.2860257 0.19559559 0.1395197 -0.20281489 -0.17641816 0.25041 -0.2960322
-0.11487236 -0.33559176 -0.14196311 -0.22536205 0.009465529 -0.152107 -0.14675766 0.27561525
0.14513035 -0.110488005 -0.0752145 0.1597549 0.016601041 -0.20770124 0.14561525 -0.14544706
0.31891853 0.0957809 0.16354194 0.044688538 -0.30247992 0.10944908 0.3157459 0.10170716
-0.17541209 -0.32827494 0.22496033 -0.052618623 -0.3120818 0.03683 -0.07591989 0.27612123

arith.constant4 f4 [1, 5]
00000000: 6c6b d53a ee37 253b f0d2 4a3a 563b 523a
00000010: 6bbf 503a
0.0016282625 0.0025210339 0.00077371206 0.0008019706 0.0007963094

Const_1 f4 [1, 5]
00000000: 3c1d 1145 00d0 7645 4dde ff44 3d88 4445
00000010: 808d eb44
2321.8271 3949.0 2046.9469 3144.515 1884.4219

sequential_1/dense_1_2/Add/ReadVariableOp f4 [32]
00000000: ca02 fdbc 80e9 813c 0a2e 73bb 1297 0a3d
00000010: 84ed ab3c cc49 1f3d d2bc 3d3d 8a7b 953b
00000020: 7881 f73b 38ba ce3c 953a 80bc 882b d4bc
00000030: cd02 fe3c 0000 0000 fe56 453d 6b60 523d
00000040: 26ce 7b3d b7d5 ff3c 3fb2 ae3b 3dde 843d
00000050: 88ad 443d 75cc 283d f9ae 393d cbf2 e83b
00000060: d428 c4bc 96e9 483d 83a4 4c3c eef5 043c
00000070: 1728 393d 595b 333d 5b64 c53c 4571 683d
-0.030885119 0.015858412 -0.00371063 0.033835478 0.02098728 0.038888738 0.04632265 0.004561846
0.0075532757 0.02523528 -0.015652934 -0.025899664 0.031007195 0.0 0.048178665 0.051361483
0.061475895 0.031229837 0.005331307 0.06487701 0.048017055 0.04121061 0.045332883 0.0071090213
-0.02394525 0.04905089 0.0124903945 0.008115275 0.04520425 0.043788288 0.024095705 0.056748647

sequential_1/dense_1/Add/ReadVariableOp f4 [64]
00000000: 0b93 283c 12e6 733c 5b57 7e3d 14a3 0c3d
00000010: 73c2 e53c c2b2 97bc 33e7 d03c 0036 6e3d
00000020: a78f 793d 5f85 093b 51a7 6f3c 2fb7 a33b
00000030: 49a0 623d ef54 323d 0159 633d ff58 273d
00000040: 2af3 f83b 03e4 703d 3d9d 413d 543c 833d
00000050: 8ccd 593d af6b 723d a60e 263d 459a 7ebc
00000060: 9881 5bbc 7d63 7fbb 7052 183d 20dc 633d
00000070: 1dc3 393d 3ba5 5c3d fe18 a53b 3386 443d
00000080: a35c 4a3d 6a97 443d ece8 933d 2a45 563d
00000090: 5d85 643d 0442 b3bc 1121 373d eea5 023d
000000a0: 3f27 19bc 5c33 8cbc c209 783c a3fb 643d
000000b0: 6a7f cdbc 0dd0 573d 709c 623d ddb2 2a3b
000000c0: 398f 4f3d 334c 7e3d f462 143d 8f6d 5c3d
000000d0: 5eb2 543c dd08 233c deb6 943d 2886 663d
000000e0: 650d 873d fba3 203d 7fba 6c3d 88d7 613d
000000f0: fcfa 933c bea7 24bc 173e 673d b3a0 393d
0.010288964 0.014886396 0.062095027 0.03433521 0.028046822 -0.018517856 0.02550087 0.058156967
0.060928013 0.0020984036 0.014627294 0.0049962024 0.05532864 0.04353803 0.055504803 0.040856358
0.007597347 0.0588112 0.047269095 0.06407991 0.05317454 0.059184726 0.040541314 -0.01553971
-0.013397597 -0.0038969212 0.037187994 0.05562985 0.04535209 0.053868514 0.0050383797 0.047979545
0.04940475 0.047995962 0.07222161 0.052312054 0.055791248 -0.021882065 0.04470927 0.031896524
-0.009347736 -0.017114334 0.015139045 0.055904042 -0.02508517 0.052688647 0.05532497 0.0026046552
0.050673697 0.062084388 0.03622718 0.05381542 0.012981979 0.009950844 0.07261442 0.056280285
0.06594352 0.039218884 0.057795044 0.055137187 0.018064015 -0.0100497585 0.056455698 0.04531927

sequential_1/dense_2_1/Add/ReadVariableOp f4 [32]
00000000: a778 ec3c 0000 0000 4eed ceba 0502 c83c
00000010: e896 89bb a6c9 d93c dc2f 53bb 88ad 553d
00000020: 24cd c6bc 40c6 6f3d 01c9 283d 2727 03bc
00000030: 6882 233d 0d52 f83c 876e b6bb 76ca c9bc
00000040: 2682 85bc 83ec 3b3d f836 413d 45ee 183d
00000050: 5001 5a3a 7622 af3c ba1e eb3c 35e4 1d3d
00000060: 2a42 f7bc 1456 333d 26d2 f23c 4bdb ca3c
00000070: 799a 533c 0c3a 623d c6a1 3c3d 9f6c 353d
0.028866125 0.0 -0.0015787275 0.024415025 -0.0041988976 0.026585411 -0.0032224571 0.052167445
-0.02426774 0.058538675 0.041207317 -0.00800494 0.039919287 0.030312562 -0.005567375 -0.024632674
-0.016297411 0.045879852 0.047171563 0.037336607 0.00083162356 0.021378737 0.028701175 0.038547713
-0.030182917 0.043783262 0.029641222 0.02476277 0.012915247 0.05523114 0.046052717 0.044293042

sequential_1/dense_3_1/Add/ReadVariableOp f4 [4]
00000000: fbe8 f33c d872 c3bb fd84 2ebd 9086 e0bc
0.02977418 -0.005964618 -0.042607296 -0.027407914
